training/weights/torch/g1.pth (torch, 346775 bytes, 12 tensors)

gru.weight_ih_l0 f4 [192, 136]
00000000: 6a76 563e e1bb dabe d086 44bd 67bd 083e
00000010: 3429 f43d 5290 e8be 8c99 d4bd 1ed1 e63d
00000020: 13f9 13be 86be a43e e5f7 47be a23d 25be
00000030: 86f4 9cbd 350e e43c e8e1 873d f31f f3bd
00000040: a157 843f 07fc a73e 72e2 c03e c329 f5bd
00000050: 094c e43e d259 233e 477d 4b3e 2d45 18bd
00000060: 1c11 133f e046 f63d 5fa4 c93e 15aa c0be
00000070: 1fb9 1e3f d478 cbbd ad55 8a3e 6082 51be
00000080: 8ee1 193e 1778 0dbf 762a 97be 7ddf 7a3e
00000090: d715 80be 5bbc 0a3e aeb8 4fbe 20f1 f93d
000000a0: 0dbd 78be 42a1 463e 7741 793e d28c a7be
000000b0: 8040 33bd ba62 96bc 2421 923e fd7d 82bd
000000c0: c560 7dbd 8e42 aa3d a02c c93d 26fc 12be
000000d0: 5887 c7bd dd7f afbd 7860 3d3d 538f b13d
000000e0: eb15 a03d 72d3 09bf 6c5c 05bf 1ef1 b8be
000000f0: 606c d6be 835b 09bd cf4b c13d 7291 bdbe
00000100: 4afd b3be 82b3 08bf 5d8b 91be d550 c9be
00000110: 13e0 cfbe c419 14bf 4148 ffbd 96d8 25be
00000120: ed2c 00bd 2cf3 20bf 5dcc 94be 9611 363c
00000130: 9251 9ebe 2941 15bf 3325 c1be 2d49 b23d
00000140: a8e3 b2be b0b6 ebbd 7676 97be 9483 4abe
00000150: 7ced 163e f399 e6be eb10 d1bc 1fc1 243e
00000160: 0366 933d 5b95 c1be 5186 08be 8381 cb3d
00000170: 9744 353e ac74 97be 800e b73e 3dd1 bdbe
00000180: a290 ddbe 5507 75bc 94b1 b3be fe79 9b3d
00000190: 2f9f 1fbf 77ed 8b3d 1fe3 05bf 2570 bcbe
000001a0: 9bf6 05bd d1bd 38be cc79 653e 694c 003e
000001b0: 0ddf 403e bcca 533e 4b70 2fbe 9d7e 0f3f
000001c0: fb89 16bd 702c 993e 078c b7bf b1cf e33e
000001d0: 2a12 28bf 2f9e 8a3e 4133 d9be 87fa a23e
000001e0: 6b6c bd3d db1a 8f3e 1f1c 29bf a3a0 fbbd
000001f0: 9b9c d4be 4d6c 043f 7e34 2a3e 37f5 b33e
00000200: bb70 c43e c58a a83d 8253 bbbe f619 d63e
00000210: e7c9 32bf 5ea9 a53e 44ec 17bf 5c56 643e
00000220: f96c a23e aef0 ec39 2574 c33e 0fd4 33be
00000230: 6d54 9e3e 1f9d d8bd 53c3 093b 863a 4cbe
00000240: cd14 2d3c 06b4 9bbe fe4d 923e 366b b6be
00000250: e052 af3e d13f 33be 83e8 f23d b1c3 7ebe
00000260: 74e6 7bbd 0c4c 1dbd 7f1d 29be 637f fcbd
00000270: 05ce e6bc 762e a1be a2e4 c53d ccd6 3fbe
00000280: a494 99bd fc3a 44bd 0b9c 723c aa0e adbe
00000290: c0c4 3fbe 3990 a8bd 40b3 0fbe 4c21 983c
000002a0: 9142 febd 0d1a 873c afa3 7f3d 284f 803e
000002b0: 3e49 563d 637b 0b3e 5c87 4f3d 0ac5 823e
000002c0: 3d9a 973c e858 d43c faa2 ccbd 63fd 1b3d
000002d0: 7917 6fbe ec3e 903e 5036 afbe c667 8ebc
000002e0: dd47 b7be 3573 523d ecb2 e53d edbc 363d
000002f0: 1eba 90be 288d f83d 78f5 e9bd 19c7 c03d
00000300: 010a a83d 7630 0e3e 5730 e5bd 8027 653e
00000310: 9adc 913d 400d 8f3d ad2e 1a3e ecd7 c03e
00000320: 8865 673e 7476 973e e1db 8fbe b38c 8a3e
00000330: 166c ca3c c837 7b3d ccb6 943d ba2a 903e
00000340: 3378 913e 2c10 843e 316f 3d3e 184d ca3d
00000350: 9cb5 bb3d 1d05 b53d c230 a73e cea6 943e
00000360: c338 953e d6ab 873e 738a 123e db47 6e3e
00000370: 8567 52be 9bec 073e 27d9 cfbd 69f4 863e
00000380: 23c4 73be 5f40 a73e e92c 4ebe d727 e23d
00000390: 3885 17bd 29d2 b93d 65f4 9bbe 87be 453e
000003a0: 5183 e13d 1c57 143d 4768 193e 0058 6d3d
000003b0: cf64 e93d 64ff ea3d 5a76 37be 6013 bc3c
000003c0: 33cd 143d fa64 663c 3832 253e ebce 2cbe
000003d0: a7ab 923c 132e 5dbe 1b76 723d 6124 f3b9
000003e0: fb9d c4bd 7535 113e 6e88 823d 4300 74bd
000003f0: 192a 7f3e 8053 d63d ecc5 843b 17c7 d53c
0.20943609 -0.42721465 -0.04798013 0.13353501 0.11921921 -0.45422608 -0.10380849 0.11270355
-0.14450483 0.32176608 -0.19528158 -0.16136792 -0.07663827 0.027838806 0.06634885 -0.11871328
1.0339242 0.3280947 0.37672764 -0.11970856 0.4458926 0.15952232 0.19872008 -0.037175346
0.5744798 0.12025237 0.39383218 -0.37629762 0.6200122 -0.099351555 0.2701849 -0.2045989
0.15027449 -0.5526137 -0.29524583 0.24499317 -0.25016662 0.13548414 -0.20285293 0.12204194
-0.24290867 0.19397452 0.24341379 -0.32724625 -0.043762684 -0.018357623 0.2854091 -0.063716866
-0.061859865 0.083134755 0.09822965 -0.14354 -0.09742612 -0.0856931 0.046234578 0.08669915
0.078166805 -0.53838265 -0.5209415 -0.36121458 -0.4187956 -0.033534538 0.094382875 -0.37025028
-0.35154182 -0.5339891 -0.28426638 -0.39319482 -0.40600643 -0.57851815 -0.12464953 -0.16195902
-0.031292845 -0.6287105 -0.29062167 0.011112591 -0.30921608 -0.5830255 -0.37723693 0.087053634
-0.34939313 -0.11509454 -0.29582566 -0.19776756 0.1473903 -0.4503933 -0.025520762 0.16089295
0.071971916 -0.37809262 -0.13332488 0.09936812 0.17701946 -0.295812 0.3575325 -0.370737
-0.4327441 -0.014955361 -0.3509642 0.075916275 -0.6235227 0.06832402 -0.52299684 -0.3680431
-0.032705884 -0.18041159 0.22409743 0.12529148 0.18835087 0.20682806 -0.1713268 0.5605257
-0.036752682 0.29916716 -1.4339608 0.44494393 -0.65652716 0.2707381 -0.42421916 0.31831762
0.09249195 0.27950177 -0.66058534 -0.122864984 -0.4152573 0.51727754 0.16621587 0.35148022
0.38367257 0.08229593 -0.3658715 0.41816682 -0.6983933 0.3235578 -0.5934489 0.22298568
0.31723765 0.00045192748 0.3817455 -0.17561363 0.30923787 -0.105768435 0.0021020963 -0.199442
0.010564041 -0.30410784 0.28575128 -0.3562867 0.34242916 -0.17504813 0.11860754 -0.24879338
-0.061499074 -0.038402602 -0.16515158 -0.123289846 -0.02817441 -0.3148076 0.09662749 -0.18734282
-0.07499054 -0.047907814 0.014807711 -0.3380025 -0.18727398 -0.08230633 -0.14033222 0.018570565
-0.1241504 0.016491914 0.06241196 0.2506039 0.052315943 0.13621287 0.050666198 0.25540954
0.018506164 0.0259213 -0.09992023 0.038083445 -0.23348798 0.28173006 -0.34221125 -0.017383467
-0.35797015 0.0513794 0.11215767 0.044613767 -0.28266996 0.121362984 -0.114237726 0.09412975
0.08205033 0.13885674 -0.11190861 0.2237835 0.071221545 0.06984949 0.15056868 0.37664735
0.22597325 0.2958256 -0.28097442 0.2706047 0.024709743 0.061332494 0.07261428 0.28157598
0.28412017 0.25793588 0.18499447 0.09877986 0.091654986 0.08838866 0.32654387 0.29033512
0.29144868 0.26498288 0.14310627 0.23269598 -0.20547302 0.13273852 -0.101488404 0.26358345
-0.23805289 0.326663 -0.2013432 0.11042755 -0.03699228 0.09073288 -0.30459896 0.19310962
0.11011375 0.036215886 0.14981185 0.05794525 0.11396181 0.11474493 -0.17916241 0.022958457
0.036328506 0.014062161 0.16132438 -0.16875808 0.017904116 -0.21599607 0.059194665 -0.00046375676
-0.09600445 0.14180548 0.06373678 -0.059570562 0.24918403 0.10465145 0.0040519144 0.02609591

gru.weight_hh_l0 f4 [192, 64]
00000000: 415a 99be 6d36 2abd 6519 9b3e 35d7 333f
00000010: b86f ca3e 6981 aebe e69e 1abe 2961 fa3d
00000020: ba24 043e 7a1c 943e 09c3 bfbe b6b1 923e
00000030: d019 ad3e 3ad9 57bb 82e7 313d 6541 083d
00000040: d899 a73e 7a96 303d 3cbd a2be 74c9 61be
00000050: d06c 113e 18b3 9b3d a2de 0abe 113d 063f
00000060: bbaf 913f d133 84be 133d 403d cc1a 8bbf
00000070: ff01 cabe 05f1 a5be ead2 723c 8399 c83e
00000080: 81b2 19be d68f ccbd 8bd3 4bbe f21a 70be
00000090: 4001 733e 5679 d3bd c0f0 02be d647 653e
000000a0: dcc6 00bf b56a ad3e 63ff 033e e955 0ebd
000000b0: 503e 6ebe c980 eebe ea94 963c 08a0 46be
000000c0: f2da 8cbd 2117 b1bb ef06 9bbd 81ee 3abe
000000d0: 4465 373e a112 b5be 163d 993c 5ef9 593c
000000e0: 654d 0dbe 7d44 eabe 9a8c 5ebe 3030 173f
000000f0: 8820 fa3d dfe3 aabd bfa6 35bd 8576 adbd
00000100: 3a80 96bd 5c20 15be ea82 093e 8511 babd
00000110: 4882 603e 9e1a a03e b9a4 77bd c837 54be
00000120: 60ce 7ebe 200d 3b3d a8ce 1fbe 1510 923e
00000130: 12d4 47be a766 b1bd d41a 493c 4443 ebbd
00000140: 992e 12be 044d c33e 375e 45be fbcf a6be
00000150: ec67 c83c 4a91 a9be f346 51be 4811 5c3e
00000160: 8e00 bd3d 2f7e 88bd caec 5a3d c313 6cbc
00000170: 0174 46be 1b58 d13d 04b0 9ebd 7c3e 9039
00000180: ba29 f4bc 17e4 c83d 75f9 303e d673 963c
00000190: 0538 0abe 70b9 dcbd 5594 853d 9f6e f63e
000001a0: 522d 2ebe 60a5 c9bd b2b1 2bbd 366e 243e
000001b0: 5399 54be 6a0b 5ebd 444b 593c 19b0 be3e
000001c0: 0f58 d03e 19cc 103e 4a47 64be c0c2 863e
000001d0: f752 07be e62a 50be 0176 853e 41b1 df3b
000001e0: d4fe 5c3e d99b a4bd 3707 11be d664 02bf
000001f0: 0b8d b83e 1e71 acbd 3093 0e3d 94f9 e73d
00000200: 4fda 8bbd 6b0f 713e 046d 063f af3b 65be
00000210: 4bd8 e03e 62ae a6be 67f9 2cbe bd4f b23c
00000220: 8b25 c13d a588 0fbe 86b5 ae3d 1d93 e33e
00000230: 9f28 e33a 9c81 a1bd f5e3 3cbe 8372 27bd
00000240: b76f 58be b57a 523e 7ebc 9abe 0431 62be
00000250: 1482 64be cc18 b13d c2c1 7f3e 6c70 c0bd
00000260: a264 50bc 4e43 8c3e 2cbb e4ba a769 cc3d
00000270: 28c7 e8be 9889 42be c50c ae3d a902 3f3e
00000280: 97cd 1e3e c3d8 3fbd 0a7c 9cbd f835 dd3d
00000290: 22ec 3abd d165 81be 4bbd f83c 8245 22bd
000002a0: 7ad8 313e 1ff5 513e 89bf fdbd 213d 8bbc
000002b0: 7e1d 3dbe 939e c6bc c5ed a33d 8c3f f3bd
000002c0: 37df e83d efee 383d d055 053e a5de ecbe
000002d0: bf10 d03e fe35 ccbe 5f68 993d 292e a33e
000002e0: 1e4b 60be 1944 a03e 17ca 73be 1b4e df3e
000002f0: ff52 75be 39c0 a73d 1a72 84be 8ebf 67bd
00000300: 48aa d13e ba14 35be 1121 6fbe dd22 b93e
00000310: 76de a33f 7793 0d3f 3a7d 793f f800 3e3f
00000320: 2af3 383f dfb0 343f 2a2a f9bd 034e 173f
00000330: 46d3 383c 3f62 53be d323 453e 76e9 68bd
00000340: 7190 0abf f12d 9a3d 0508 b7bd d842 96bd
00000350: 171c 163f 7236 b3be 8bb9 94be 39d5 9d3e
00000360: 866c 1ebe 3330 91be e334 03bf 5a24 99be
00000370: 011e e2bc 39f2 5dbe 9dab bc3d 282a c73c
00000380: 039b f0bd 5530 77bd 1545 5bbf f796 2bbe
00000390: 1d66 8d3e 15c3 abbe e9c6 90bf a84e f53e
000003a0: 11fb 223e 218d ba3d 6979 7b3f 4844 a7be
000003b0: 18b2 ddbe 0062 0bbf fb7f 56be e250 b6be
000003c0: f3be 28bd d803 21be 522f 45bd 04db 79be
000003d0: 51b8 febd 5e89 25bf 3504 e13d 6c5b 14be
000003e0: 07f7 9bbd 788f 333f 9101 063f 22ba 69be
000003f0: 6326 ba3f 42a8 57bf e050 b6bd d962 723e
-0.2995167 -0.04155581 0.30292812 0.70250255 0.3953836 -0.34083107 -0.15099677 0.12225563
0.12904635 0.28927976 -0.37453488 0.28651208 0.33808756 -0.0032935874 0.043433674 0.03326549
0.3273456 0.043112256 -0.31785 -0.22049505 0.14201665 0.07602519 -0.1356149 0.5243693
1.1381754 -0.25820783 0.046933245 -1.0867553 -0.39454648 -0.32410446 0.014820794 0.3917962
-0.150095 -0.09988372 -0.19904916 -0.23447779 0.23730946 -0.10325877 -0.12787151 0.22390684
-0.50303435 0.33870474 0.12890391 -0.0347499 -0.23265958 -0.4658263 0.018381555 -0.19396985
-0.06877698 -0.0054043685 -0.07569682 -0.18255045 0.17909724 -0.35365775 0.018705886 0.013304083
-0.13799055 -0.45755377 -0.21733323 0.59057903 0.12213236 -0.08344244 -0.044348475 -0.084698714
-0.07348676 -0.14563125 0.13428846 -0.09085373 0.21924698 0.31270307 -0.060459826 -0.20724404
-0.24883413 0.045666814 -0.15606177 0.28527895 -0.19514492 -0.086621575 0.012274463 -0.11487439
-0.14275588 0.38144696 -0.19274221 -0.32580552 0.024463616 -0.3311866 -0.20437221 0.21490967
0.092286214 -0.066646926 0.053448476 -0.014409008 -0.1938019 0.10221883 -0.07748416 0.00027512375
-0.029805053 0.0980913 0.1728266 0.018365782 -0.13497932 -0.10777557 0.06522433 0.48131272
-0.17009476 -0.09845996 -0.04191751 0.16057667 -0.20761614 -0.054210104 0.013262574 0.37243727
0.40692183 0.14140357 -0.2229282 0.26320457 -0.13215242 -0.20328864 0.26066592 0.0068265502
0.21581584 -0.08037538 -0.14162908 -0.50935113 0.36045107 -0.08420013 0.034808338 0.113269
-0.068287484 0.23541038 0.52510095 -0.22386049 0.43915018 -0.3255492 -0.16892014 0.021766538
0.09430989 -0.1401697 0.085307166 0.44448176 0.0017330832 -0.07886049 -0.18446334 -0.04088069
-0.21136366 0.20554622 -0.30221933 -0.2208901 -0.22315246 0.08647308 0.24976256 -0.09396443
-0.012719305 0.273951 -0.0017450801 0.09981089 -0.45464444 -0.189978 0.08498529 0.18653359
0.15508114 -0.04683758 -0.07640846 0.10801309 -0.04563535 -0.25272992 0.0303637 -0.03961707
0.17367736 0.20503663 -0.12390048 -0.016996922 -0.18468282 -0.024245536 0.08004335 -0.11877355
0.113707 0.04514974 0.13021016 -0.46263614 0.40637776 -0.39884943 0.0749061 0.31871155
-0.21903655 0.31301954 -0.2380756 0.43614277 -0.23957442 0.081909604 -0.25868303 -0.056579165
0.40950227 -0.17683688 -0.23352458 0.3615941 1.2802265 0.5530314 0.97456706 0.7422023
0.7224604 0.70582384 -0.12166245 0.5910341 0.01128084 -0.20642947 0.19251947 -0.05686327
-0.5412665 0.07528294 -0.089370765 -0.07336968 0.5863661 -0.35002476 -0.29047808 0.30826738
-0.15471086 -0.28357086 -0.51252574 -0.29910547 -0.027602198 -0.21674432 0.0921242 0.024312094
-0.11748316 -0.060348827 -0.85652286 -0.16756807 0.2761697 -0.33547273 -1.1310703 0.47911572
0.15916087 0.091089495 0.9823213 -0.32669282 -0.43299937 -0.5444641 -0.20947258 -0.35608584
-0.04119773 -0.15724123 -0.04814083 -0.24399954 -0.12437499 -0.6466273 0.109871306 -0.14488
-0.07615476 0.7014079 0.5234614 -0.2282491 1.4542965 -0.84241116 -0.089021444 0.2367052

gru.bias_ih_l0 f4 [192]
00000000: 39fe 14be 068f 413e eae3 99be 0604 4bbe
00000010: a716 c23d eefb 883e aa33 6e3d b772 993e
00000020: 798e 293e 88b1 04be b307 6fbe ae2a 813e
00000030: 520b b5bc 50a2 5dbd dd08 1bbe 2d3f 1b3c
00000040: 3907 eabe e42c 603e 3f59 cb3d 2114 913c
00000050: 9c29 453e 892f 233e 41de 673e 0ba5 d6bd
00000060: 9655 173e 8b8d f33d 0f70 d8be 7c96 81be
00000070: d7b1 68be 4c2f 963d db9b f4bd 70e0 8a3e
00000080: 21da 993d 3fdb b6be a6f7 adbc b704 983e
00000090: 00cd f2bd 7a23 dd3c aa0a 6f3e f346 143e
000000a0: 6d49 8bba 0999 343e 9324 18bd 2d27 973d
000000b0: fb7b 663d cedc d6be a0c9 00be d7ce 3f3e
000000c0: 44b6 723e 3355 dcbe 1d2f 05bd 10f4 973e
000000d0: 4411 a73d dbc3 8fbd 966c eabc 98a1 863d
000000e0: 4f69 d1bd a99c 653e 5f4e 20be 5712 233e
000000f0: 786e 3bbe 6a7d 223c b552 b1bd 72d1 663e
00000100: e091 843d 3f9b ad3e 70d6 3dbd f6dd 51be
00000110: f84c b73e 15ea b83d 7557 933e cfd1 723e
00000120: 8def 8bbe f913 afbe 1128 a23e 5ac5 e53e
00000130: c3f2 583e b51e 9b3e 3ab6 bb3e 1cc7 b13e
00000140: 125b 92bc 6755 6e3e 8ead 9cbe b5e8 cd3e
00000150: 43c8 b1be 367d f53e 69d3 4dbe 7ee6 2e3e
00000160: 0a7e 7f3e 45e1 603e 0bd5 8fbe 5c5a e33e
00000170: 80d6 cdbe 8c46 32be 1b7e e13e 6dc5 7f3d
00000180: 0786 4f3e 7fe4 993e 36e2 2e3e d41b 243e
00000190: 9c84 c43e c681 efbe 1cfb 6d3d fcc8 f03e
000001a0: 7bca 063f 246d 513d f3ca e63e ff82 9ebd
000001b0: 64ec 293e 06c8 4abd af4e a6be 23ea 9f3e
000001c0: f71b debd e6d9 a0be 1518 ef3e 045a f63e
000001d0: f85c d3be 4677 5f3e e91e a13e 7a89 96be
000001e0: 8885 d3be 9fd7 f03e 29e9 bc3e ebdb 8e3d
000001f0: 64e3 db3e 1bc2 a23e 14ba 94be 356c 24be
00000200: fd74 623e b777 e4bc 3176 45be 5ec8 0a3e
00000210: 4aef a13d 2053 703e b821 143e 4603 cf3c
00000220: a92e 20be d312 33bd c1ca a63d 9222 9fbe
00000230: 91bf 54bc 1097 4c3e e4d1 823d c36d 0b3e
00000240: 4869 e7bc 75fd 73bb 06a1 8d3d f21c aebe
00000250: 00f9 3a3d ec4f 9c3d 8bf7 a6bd f100 1a3e
00000260: 92d1 b83b 5f18 6abd c638 7e3d 9654 d2bd
00000270: c9ca 333e c066 8f3c 6ebb e13a 1fbd 333e
00000280: 1b07 163d 84a8 533d a16b 263e ae62 823c
00000290: 355b cabd 9c53 94be bd40 253d e51e 96bd
000002a0: 62da 4abe 63ca abbd 5f72 b43d 1df6 c63d
000002b0: 9e74 2ebb 9451 173e 515f 733e 75b1 c63e
000002c0: 205e d23d b17d 79bd 23ce 48bd ce25 e8bc
000002d0: f063 33be 7be7 0cbe aed9 7cbd ab33 abbe
000002e0: 6fc5 473e 2ac3 143e 369a 8cbc 842c e3bb
000002f0: 79dc 4dbd 4ec4 933d 8b51 583e a46e 67be
-0.14550103 0.18902215 -0.30056697 -0.19825754 0.09476977 0.26754707 0.05815474 0.29970333
0.16558255 -0.12958348 -0.23342781 0.25227875 -0.022100125 -0.05410987 -0.151401 0.0094755115
-0.45708635 0.21892124 0.09929132 0.017709794 0.19254154 0.15936102 0.22643377 -0.10480698
0.14778742 0.118922316 -0.42272994 -0.25310123 -0.2272409 0.0733324 -0.119437896 0.27124357
0.07512308 -0.35714146 -0.021236252 0.29691097 -0.11855507 0.026994456 0.23343912 0.1448019
-0.0010626741 0.17636503 -0.037144255 0.07380519 0.05627058 -0.41965336 -0.12576914 0.18731247
0.23702341 -0.43033752 -0.032515634 0.29678392 0.0815759 -0.07019778 -0.028616231 0.0657379
-0.10225164 0.22423042 -0.15654896 0.15924965 -0.18303859 0.009917596 -0.08658353 0.22540835
0.06473136 0.33907506 -0.04634708 -0.20494828 0.3580091 0.090290226 0.28777662 0.23712848
-0.273312 -0.34194925 0.31671193 0.4487713 0.21186356 0.30296865 0.36662465 0.3472222
-0.017865691 0.23274766 -0.30601162 0.40216604 -0.347231 0.4794709 -0.20100178 0.17080113
0.24950424 0.21960934 -0.28092226 0.44404876 -0.40202713 -0.17409724 0.44041523 0.06244414
0.20265971 0.3005714 0.1707848 0.1602624 0.38382423 -0.46778697 0.058100805 0.4702834
0.5265271 0.051129475 0.45076713 -0.07739829 0.16594082 -0.049507163 -0.32481906 0.3123332
-0.108451776 -0.31416243 0.4669806 0.4811555 -0.41281867 0.21822843 0.31468895 -0.2940176
-0.41312814 0.47039506 0.36896637 0.0697554 0.42946923 0.31788716 -0.29048216 -0.16056903
0.2211494 -0.027889116 -0.19283368 0.13552997 0.07906969 0.2346921 0.14465988 0.025270116
-0.156428 -0.043719124 0.08144141 -0.31081063 -0.012985126 0.19979501 0.0638769 0.1361609
-0.028248444 -0.003722993 0.069154784 -0.3400646 0.04564762 0.076324314 -0.08152684 0.15039422
0.005640217 -0.05715215 0.062065862 -0.1027004 0.17557825 0.01750505 0.0017221996 0.17552613
0.03662787 0.05167438 0.16251995 0.015916195 -0.098806776 -0.2897004 0.040344942 -0.073301114
-0.19809869 -0.083882116 0.08810877 0.09714911 -0.0026619802 0.14777213 0.23766829 0.38807264
0.10271859 -0.060910884 -0.049024712 -0.02833834 -0.17518592 -0.13760178 -0.061731033 -0.33437857
0.19508909 0.14527574 -0.017163377 -0.006932797 -0.050259087 0.072151765 0.21124856 -0.226008

gru.bias_hh_l0 f4 [192]
00000000: 3dc9 55be 83e4 113e 782b 7cbe 75f8 9cbe
00000010: 9c57 db3d 07d9 7e3e 65ee 81bd 1f97 9a3d
00000020: c563 b03d abba 46be 61e4 41be b757 713e
00000030: d34d dbbd 74c5 9a3d a50e 44bd 4b55 05bc
00000040: 8a63 aabe 8851 293e 288b 5a3c 0170 ee3c
00000050: f677 993d c52f e13d 90aa 563e 157b e53c
00000060: db74 553e 9af8 0e3e 3fd4 b6be 227e 49be
00000070: f7d5 88be 5d65 c23c e92a 3dbd 006e f83d
00000080: bc1e ec3d f5e2 9bbe e406 77bd da2d 143e
00000090: a1d2 35be 3d2a febb 8f46 b13d 2e46 573e
000000a0: 6055 933b 17f3 603e dea9 193d d999 dc3c
000000b0: be1e 6b3e d0d2 f6be 2740 23bd a68e 0f3e
000000c0: e7c3 873e de39 dcbe 3560 3bbe f4e0 643e
000000d0: 9733 f33d 02c6 813c fe03 633c 91de 213e
000000e0: 3bac 23be 8123 2d3e 61b0 dabd 6eb1 513e
000000f0: dc01 aabd 5691 53bd 422b 36ba f849 8f3e
00000100: aa3f 343e 9633 bb3e b503 3c3e 2f28 e0bd
00000110: 6355 653e 8ff3 743c 7d00 6b3e 103c cb3e
00000120: 40cc 3dbe 85fe bcbe 886e e33e fa39 fb3e
00000130: ded2 033e d185 bc3e 04c6 d23e 3a1d b73e
00000140: 69e4 0fbe 711c c63e 6832 4cbe 0aaf f63e
00000150: 417e e7be 12b1 003f bfca 4fbe 6dd4 7d3e
00000160: 6746 c63e ee0e b03e d5bd d9be 357b b03e
00000170: fe6b cebe 972f b3be d68a fa3e 6fc6 9a3c
00000180: 81a7 233e cdd4 f33e 2f30 9c3d be86 703e
00000190: 3735 a83e 30e8 04bf 2c26 263e 59d0 9f3e
000001a0: e918 0b3f bc97 183c 96e0 c93e 2d91 14be
000001b0: 4820 983d 5b37 21bd 9b64 d5be 04c0 8a3e
000001c0: 43fc 68bd d64f c4be ce59 213f 9f38 fe3e
000001d0: 4280 82be cfcb ac3e b5b3 063f 41bc b6be
000001e0: a971 51be 3125 ec3e 4cef b53e 4788 123e
000001f0: 67e0 e33e 1c73 c23e c3a0 e9be efd0 cebd
00000200: 9aee fe3c 6fed 11be a2b0 98bd d1d2 a2be
00000210: 9d37 1a3e 73c4 343d 3c71 f3bc 9891 d6bd
00000220: 18a4 8fbe 7ac8 ebbc 6149 bd3c dfd4 60be
00000230: 941d 95bd ed46 0b3e 0771 de3c 74f6 0f3e
00000240: cd2a 44bd 3cc7 0d3d 9a48 2a3e 5b63 9bbe
00000250: e4e6 033d bf8b 1d3d dc65 07be 312d a23e
00000260: 2774 593e 616c e3bd 4d62 58be d6d0 cfbc
00000270: ac4e b2bd 4778 503e 175c 9cbd b535 423e
00000280: fa01 16be b839 1b3d 42e4 7e3e f3b7 9a3d
00000290: f868 0a3c 00a5 3a3c c1a5 5d3d 5d3b 48be
000002a0: bc5e b2bd fdab dbbd 51d5 263d 4546 f03d
000002b0: 581e e93d a121 efbd 8137 933d ce65 ca3e
000002c0: 3f68 983d b584 45be 04ac 7abb f0c4 88bc
000002d0: 1b17 e2be ff87 33bd 3a0f b1bd 808e 52be
000002e0: c913 903e 252a a6bc 67c0 fb3d c207 9ebd
000002f0: 82be 40bc 9205 003e e9ae a13d 1345 943d
-0.20877548 0.14247327 -0.24625957 -0.30658308 0.107100695 0.24887477 -0.06344298 0.07548355
0.086127795 -0.19407146 -0.18934776 0.23568617 -0.10708203 0.075571924 -0.04786553 -0.008138011
-0.33279067 0.16535008 0.0133388415 0.029106142 0.07493584 0.109954394 0.20963502 0.028012792
0.20845358 0.13962021 -0.35708806 -0.19677022 -0.26725742 0.023729974 -0.0461835 0.12130356
0.115292996 -0.30446592 -0.060309306 0.14470616 -0.1775613 -0.0077565 0.08656036 0.21022865
0.0044962615 0.21967731 0.037515514 0.026928829 0.22960946 -0.48207712 -0.039856102 0.1401926
0.2651665 -0.430129 -0.18298419 0.22351438 0.11875074 0.015841488 0.013855932 0.15807559
-0.1598367 0.16908075 -0.10678173 0.2047784 -0.08301136 -0.051652275 -0.0006949195 0.2798612
0.17602411 0.36562794 0.18360789 -0.109451644 0.22395854 0.014950647 0.22949405 0.39694262
-0.18534946 -0.36912933 0.44420266 0.4906767 0.12873408 0.36820844 0.411667 0.35764486
-0.14051975 0.38693574 -0.19941103 0.4818042 -0.45213512 0.5027019 -0.20292185 0.24788065
0.38725588 0.3438639 -0.42527643 0.34469 -0.40316767 -0.34997246 0.48934048 0.018893449
0.15981866 0.47623292 0.07626378 0.234889 0.328531 -0.5191679 0.16225499 0.31213644
0.54334885 0.00931352 0.39429158 -0.14508505 0.07428032 -0.03935943 -0.41678318 0.2709962
-0.0568812 -0.3834216 0.63027656 0.49652573 -0.25488478 0.33749244 0.5261796 -0.356905
-0.20453514 0.46122125 0.35534132 0.14309798 0.44507143 0.37978446 -0.45630464 -0.10098445
0.031119633 -0.1425073 -0.07455565 -0.31801465 0.15060277 0.04413266 -0.02971708 -0.104769886
-0.2805488 -0.028782118 0.023106279 -0.21956204 -0.07281032 0.13601275 0.027153505 0.14058858
-0.04789238 0.034613833 0.16629258 -0.3034924 0.032202616 0.03846335 -0.1322245 0.31675103
0.21235715 -0.11104656 -0.21131249 -0.025368135 -0.08706412 0.20358382 -0.07634752 0.189658
-0.14649191 0.03789684 0.24891761 0.07554617 0.008447878 0.011391878 0.054113153 -0.19553895
-0.087094754 -0.107261635 0.040730778 0.11732153 0.11382741 -0.11676336 0.07188321 0.39530796
0.07441758 -0.19288905 -0.0038249502 -0.01669547 -0.44158253 -0.043830868 -0.08645482 -0.20562172
0.28140095 -0.020283768 0.12292557 -0.077163234 -0.011764171 0.12502125 0.078946896 0.07239737

gru.weight_ih_l0_reverse f4 [192, 136]
00000000: 377c 13be 21a5 c0bd 5c98 59bd 6326 0bbd
00000010: 65c7 bb3a 78d3 25bb a241 89bd 11ec 393d
00000020: 4c9d 463d 0420 323d 07fe f73c c213 153e
00000030: bd6f 723d 382e 793d 8d43 a63e 8221 803d
00000040: 4964 e43f 0512 c7bc 4ecd f73e d440 283e
00000050: 2927 853e f691 483d 5534 813d b064 b93d
00000060: 5d08 653e 3f6a 50bd b251 163d 5eac 83bd
00000070: c8df 603d 7c29 22be c1e9 173e d75b 0dbe
00000080: 5f72 9dbd 940d 88be 4302 403c 7e84 17be
00000090: 0b11 8a3d 3220 f1bd 2e4d 96bd af95 cebd
000000a0: ec25 bfbc 8a2b 7c3e b153 213e 8ae4 7c3d
000000b0: e13f 673d a113 4abd 4c45 04be 605a d93c
000000c0: 8673 acbd 1e24 ba3d 4c22 2f3e beb0 88bd
000000d0: 16f1 573e 7416 debc 0b83 d9be cc82 913b
000000e0: 5020 ffbe e4d3 8abd 3a09 18bf f9c4 003c
000000f0: ee43 adbe 5905 c23d cefa 19be b4c3 2f3c
00000100: a7f8 cdbd 993c 993d 2b70 f2be 4dae 05bd
00000110: 2485 05be da2a efbd 9097 85bd c97f 20be
00000120: dcd5 37be d9e6 48be 4f68 f9bd 82ed b3bd
00000130: 809e 7abd af38 dabd e7ce d7bd cf56 10bc
00000140: da72 8dbe bbfb 57be 32d5 73be 94d9 21be
00000150: 6520 8a3e b24c 55be da90 0fbe 9a90 3abe
00000160: 7db0 123e 331e bdbd ea94 ce3d fe48 a2be
00000170: ebfc a73d ac83 32be c8f6 963d 025a eabd
00000180: faa5 b3bd 2a8c 1f3e bbc2 fbbc cf2d aa3e
00000190: 7c7c 46bd 60fe aa3e 5bfd fbbe 4a18 523e
000001a0: 88bc 6ebe 8864 a43e aa40 dc3d 216f 713e
000001b0: ba35 ad3e 7939 903c ce69 933e b1a9 9a3e
000001c0: e83a efbc c6fb 5a3e 506b 10bf a4cf af3e
000001d0: 48fc d2bd 628a b43e 6fd9 1bbe d4df 7f3e
000001e0: 49eb bcbd 8e4b b63e c65a 60be 59d6 123e
000001f0: 1411 e5be c205 3d3d 986f 69bd 4fc8 713d
00000200: f282 683e 15fe 133d 3eed 07be c064 483d
00000210: 8ce7 b1be d8ad 7f3e 8d86 09be 5f17 f53d
00000220: a889 f2bd 0b42 50ba d0c6 64bd 19aa cfbd
00000230: c8e0 0abe 1a9e 08be fba4 f73c a707 78bd
00000240: fda6 84bd 5155 3d3d d847 f2bd 5a4c 8bbc
00000250: 84a3 fcbd 4b08 3e3d 9fc6 8bbe c86b 2dbd
00000260: e915 48bf aff4 723d 81ba 54be 53fa bb3d
00000270: b1dd 143e 5e11 fc3c 064d 7c3c 538f 523d
00000280: d8fa eb3d 94cf 0abe 3eec 9dbb 564a a6bc
00000290: c8f3 f93d ea46 31bd 9872 753d 7fed 033d
000002a0: b0bc e13c 9aa5 463d 2c8d 5e3c 39c6 283c
000002b0: 509c 23be 5653 94bd 5b26 05be 7e4a 9f3d
000002c0: 043b d1bd d911 3f3d c18d 78bd c502 b93b
000002d0: 9534 f4bb 1745 3abe db1d 4b3d 2d03 64be
000002e0: 72f5 353e 3b20 1abd 8737 463d bd8d aabb
000002f0: 872a 20bd efa4 33bd e30d 263b a55a a33d
00000300: b001 083e 168f 84bd f4a7 423e bc73 16be
00000310: 5389 ad3d eea2 20be 8121 22bd e552 c03b
00000320: e1a2 90bd df25 983c f79a ad3d 4b96 c1bc
00000330: 0484 063e e362 81bd 4091 8e3c 21b1 973d
00000340: 4024 903d 7586 ee3d 7901 aa3d ba81 82bc
00000350: ed87 773d a22d 5cbd 45c3 c73d 6688 e6bd
00000360: 8b54 023e 3630 96bd be96 77bd 34e6 b13c
00000370: 7857 bc39 c087 3dbe 9f62 36bc 6df2 15be
00000380: 13cd 973c e46e 49be 99a7 623d 5cb4 4dbd
00000390: 8bcc 233c 9422 243e 420c 8bbd ef8e ffbc
000003a0: 81bf 87bd b0b1 4f3e 0d46 87bd dcec b83d
000003b0: 4d6e e0bd f212 41bd 40f1 2c3d 9ecc 863c
000003c0: 641e e83c dc62 b3bd d96f 4bbc 7cc2 62bd
000003d0: d42e e73d 6595 80bc 9117 ecbd e80d e23a
000003e0: e354 983d aa10 aebd 02da 853d 0bdf acbc
000003f0: 39ed 31bd 2093 0fbe 20e2 da3d fd4d a6bc
-0.14402853 -0.09406496 -0.053123817 -0.033972155 0.0014326392 -0.0025303047 -0.067019716 0.045391146
0.048489854 0.043487564 0.030272497 0.14558318 0.059188593 0.060835093 0.32473412 0.06256391
1.7843105 -0.024300585 0.48398823 0.1643098 0.2600644 0.048967324 0.0630881 0.09052408
0.22366472 -0.050882574 0.036699004 -0.06429361 0.054900914 -0.15836138 0.14835264 -0.13804565
-0.0768783 -0.2657286 0.011719289 -0.14796636 0.06741532 -0.11773719 -0.073389396 -0.10087144
-0.023333512 0.24625984 0.15754582 0.06174139 0.056457404 -0.049335126 -0.1291706 0.026532352
-0.08420472 0.0908892 0.17102927 -0.06674336 0.2108806 -0.027110316 -0.4248279 0.004440641
-0.4982934 -0.06778696 -0.5938908 0.007859462 -0.3384089 0.09473676 -0.1503708 0.010727812
-0.10057192 0.07482261 -0.47351202 -0.03263693 -0.1303907 -0.11678095 -0.06523049 -0.15673746
-0.17952675 -0.19619311 -0.121780984 -0.087855354 -0.061186314 -0.10655343 -0.1053751 -0.008809759
-0.27626687 -0.21092121 -0.23811796 -0.15805656 0.2697784 -0.20830038 -0.140201 -0.18219224
0.14325137 -0.09234276 0.10086997 -0.31696314 0.08202537 -0.17433041 0.073712885 -0.11442949
-0.08771892 0.15580812 -0.030732503 0.33238074 -0.04845856 0.33397198 -0.49216732 0.20517078
-0.23314106 0.3210795 0.10754521 0.23577549 0.33830053 0.01760553 0.2879166 0.3020759
-0.029202893 0.21385106 -0.56413746 0.34338105 -0.10302025 0.35261828 -0.15219663 0.24987727
-0.092245646 0.3560452 -0.21909627 0.1433958 -0.44739592 0.04614807 -0.05699119 0.05902892
0.22706202 0.036130983 -0.13274094 0.048924208 -0.3474697 0.2496866 -0.13430233 0.11967348
-0.11842662 -0.00079444115 -0.055853665 -0.101398654 -0.1356231 -0.13341561 0.030230036 -0.060554173
-0.06477163 0.046223942 -0.11830109 -0.01700418 -0.12335876 0.046394628 -0.27299973 -0.042339116
-0.7815843 0.05931538 -0.2077427 0.09178605 0.14537694 0.03077 0.015399223 0.051406216
0.11522454 -0.13555747 -0.004819422 -0.020299118 0.12204701 -0.04328052 0.05992374 0.032208916
0.027555794 0.048497774 0.013583463 0.010301166 -0.15977597 -0.072424576 -0.13002913 0.0777788
-0.102163345 0.04664788 -0.060682062 0.005646082 -0.0074525573 -0.18190418 0.04958902 -0.22266836
0.17769411 -0.037628394 0.0483928 -0.005204885 -0.039103057 -0.043858465 0.0025337867 0.079762734
0.13281894 -0.06472604 0.19009382 -0.14692587 0.08473458 -0.15687153 -0.039582733 0.005869257
-0.07062317 0.018572746 0.08476823 -0.023631236 0.13136297 -0.06317689 0.017403245 0.074068315
0.07038164 0.116467394 0.08301062 -0.015931 0.060432363 -0.053754456 0.097540416 -0.11256485
0.12727563 -0.07333414 -0.060446493 0.021716215 0.00035923324 -0.18508816 -0.011131912 -0.1464326
0.018530404 -0.19671208 0.055335615 -0.050220832 0.009997497 0.16028816 -0.06789447 -0.031196086
-0.06628323 0.20282626 -0.06605158 0.09029552 -0.10958538 -0.04713721 0.04222226 0.016454991
0.028334804 -0.0875909 -0.012416803 -0.055361256 0.11288229 -0.015696237 -0.115279324 0.0017246576
0.07438066 -0.08499272 0.06535722 -0.021102449 -0.043439124 -0.14020967 0.10687661 -0.02030086

gru.weight_hh_l0_reverse f4 [192, 64]
00000000: c089 583c ae4c 8e3d daa9 acbd 0296 d7bd
00000010: 46a2 ddbd b8c2 383d 86f9 85bd e6d8 ab3d
00000020: ce75 edbd 2cea d13d 0056 1ebd 9e2c b53d
00000030: 3a22 e43d 00e8 7e3b ee4c bcbd c020 dcbd
00000040: 80f2 f8bd 5cb0 fcbd bc13 153d 921c 93bd
00000050: e0a3 943b 6402 91bd c44c f4bd e8a9 2e3d
00000060: 5041 94bc a049 4a3c 4a8e 94bd 9000 cebc
00000070: 00d1 a8bd c8ee 59bd a017 e0bb 902c 463d
00000080: c872 6b3d 6a2a f93d 0af0 a93d 36e5 97bd
00000090: deb8 d4bd dc99 4ebd c05a 12bd 7a43 b9bd
000000a0: 80c5 873a 1014 9bbc 16d5 c2bd 60ad 2c3d
000000b0: 7065 7b3d 2a3f d93d 6896 803c 207c d93d
000000c0: 0eca d6bd a6dc d2bd 40b2 84bd 222f e53d
000000d0: 9814 863d 506e 2ebd 941e b03d 10b7 72bc
000000e0: a83c f6bd e03d 323c 16c0 f9bd 3024 71bd
000000f0: 343a fa3d e407 15bd 1849 113d 1ade bb3d
00000100: 8c59 353d c864 cabd 8a67 eabd 980b c9bd
00000110: ac73 ab3d c4dc a13d 4054 a33b c0ae 813b
00000120: e89e afbc d687 b8bd 526b f73d 5497 66bd
00000130: 46ce 833d 28d4 ce3c b042 b13c 3848 903d
00000140: c0f9 233b 70db b13c a6c8 c9bd a2d1 ad3d
00000150: 3031 c9bd c0a7 ce3c ccb5 983d 00ce b3bd
00000160: d866 323d b0c8 043d 48aa b03c ec39 dfbd
00000170: f071 74bc 7a2f f4bd a466 f33d 780c 64bd
00000180: 4250 8f3d 58ff 273d 3087 95bd 505e a5bc
00000190: 70fd 8b3c 8cf3 d9bd 88fa a8bc 30ee 10bd
000001a0: 1833 fcbc c041 63bc ba21 d93d a885 8cbd
000001b0: 2c35 583d 5e2a b5bd dc9b d83d b040 173d
000001c0: 0468 a43d 10cb 98bc a810 09bd f0be 913c
000001d0: c08c 403c f69c c13d dc6a 4abd b802 ec3d
000001e0: 40e8 653c 4efe d4bd ae50 fb3d f284 fb3d
000001f0: 0014 c9ba 603d 2c3c aebf 8d3d 9818 58bd
00000200: acd9 fcbd 807b 61bb 0c62 aa3d 9850 3e3d
00000210: dc27 bbbd b07f 973d e00a 893d ee10 ddbd
00000220: 6060 163d 503a 693c 4668 99bd 6802 f0bd
00000230: 8685 bfbd 7cc9 6f3d 4ec2 cd3d 7ef4 84bd
00000240: a89f 07bd e008 6fbd ec8a 073d 48fe 673d
00000250: 603e 9cbb 3ca1 083d 1645 963d a03d fd3b
00000260: 0404 d0bd d2f9 f93d 2c23 dc3d 84aa 803d
00000270: e878 bfbc 6805 e93c 785d 483d e23c ca3d
00000280: 3818 dbbc 7efa eb3d 905e e7bc e812 d7bd
00000290: 3036 ff3c 14f6 f3bd 7c07 2f3d 60c7 ea3b
000002a0: 929a c63d e034 e3bc c04b 01bd c04c dbbb
000002b0: a6d4 c3bd c251 933d c0fc ca3b 8017 e03c
000002c0: c6b4 8bbd f075 283c 6e03 a73d 6027 913b
000002d0: b892 933c 00e5 47bc dc3f 323d 407e ccbb
000002e0: b0a1 8cbc c053 743d 40b0 87bb d2c5 8f3d
000002f0: 8895 593d 5439 b7bd 6812 e9bd 209d 053d
00000300: b810 bc3d 8078 5d3c 9078 da3c c0a0 01bd
00000310: 14af 623d f49f 91bd 80ad 7b3d d86f eb3c
00000320: e0cb b7bc 0088 6cba fec0 c93d 00f7 55ba
00000330: e439 cf3d 50ca ba3c 78a4 09bd 7c50 c53d
00000340: 985f ddbd 1e1a f43d e81e 423d e683 a93d
00000350: 98ef cebd a8a5 a5bd 4a11 d63d 22e5 b3bd
00000360: 506c 4bbd 00d0 7b38 20c3 bd3c 707e 2abd
00000370: d0b0 5fbc 9804 b2bc ac91 13bd 1ef9 a33d
00000380: 24ed e63d f87b 29bd c82a 943d d856 5a3d
00000390: c247 babd fa8a ae3d f01f dabc a623 bbbd
000003a0: 386b c9bc 2096 26bd 20bd fa3c a245 d03d
000003b0: 86db cf3d 3658 e23d a0ea 9a3b 26d3 e93d
000003c0: 249e 3dbd a4d9 033d 8c5b aabd a088 4c3d
000003d0: 1ce3 84bd 20bc 823b 00a4 033b c81e 053d
000003e0: a004 873b 50f9 c83d 1a6a f93d 6ed3 dbbd
000003f0: a060 5c3d 5038 efbd 0abe 8c3d 0059 30bd
0.013216436 0.06948219 -0.08430834 -0.105266586 -0.10821967 0.045107573 -0.065417334 0.083909795
-0.11594735 0.10249743 -0.038656235 0.08846401 0.11139341 0.0038895607 -0.09194361 -0.10748434
-0.12155628 -0.123383254 0.036395773 -0.07183184 0.004536137 -0.07080534 -0.119287044 0.042642504
-0.01809755 0.012346655 -0.07253702 -0.025146753 -0.082429886 -0.053206235 -0.006838754 0.04838234
0.05748251 0.12166293 0.08297737 -0.074167654 -0.10386823 -0.0504397 -0.035731077 -0.09046073
0.0010358542 -0.018930465 -0.09513299 0.04215753 0.061376035 0.10607751 0.01569672 0.10619378
-0.104877576 -0.102959916 -0.06479311 0.111906305 0.06546897 -0.04258567 0.08599582 -0.014814153
-0.12023288 0.01087901 -0.121948406 -0.0588724 0.122181326 -0.03638448 0.0354701 0.09173222
0.04427485 -0.09882504 -0.1144553 -0.098166645 0.08371672 0.07903436 0.0049844086 0.0039575994
-0.021438077 -0.09010284 0.120810166 -0.05629666 0.06435828 0.025247648 0.021638244 0.07045025
0.0025020689 0.021711081 -0.09852724 0.0848725 -0.09823835 0.025226474 0.0745655 -0.08779526
0.04355511 0.032417953 0.021565571 -0.108997196 -0.014919743 -0.11923118 0.118848115 -0.055675954
0.0699773 0.041015 -0.073011756 -0.020186573 0.017088622 -0.10642156 -0.020627275 -0.035383403
-0.030786082 -0.0138706565 0.10602136 -0.068614304 0.052785084 -0.088459715 0.10576603 0.036926925
0.08027652 -0.018651515 -0.03346315 0.017791241 0.011752307 0.09453766 -0.049418315 0.11523956
0.0140324235 -0.10400067 0.12271248 0.12281217 -0.0015341043 0.01051268 0.069213256 -0.05275783
-0.12346205 -0.0034405887 0.08319482 0.04646358 -0.09138462 0.07397401 0.06691527 -0.10794245
0.036713004 0.014235094 -0.07490592 -0.11719209 -0.093516394 0.05854176 0.10046826 -0.06491946
-0.033111244 -0.058358073 0.03309147 0.056638986 -0.004768178 0.03335689 0.07337396 0.0077282935
-0.10157016 0.122058526 0.10748896 0.06282523 -0.023373082 0.02844496 0.048917264 0.09874894
-0.026744947 0.11522387 -0.028243333 -0.10501653 0.031153768 -0.1191217 0.042731747 0.0071648806
0.09697451 -0.027735174 -0.03156638 -0.006692499 -0.09562044 0.071933284 0.006194681 0.027354956
-0.06821589 0.010282025 0.08154951 0.0044297427 0.018014297 -0.012200594 0.043517932 -0.006240636
-0.017166942 0.059650183 -0.0041408837 0.07020153 0.05312112 -0.08946481 -0.11380464 0.03262055
0.09182876 0.013517499 0.026668817 -0.031647444 0.05534275 -0.07110587 0.06144476 0.028739855
-0.022436082 -0.0009022951 0.098512635 -0.0008162111 0.10118464 0.022801548 -0.033604115 0.09634492
-0.10809249 0.11919044 0.047392756 0.08277111 -0.10104293 -0.08088237 0.104525164 -0.08783938
-0.04966384 6.003678e-05 0.023164332 -0.041624486 -0.013652995 -0.021730706 -0.036027595 0.080065
0.112757 -0.04137799 0.072347224 0.053305477 -0.09095718 0.085226014 -0.026626557 -0.09137659
-0.024587259 -0.040670514 0.03060776 0.101695314 0.10149293 0.11051981 0.0047276765 0.114172265
-0.046293393 0.03218998 -0.083182424 0.049934983 -0.0648863 0.0039897114 0.0020086765 0.03250006
0.0041204244 0.098131776 0.121784404 -0.107336864 0.053803086 -0.11680663 0.068721846 -0.043053627

gru.bias_ih_l0_reverse f4 [192]
00000000: 898b 5abd dbcc eebd bd7b e9bd 5874 6fbd
00000010: b096 83bc 210a 13be cd90 033e 5e18 2abe
00000020: 390f 6cbd 7d69 35bd c328 94be 2641 d6bb
00000030: 0d82 00be 9366 94bd 442f 95bd 6e70 21bd
00000040: a10b 4b3c a652 0dbd 5277 b5bd f488 243e
00000050: 4da0 d7bd 2a1f 743d 26e5 a0bd baeb 89bd
00000060: 9bea ba3c 7f75 b93d 15c6 b23d 0ad0 c7bd
00000070: 0214 46bd b4c3 8a3d 0e3c 0b3e 1cbe 67be
00000080: a9ac e2bc e227 893d ca0f f93c 0f8e 2abd
00000090: d4b9 3e3d 7e6f 20bd 87ba d0bc 96f4 2a3c
000000a0: f1b1 e33d 47fd d3bc 4775 1abe 1300 e2bd
000000b0: 5784 433d 336b 75be 61b4 1cbd a0b3 8ebd
000000c0: 7f19 26be 60fa 323e 2229 60be dfc2 12be
000000d0: cf57 b5bd ca77 1f3d d6dc 44be 8bba 4ebd
000000e0: 9c44 ae3c 49c1 7e3d 028c 6fbe fb8b 52be
000000f0: 52b9 ac3c d50d 2d3d edf6 753c b095 553d
00000100: f39a 0c3e 48b9 a63e 6f51 ad3e ca9c b73d
00000110: d3cf 563c 3bac 753e 7208 52bc 325c 1d3c
00000120: 6c4c fb3d a0de 843e f717 873e 2564 4c3d
00000130: 7b52 713e 46a4 cf3e 4add 9b3e 3000 673e
00000140: 6d9b 9c3d 9e35 3b3e 61a4 253e 8d11 da3d
00000150: f047 3b3e 6866 433e 9e47 633e eeb0 6d3e
00000160: dec3 df3d 2824 193e aeb5 1c3e 26ec 943d
00000170: 9854 0e3e 662e 343e 4f2a c43d 1f1b c03e
00000180: 9700 263d e138 3dbc 7ec4 533e e72e 573e
00000190: 2e5c 813d 54fb 4c3e b1af 933d 2b0f 3a3e
000001a0: 5d5a 113e 4111 a33e d383 933e 1226 a63e
000001b0: 1f41 0a3e c2b2 ca3e 1ac8 ff3d c0f0 8c3d
000001c0: 657b e23d 5ff7 da3d 3a95 ec3d 292e 7b3e
000001d0: 8c5d 6e3e 54e3 9a3e 0ca6 253e d6c4 923e
000001e0: c311 a33e 93b7 863e c202 ad3d f5c2 843e
000001f0: 793b 453e 4d79 983d 2b18 db3d fce2 a03d
00000200: a5db 903c 9742 ed3d 3d17 6cbd 753d e83c
00000210: 5928 213e 91c4 aa3d 8468 3f3e 3f6c bc3d
00000220: 1d49 d7bd 82f2 923d 2ce8 eabd 6ac7 163e
00000230: 0f02 023d a84e 13be a372 483d e1b8 c6bd
00000240: c638 2a3e df41 30be b42e 7d3c 5899 c93d
00000250: 1e2b 0e3e 7981 2dbc 3a74 4a3c 8913 2cbe
00000260: c303 4e3e 7431 053e 7678 6cbe 877e 4ebe
00000270: e493 4cbe 3653 ed3d 6081 373d 56e8 323c
00000280: 1917 873d be75 813d bf2e 44be 0994 963d
00000290: 6eb5 c1bd 4436 d3bc 8b20 48bd e73f 613c
000002a0: 1fd2 1fbc 36ed e9bb 7d08 683c 491e 06bd
000002b0: 9e15 7bbe d270 8fbd e291 e6bc f6a7 c03d
000002c0: 8393 293e f0d8 bb3c b839 1b3e bd92 273d
000002d0: 08ca 03bd 0f5d a5bd 8f51 883c 6354 123d
000002e0: 80ab 3dbb 62f5 7a3d ee3f 1c3d 52ea 2abd
000002f0: 1080 09be 52c9 b8bc 5e37 88bd a985 de3b
-0.053355727 -0.11660167 -0.11400554 -0.058460563 -0.016063064 -0.14359333 0.12848206 -0.16610858
-0.057631705 -0.044290055 -0.2893735 -0.006538528 -0.1254961 -0.07246127 -0.07284406 -0.039413862
0.012392909 -0.034502648 -0.08860649 0.16067868 -0.10528622 0.059600033 -0.078562066 -0.067344144
0.022816947 0.09055614 0.087291874 -0.09756477 -0.048358925 0.06775609 0.13597128 -0.22631115
-0.027670221 0.0669706 0.030403037 -0.041639384 0.04656394 -0.039168827 -0.025479568 0.01043429
0.11117924 -0.025877608 -0.150838 -0.110351704 0.04773363 -0.23966675 -0.03825796 -0.069678545
-0.16220663 0.17478323 -0.21890691 -0.1433215 -0.08854639 0.0389326 -0.19224867 -0.05047087
0.02127295 0.06219605 -0.23393252 -0.20561211 0.021084461 0.04224952 0.015012485 0.052144706
0.13730983 0.32563233 0.3385119 0.08965452 0.013111073 0.23991482 -0.012819396 0.009604501
0.12270436 0.259511 0.2638547 0.049900193 0.2356662 0.40555018 0.30442268 0.22558665
0.076468326 0.18282172 0.16175987 0.10647879 0.1828916 0.19082034 0.22195289 0.23212025
0.109260306 0.14955199 0.1530368 0.07271604 0.13899457 0.17595825 0.09578382 0.37520692
0.040527906 -0.0115492055 0.20680425 0.21013986 0.0631641 0.20017749 0.07211245 0.18169849
0.14194627 0.318491 0.2881151 0.3245092 0.13501404 0.39589506 0.12489338 0.06881857
0.11058692 0.106917135 0.115519 0.24529327 0.23277873 0.30251563 0.16176623 0.286658
0.3184949 0.2631193 0.08447792 0.2592999 0.19260968 0.07445011 0.10697969 0.07855794
0.01768286 0.11584967 -0.05763935 0.028349617 0.15738048 0.08338273 0.18692213 0.09200334
-0.10511992 0.07175161 -0.114700645 0.14724508 0.031740244 -0.14385474 0.04893745 -0.097032316
0.1662322 -0.17212628 0.015453029 0.09843701 0.13883635 -0.010589951 0.012356812 -0.16804327
0.20118622 0.13007146 -0.23092827 -0.20165454 -0.19978291 0.11588137 0.044801116 0.010919651
0.065962024 0.06321286 -0.19158457 0.07352454 -0.09458433 -0.025782712 -0.04885916 0.013748146
-0.009754687 -0.0071388735 0.01416218 -0.032743726 -0.24519965 -0.07003941 -0.028145734 0.09407036
0.16560178 0.022930592 0.15158737 0.040911425 -0.032175094 -0.0807439 0.016640453 0.03572501
-0.0028941333 0.06126917 0.038146906 -0.04172737 -0.13427758 -0.022556935 -0.066511855 0.006790836

gru.bias_hh_l0_reverse f4 [192]
00000000: a409 31be d14a 98bd 81a8 24be 3efd 58be
00000010: a2c7 1fbe f051 3ebd 06a3 263e a1f6 0d3d
00000020: 7adc 0fbe 7a6f 1ebe 6f3f 7cbe 4b42 ca3d
00000030: 2fd9 09be 3f8e e13b c334 d6bd 80f5 84bd
00000040: 925b d43d 8155 b2bd 1ab5 1abe eac1 133e
00000050: aa92 1cbe f5dd 943b dc7d 023d 0430 01be
00000060: df6b 0c3e 71ee 35bd 6ca7 a2bd 748e 5f3d
00000070: bb28 06be 98fc aa3d 55a5 8fbc d7a6 5fbd
00000080: bc66 7d3d d95f fcbd bc9e bbbd 1120 bebd
00000090: ebf8 1bbd 1681 a8bd 07c1 ac3b 1f45 13bd
000000a0: 286f 1e3e da77 463d 8961 49be 67da 813d
000000b0: f5b6 9bbd 0c2d 86bd 965a f2bd 85c1 6bbe
000000c0: f29c cdbd dcf4 d13c 9a79 4bbe e6c2 e03c
000000d0: c8d6 31bd fa05 45bd efba cfbd db7e 3bbe
000000e0: 7778 28be a269 f73d 33aa 7dbe 928b 5ebc
000000f0: 2a1a 693c 01fa 47bd f01f f4bc 2db1 ab3c
00000100: b2db 503e 9cbc 8c3e fc09 9a3e 6300 a93d
00000110: feae 2d3e 6373 353e 5421 283e b7df 5b3d
00000120: a8db 623e e23d 5e3e 0806 933e 18e3 023e
00000130: ea57 143e 44b8 d33e cc70 143e 474e 283e
00000140: daca 8a3e d347 313e ad0a 1bbd 6ca4 8b3e
00000150: f1ea 1c3e 06eb 7b3e aa8c 493e 47ba e43d
00000160: 6409 8d3d 62a4 833d 6889 5b3e c441 913d
00000170: 38d9 e53d b2ea 383e 811d e63d c439 9e3e
00000180: f7a1 4b3d ae2a a83c e1b0 923e bfe6 9a3c
00000190: 05d1 853e f573 cb3d c563 3e3e a7fd 483e
000001a0: ed7d ecbc c9c4 6e3e 29a9 553e eaf6 a53e
000001b0: 9cbd 4c3e 26b8 803e 9dd8 043e af40 0c3e
000001c0: 5a89 be3d 25c5 563d 0b34 5d3e 14b8 873d
000001d0: 9048 443e 8521 3c3e 3932 7cbc 5686 573e
000001e0: 67ca 653e 4161 4a3e 551d 1ebd ec9c 293e
000001f0: 6c0e 1c3d 2232 ef3d 2034 7a3e 0d60 093d
00000200: 353e 4abd 2aa6 073d b07a b2bd 2e38 d93d
00000210: 9792 d7bc d20b e13d eb06 c23d 6fae e5bc
00000220: 5e65 f43a e5b3 09be fd01 f3bc b6b1 0f3e
00000230: 4184 d0bb 0d66 e8bd e7c3 b63c 1e60 05be
00000240: 4541 813d 3544 77bd fe60 4d3c f8aa 7d3d
00000250: 6ef1 273e 1a62 f73d b2e9 44ba 6297 10bd
00000260: f89a 123e 8972 a63d 8ee3 43bd e708 35ba
00000270: 4903 88bd 4135 9f3d e1c2 3c3e 06c0 f6bc
00000280: ce96 143d fa65 62bd f49b 003c bae2 e13c
00000290: 8faf f7bd 4717 183e 9a35 8bbd b967 e4bd
000002a0: 8ada 12be 2e3c a9bd be5f 043d cef0 013d
000002b0: 965a e1bd 5259 5cbc 9a7b 01bd 937a 5b3d
000002c0: 7cfd 223c 9b04 0d3e 276f 70bc 2bc9 693d
000002d0: ca2d abbc 4c85 dcbd 06ce d6bc 36f5 f13d
000002e0: 3934 25bd f6b2 f93d 4bf5 84bc ffb7 12be
000002f0: dbbf 12bd b184 46bd 8e79 8d3c b923 05bd
-0.17288834 -0.07436145 -0.16079904 -0.21190354 -0.15603498 -0.04646486 0.16273126 0.03465903
-0.14048949 -0.15472212 -0.24633573 0.09875926 -0.13461755 0.006883412 -0.10459282 -0.06492138
0.10369028 -0.08707715 -0.15108147 0.14429441 -0.15290323 0.004543061 0.03185831 -0.12615973
0.13713025 -0.04441685 -0.079420894 0.054579213 -0.13101475 0.0834896 -0.017534891 -0.05460247
0.061865553 -0.12322969 -0.091611356 -0.0928346 -0.038079184 -0.08227746 0.005272034 -0.03595459
0.1547209 0.048454143 -0.19666113 0.06340485 -0.07603256 -0.06551561 -0.11833684 -0.2302304
-0.100397006 0.025629453 -0.19870606 0.027436685 -0.043417722 -0.048101403 -0.10143077 -0.1831011
-0.16452204 0.12080695 -0.24771957 -0.013583081 0.014227429 -0.048822407 -0.029800385 0.020958507
0.20396307 0.27487648 0.30085742 0.08252027 0.16961285 0.17719798 0.16418964 0.053680148
0.22154105 0.21703294 0.2871554 0.12781942 0.14486662 0.4135152 0.14496154 0.1643611
0.27107888 0.17312555 -0.037851978 0.2727388 0.15323998 0.24601373 0.19682565 0.11168342
0.06886557 0.06427838 0.21439135 0.07092622 0.11223072 0.18058279 0.11236096 0.30903447
0.04971501 0.020528164 0.28650573 0.018908856 0.26136032 0.099342264 0.18592747 0.1962801
-0.02886864 0.23317255 0.2086531 0.32414943 0.19994205 0.25140494 0.12973256 0.1369655
0.093035415 0.052434105 0.21601884 0.06626907 0.19168305 0.18372162 -0.015392833 0.21047339
0.22440492 0.19763662 -0.038602192 0.16563767 0.03809969 0.11679484 0.24433947 0.033538867
-0.04937573 0.03311745 -0.08714807 0.106064186 -0.026315017 0.10988583 0.09473976 -0.028037278
0.0018645932 -0.1344753 -0.029664034 0.14032635 -0.006363422 -0.1134759 0.02231021 -0.13024947
0.06311277 -0.06036778 0.012535332 0.061930627 0.16400692 0.12079258 -0.000751163 -0.03530062
0.14316928 0.081273146 -0.047824435 -0.00069059286 -0.066412516 0.07773829 0.18433715 -0.03012086
0.03627663 -0.055273034 0.007849682 0.027573932 -0.12094032 0.1485263 -0.06797333 -0.11152596
-0.14341179 -0.082634315 0.03231787 0.03172379 -0.11003606 -0.01344903 -0.031612016 0.053583693
0.009948131 0.13771288 -0.014674938 0.057076614 -0.020895857 -0.10767612 -0.026221287 0.118143484
-0.040333007 0.12192337 -0.016230246 -0.14328001 -0.0358275 -0.048466388 0.017269876 -0.03250477

linear_1.weight f4 [64, 128]
00000000: 3e7b f83c 955c dabd 50ca b83d 6666 1c3d
00000010: 3f61 e13d c5ab d2bb ebb6 0f3d de90 013f
00000020: b9f1 0f3e 0713 29bc 7c24 123f 980c bb3d
00000030: ced2 1c3c 6669 95be 728b 7abd 5d58 ecbd
00000040: d46f 713c c0cf a8be a576 593d 8c2e 633e
00000050: 961e 0e3d 5b12 293d b250 12be b79e 8c3e
00000060: 95da 64bf e114 383f 7d74 0f3d 4ade 0040
00000070: 5f36 8abd 5e85 483e f084 9c3c 199d d13e
00000080: 6a62 613d be09 32bc fc89 9e3e 5276 4dbd
00000090: 234c 953d 8576 8f3c 7c65 6f3e a3ba 7cbe
000000a0: 2d1a 4a3f d614 bfbd ff79 b4be 9ad6 323d
000000b0: 6092 373e 19fc 0ebb 5a53 61ba 1e70 903d
000000c0: a074 c43d 3f7a d03d 5d92 d1bc 636f b3be
000000d0: 54a2 9f3c a3e6 973e 93f1 483e ff7d e53c
000000e0: 2b91 833b ebb8 733f c9ec 40bd 2ba4 9e3e
000000f0: 4f4e 0e3e f3ee dd3d f266 f13c 20fc 2f3d
00000100: f0a3 eebd 146e 563d b370 09be c2f1 88bd
00000110: ad95 3e3c 84cd 7cbe e4fc 5fbd 9c6c bc3d
00000120: 7120 be3c 1ee9 4ebd 8bf5 fe3c 7b05 c33c
00000130: 6d68 30be 6903 823f 43d7 8abd 0294 28bd
00000140: 2023 b7bc d6c3 b23d d256 1a3d eab5 a0bd
00000150: 36ac 683e 1e9c 873e a5f9 613d c224 203b
00000160: f80f 673d 17fb 28bb 03f5 eabe c6f4 833d
00000170: 6755 3cbd 84c5 c43d 2dd0 bc3d 4910 4cbf
00000180: 29d6 e7bd 174e 223c 0070 08be 26dd 463d
00000190: 8b31 7abe b3ae babd e125 99bd 1073 1a3e
000001a0: 9aa3 903d 6edf 2cbd f52b ebbd e491 a0bd
000001b0: 1af9 06be f7bc ad3d 64d9 5dbd f57b f2be
000001c0: 0ac1 7abd cccc 6b3d e9b0 813c 03a0 e0bd
000001d0: 6258 ad3c 3326 09bd 155b ef3d 408b 5c3e
000001e0: 84b2 7bbc 57d7 ffbc 1b9c 223e 80c1 3abe
000001f0: e27e d6be 246b c23d 31d8 9a3d 2346 8a3c
00000200: 81b1 683b 11dc 8a3b 1a04 74bd a897 6b3c
00000210: d077 0b3e 6518 af3d 4207 1dbe b714 1dbe
00000220: 8cd8 6dbe e3cb 153d e48a 5cbe 8991 093c
00000230: f35e 943c 50ad 91bd ba4d 31bd c2b1 52be
00000240: c5ee 3cbd 09d9 933e 5965 823d 367e d8bd
00000250: e275 f5bc 8534 4ebe 4854 123d 2e88 02be
00000260: 7940 323e 12b9 27be 23a2 c6bc 62b1 e4be
00000270: 9bc2 4b3c b391 89bd 379a 0ebd 5e5c c3bd
00000280: b6dd c43c db6a 32bd 414c 363c 41e5 f93b
00000290: af88 7dbd acf5 77be 99e5 c9bd 171d b03e
000002a0: cb5d 65be 26a7 613e d7c7 0a3e 0114 97bc
000002b0: c73c 87be 9e57 c3bc eef8 b9ba caf4 d93d
000002c0: 53f6 64bd da26 92bc ec44 b8bd 9445 153e
000002d0: 1378 4ebd 654f 74be ad52 fcbd 03a5 86bc
000002e0: 2906 96bb c150 25be 1027 c63c a552 c7bd
000002f0: 19d4 48be 5c6d 98be d29c c43c 15f3 b7bd
00000300: 7b7a 613d 8d7d 553d 7f79 06be 65d8 d739
00000310: b985 47bc 912b 383e a73a 3cbe 0591 3f3b
00000320: c63d a1bd 71e0 7fbe a142 75be fdbe d939
00000330: 09c1 b9bc 3dc5 a53f 4bee 0a3d 7d0e 333d
00000340: 35d1 bdbd 7f73 9fbc 083e 0a3d 4f09 8b3d
00000350: 57cd b6be 21c9 3ebe 40ec 02bb ef69 0a3d
00000360: 00ee d3bd 1bc0 d039 bb71 4d3e 88c7 aabb
00000370: 5dcf b33d ea6c 1fbc f362 86bb c45e 493d
00000380: 7871 273d 7f59 ae3c 056a 323f e59e 613c
00000390: d344 823e c653 70be b93d 3cbe e22d bcbd
000003a0: 1fa0 793b a7e1 4d3d 01d5 ca3d da86 8fbd
000003b0: f7a7 543e 194a c73d c7bb b03d 9863 3f3f
000003c0: b537 04bd 0a8e 8cbd dcbb 4d3c b266 863d
000003d0: 7bc0 943c ace0 5b3d 7a48 5cbc d8bd 8a3d
000003e0: b768 9abd 262f 823d b6ed 33be d74c 533e
000003f0: a514 783d 0a52 ffbc ac9e febd 4d44 5bbd
0.030332204 -0.1066219 0.09022963 0.038183592 0.11004876 -0.006429168 0.035086554 0.50611675
0.14057054 -0.010319478 0.5708692 0.091332614 0.009571744 -0.29181975 -0.06116814 -0.115402915
0.014736135 -0.32971 0.053091664 0.22185725 0.034697138 0.04127727 -0.14288595 0.2746484
-0.8939603 0.7190686 0.0350232 2.0135674 -0.06748652 0.19582126 0.019106358 0.40940168
0.055025496 -0.0108665805 0.3096465 -0.050161667 0.072899126 0.01751257 0.23378557 -0.24680571
0.7894619 -0.09330146 -0.35249326 0.04366169 0.17926931 -0.0021817742 -0.0008595489 0.07052635
0.09592557 0.101795666 -0.025582487 -0.3504592 0.019486584 0.2966815 0.19623403 0.028014181
0.004015108 0.9520404 -0.047100816 0.30984625 0.1389706 0.108365916 0.029468033 0.042965055
-0.11652362 0.052351072 -0.13421898 -0.06686737 0.011632365 -0.24687773 -0.054684535 0.09200403
0.023208829 -0.050515287 0.031122943 0.023806324 -0.17227335 1.0157291 -0.06779339 -0.041156776
-0.022355616 0.08728759 0.037680455 -0.07847197 0.22721943 0.26486295 0.05516972 0.0024435972
0.056411713 -0.0025784427 -0.45890054 0.06443171 -0.045979884 0.096079856 0.09219394 -0.7971235
-0.11320145 0.009906313 -0.13323975 0.048550747 -0.24432962 -0.091153525 -0.07477928 0.15082955
0.070624545 -0.042205267 -0.114829935 -0.078403264 -0.13180962 0.08483308 -0.054162398 -0.47360197
-0.061219253 0.057568356 0.015831428 -0.1096802 0.021160308 -0.033483695 0.116872944 0.21537495
-0.015362386 -0.031230612 0.15879862 -0.18237877 -0.4189368 0.09493092 0.075607665 0.016879147
0.0035506191 0.0042376597 -0.059574224 0.014379419 0.13619924 0.08549575 -0.153348 -0.15339933
-0.23227137 0.036571395 -0.21537358 0.008396515 0.018111682 -0.07113135 -0.043287016 -0.20575622
-0.046126146 0.28876522 0.06366987 -0.10570948 -0.029963437 -0.20137222 0.035724908 -0.12747261
0.17407407 -0.16379192 -0.024247235 -0.44666582 0.012436534 -0.06717243 -0.03481504 -0.09539102
0.024031501 -0.043558937 0.011126579 0.007626206 -0.06189793 -0.2421481 -0.098582454 0.34397194
-0.2239906 0.22036418 0.13552795 -0.018442156 -0.26413557 -0.02384549 -0.0014188567 0.10642393
-0.055898976 -0.017840791 -0.08997521 0.14577323 -0.05040748 -0.23858412 -0.12320457 -0.016436106
-0.004578371 -0.16144086 0.024188548 -0.0973256 -0.19612159 -0.29770935 0.024000559 -0.08981911
0.055048447 0.052121688 -0.13132285 0.00041169222 -0.012177878 0.1798537 -0.18381749 0.0029230725
-0.078731105 -0.24987961 -0.23951198 0.00041531763 -0.022675054 1.2950817 0.03391866 0.04371499
-0.09268419 -0.019464253 0.033750564 0.06788885 -0.35703537 -0.18631412 -0.0019977242 0.033792432
-0.10348129 0.0003981598 0.20062916 -0.0052117743 0.08779786 -0.009730557 -0.004101151 0.04916264
0.040879697 0.02128291 0.6969302 0.013770794 0.25443134 -0.23469457 -0.1838292 -0.09188439
0.0038089824 0.050264027 0.099039085 -0.07008143 0.20767199 0.0973093 0.08629566 0.74761343
-0.03227969 -0.06863029 0.012556996 0.06562556 0.018158188 0.05368106 -0.013445014 0.06774491
-0.07539504 0.06356649 -0.17571148 0.20634781 0.060566563 -0.031167049 -0.12432608 -0.053531934
