training/weights/torch/g1.pth (torch, 167887 bytes, 15 tensors)

hidden_state f4 [2, 1, 32]
000000 20 1b ba bf 83 84 4d bf b6 5f b5 be ce 36 9c bf
       -1.4539528 -0.8028032 -0.35424584 -1.2204225
000010 b1 9a d5 3e 7f 51 23 bf 97 5a 32 3d 63 07 5e be
       0.41719583 -0.6379623 0.043543424 -0.21682505
000020 dc df c9 be 80 5e 1c 40 4c c4 83 bf 24 5f 12 bf
       -0.39428604 2.4432678 -1.029428 -0.57176423
000030 fc c7 51 3e 0f 9f e9 be ce b9 41 3e d9 cc f0 3f
       0.20486444 -0.45629165 0.18918535 1.8812515
000040 77 17 b7 bf 0d 0b 2a be 0d d7 7f bf 2b 70 b6 3e
       -1.4304036 -0.16605778 -0.99937516 0.35632452
000050 72 7d 83 be a3 10 ac 3f b1 3c cf 3f 00 c2 f0 bf
       -0.25681645 1.3442577 1.6190397 -1.8809204
000060 24 88 27 3f ec 74 9d 3f ae 5a db 3f 1a 55 c0 3f
       0.6544211 1.2301307 1.7137048 1.5025971
000070 20 97 e6 bf a3 c7 9f be e4 31 96 3f ca 38 29 3e
       -1.801487 -0.31206998 1.1733975 0.1652557
000080 4e 53 1c bf c7 9b d3 3d 18 c6 48 bf 7d ad ac be
       -0.6106461 0.103324465 -0.7842727 -0.3372611
000090 f9 05 4c 3f f7 5a 10 3e 23 f1 95 3e 23 33 1c 3f
       0.79696614 0.140972 0.29285535 0.6101553
0000a0 bc 30 27 bf d0 3b 83 3f fa fe ac 3f ca bc 05 3f
       -0.6530874 1.0252628 1.3515313 0.52241194
0000b0 ae 2f 6b 3f fa ab f6 3f 2f 25 a5 3d 02 50 3e bc
       0.9186963 1.9271233 0.08063733 -0.011615755
0000c0 c2 98 02 bf f9 ed 06 40 c5 44 1c be bc e4 cf be
       -0.5101434 2.1082747 -0.15260608 -0.40604198
0000d0 d0 20 0c 3f 9c 8e 87 bf b7 7a 7d 3f ab f8 be be
       0.5473757 -1.0590396 0.99015373 -0.37299094
0000e0 f8 ce bf bf 0e a6 9e 3f 74 2e b9 be f4 f9 01 bf
       -1.4985037 1.2394426 -0.36168253 -0.50772023
0000f0 81 a2 0b 3f 41 79 8c 3e bc 51 62 bf c5 8f d9 bc
       0.54544836 0.2743626 -0.88405967 -0.026557812

gru.weight_ih_l0 f4 [96, 136]
000000 1a 33 07 be 52 bb 79 bc d9 ea 7c bd f5 a7 df 3c
       -0.13203087 -0.015242415 -0.061747406 0.027301768
000010 fe c9 cc be 19 e0 98 3f 4e 5b a8 be c3 83 18 3f
       -0.39997858 1.1943389 -0.3288216 0.5957605
000020 be 67 f6 be 77 ca 20 3e b5 56 f7 be 24 ca 55 bd
       -0.48126024 0.15702234 -0.4830834 -0.05219473
000030 ff d2 12 bf b8 23 1d be 2d 07 ff be 34 4a 72 bd
       -0.57353204 -0.15345657 -0.49810162 -0.059152797
000040 a5 2c 13 3f ff 43 5c bd 3a 89 2a 3f ac 26 fc bd
       0.5749 -0.053775784 0.6661564 -0.123120636
000050 66 57 f3 3e 34 9b f5 bb c4 61 00 3f 5c 84 2b bd
       0.47527617 -0.0074953083 0.5014918 -0.041874275
000060 e7 a9 e1 3e 38 98 05 3d eb 15 fb 3d e7 43 a2 be
       0.44074938 0.03261587 0.1226004 -0.3169243
000070 64 50 93 3e 68 66 4c 3d 3e 99 6f 3e bb 63 d8 3e
       0.2877227 0.04990235 0.23398301 0.42263588
000080 87 9b 75 3e b6 96 58 3e 0f 97 5f 3d 85 e4 8c 3e
       0.2398511 0.21151242 0.05458742 0.27518097
000090 93 20 a0 3d 03 d6 b8 3e ef c4 95 3e d9 54 9d 3e
       0.07818713 0.36100778 0.2925181 0.30728796
0000a0 73 c6 5f 3f a1 61 98 3e 48 a9 21 3f f2 c9 8c 3d
       0.87412184 0.29761985 0.6314893 0.068744555
0000b0 cd b6 01 bf 90 2f 76 3d e6 ba 01 3f c6 6b 93 3c
       -0.50669557 0.060103953 0.5067581 0.017995726
0000c0 a7 2a 03 3f 80 22 c3 bd 60 4b 02 3f c0 25 33 bd
       0.5123696 -0.09528065 0.50896263 -0.043737173
0000d0 12 89 04 3f 5f 00 ea 3e 6c 50 0d 3f 39 08 aa 3e
       0.5177165 0.45703408 0.5520084 0.33209398
0000e0 23 a4 16 3f b3 90 c9 3d 84 57 48 3f f3 87 50 bf
       0.588442 0.09842052 0.7825854 -0.8145744
0000f0 b3 7b 19 3f 9b 69 4c c0 cb d1 99 3e 23 cf ee bf
       0.59954375 -3.1939456 0.30042872 -1.8656963
000100 9f 66 e0 3e ee 1d 0b c0 bd d4 77 be db 93 07 c0
       0.43828294 -2.1737018 -0.24202247 -2.1183994
000110 94 d9 56 3f 85 f0 10 c0 24 54 e2 3e f6 56 f0 bf
       0.8392575 -2.2646801 0.4420482 -1.8776538
000120 a2 1c fd 3e 00 bd 8b be 22 0c 8b 3e a4 20 8f bb
       0.49435908 -0.27292633 0.27157694 -0.0043679047
000130 12 5f 05 3f 6a fa 1b bd a2 a6 1b 3f d8 84 f9 bd
       0.5209819 -0.03808061 0.60801136 -0.12183541
000140 60 cb 57 3e aa 3c b5 be 1d 51 06 3c da f4 69 be
       0.21073675 -0.35397846 0.00819805 -0.2284731
000150 4e 7a ce 3e 66 2e c5 bd 89 bf 26 3e 4b 78 26 be
       0.40327686 -0.096279904 0.16284002 -0.16256826
000160 25 26 07 bc 7a 7d c1 3c ff 81 22 be 35 ea c5 3d
       -0.00824884 0.023619402 -0.15869902 0.09663812
000170 f7 47 21 be 8a 5e 0f 3c a1 0c 80 3d 88 11 88 3d
       -0.15750109 0.008750567 0.06252409 0.06643969
000180 e4 8f 19 3e e4 2d 65 3e 7e 68 0b 3f 56 c4 12 3f
       0.14996296 0.22380787 0.5445632 0.57330835
000190 72 e6 5b 3f aa 20 10 3f 14 93 28 3f d9 03 01 3f
       0.85898507 0.5629984 0.65849423 0.50396496
0001a0 21 17 2d 3f 33 10 05 3f cd fa e5 3e 49 42 fb 3e
       0.67613417 0.51977843 0.44917908 0.4907401
0001b0 f8 17 a9 3e 71 21 2d 3f 84 3c 04 be 9a 0f ed 3d
       0.330261 0.6762915 -0.1291371 0.115752414
0001c0 4d e8 f3 3d 69 88 1d be b1 08 8d 3e 77 fc 65 be
       0.11909542 -0.15384068 0.27545694 -0.22459589
0001d0 5d 46 9a 3e e5 db 18 bb 4c 07 0f 3f af 12 59 3e
       0.30131808 -0.0023324427 0.5587051 0.21198533
0001e0 82 af 84 3e 6b 86 36 3f 7e 25 e2 3d 33 55 5c 3e
       0.25915152 0.71298856 0.11042307 0.21516876
0001f0 c7 3d c0 3e 5d 8e 85 3c 49 1d b5 3e aa 4b 09 be
       0.37547132 0.016303236 0.35373905 -0.1340777
000200 61 db 9a 3d 49 f9 36 3e 94 48 5b 3f 1f 37 d1 3e
       0.075613745 0.17868532 0.8565762 0.40862367
000210 52 f0 6e 3f ad e8 96 3e ee 7d 1e 3f 33 d7 a1 3e
       0.9333545 0.29474393 0.61910903 0.31609496
000220 b3 55 fb 3a 5d 6d b9 3e e9 2c 99 bc e1 ac f1 3e
       0.0019175321 0.3621625 -0.018698173 0.4720221
000230 4a f8 37 3d 47 88 2e 3e d6 43 f1 3e b2 54 c6 3d
       0.04491452 0.17044173 0.47122067 0.09684123
000240 e3 4a a1 3e c1 d9 2d 3e 81 26 ec 3d ba 78 8b 3e
       0.31502447 0.16977598 0.115307815 0.27240545
000250 0e 5c 1f 3f 9d 7d fe 3d 5a ed 93 3f 63 09 8e 3e
       0.6224984 0.124263026 1.1556809 0.27741536
000260 3d 7d 3e 3f 8f 44 7e 3d 5a 5f 3f 3e 92 73 4c 3c
       0.7440985 0.0620771 0.18688717 0.012478726
000270 27 28 97 3e 9a f1 18 be 4d 4c cd 3e ad 38 34 bd
       0.2952282 -0.14935914 0.40097275 -0.043999363
000280 fb d9 75 3e 1d 9f 3b 3e f0 20 b5 3d 8e f2 36 be
       0.24008934 0.18322416 0.08844173 -0.17865965
000290 e0 b5 cf 3d 81 39 f2 3d 14 5c 02 be fb eb 0c be
       0.10142112 0.11827374 -0.12730438 -0.13761894
0002a0 c1 9c 82 be 3a 36 15 be 18 ac 03 3e 60 99 96 bd
       -0.2551022 -0.14571467 0.12858617 -0.07353473
0002b0 06 cb 63 3e 32 59 3f be 99 8f d5 bc a4 77 53 3d
       0.22245416 -0.18686369 -0.02606945 0.05162777
0002c0 3f 47 23 be 93 88 ba bd 40 fd 55 be 93 bf e8 be
       -0.15945147 -0.09108081 -0.20897388 -0.4545866
0002d0 fe b0 cc be b3 16 7f be 2a 3b 92 be 32 32 9b be
       -0.39978784 -0.24911003 -0.28560764 -0.30311733
0002e0 3f 4c 81 be fb 3b e4 bd 2b 62 03 be 48 b8 67 3d
       -0.25253484 -0.11144253 -0.12830417 0.05657223
0002f0 92 d3 84 b9 ff 43 47 3d 61 9c 01 bf df 17 35 bf
       -0.00025334634 0.04864883 -0.5062924 -0.7073955
000300 fd 90 32 bd c3 2d 03 bf aa a0 16 3e c2 18 a5 be
       -0.043595303 -0.512417 0.14709726 -0.3224545
000310 98 3c 39 3d 87 58 7f 3f d0 d1 67 3e 99 d8 d5 3f
       0.045223802 0.99744457 0.22638631 1.6706725
000320 65 99 bd bc f8 25 87 3f 6e 07 04 3f 79 97 99 3f
       -0.023144433 1.0558462 0.51573837 1.1999351
000330 00 2a 50 bd 39 6a 9c 3f ac 49 7e be d5 e7 00 40
       -0.050821304 1.2219917 -0.24832791 2.01415
000340 a3 ff 66 3e 00 6e 57 be b6 86 25 3e db d0 8a bd
       0.22558455 -0.21038055 0.1616467 -0.06778117
000350 17 6b 44 3e f4 53 6f bb ff 95 8d 3e 58 ad 9e 3d
       0.19181477 -0.0036518546 0.276535 0.077479064
000360 4c f8 d6 3e 2d 2a 8e bd bd c0 24 3f b2 2c 16 3d
       0.4198631 -0.06941638 0.64356595 0.03666372
000370 e9 c4 7e bf f9 5a b0 3d 8a 93 8b bf 6d 61 bd 3d
       -0.9951921 0.08611102 -1.09044 0.09247098
000380 ba 76 2f bf 57 2e 2a 3d 43 47 cf be a8 60 64 be
       -0.6854054 0.0415481 -0.40484056 -0.22302496
000390 1b aa 8d be f6 d4 72 be 2f c8 8e be 2c 94 1a be
       -0.27668843 -0.2371405 -0.27887103 -0.15095586
0003a0 f5 07 8a 3f cc 44 3a 3e 88 09 7e 3f 07 8e 3a be
       1.0783678 0.18190306 0.99233294 -0.18218242
0003b0 b4 49 f5 3e 99 5a 29 be ab 4c e3 3e dc e4 87 be
       0.47907794 -0.16538467 0.4439443 -0.26541793
0003c0 af 96 f7 bd 1f ed 9b be 0a ea bb be 3d ba da be
       -0.120892875 -0.30454347 -0.36701995 -0.42720214
0003d0 ab eb 17 be 00 65 20 be 4e 1e 0d 3f 83 ab 27 be
       -0.14835994 -0.15663528 0.55124366 -0.1637402
0003e0 60 d3 7f 3f 5a f3 98 be 86 c3 82 3f 7e 9c 73 be
       0.9993191 -0.29873163 1.0215919 -0.23790166
0003f0 ce a9 87 3f 63 a1 d3 3b 59 dc 82 3f 3c f3 62 bd
       1.0598695 0.006458448 1.0223495 -0.055407748

gru.weight_hh_l0 f4 [96, 32]
000000 d0 c5 24 3f 01 53 d5 3f 82 e0 0e be 16 f2 72 3f
       0.6436434 1.6665956 -0.1395283 0.94900644
000010 7c 37 a1 3f c8 a2 87 bf 96 0b 50 c0 d0 65 d4 3e
       1.2595057 -1.0596552 -3.2507071 0.41483927
000020 14 56 93 be 75 9d 45 bd cf 4f 26 3d dc 8a 92 3f
       -0.2877661 -0.048245866 0.040603455 1.1448627
000030 12 20 2e bd 49 bc b4 3e bc 59 8e 3f e7 c3 0b be
       -0.042511053 0.352999 1.1121135 -0.1364895
000040 45 60 9a be 5c 7e 8e 3e fb 5b f6 3e 1c 1a c6 be
       -0.30151573 0.2783078 0.4811705 -0.38691795
000050 5c cf fa 3d 3d 8e 85 bf 08 ec 84 3f eb 1b 87 3d
       0.12246582 -1.0434033 1.0384531 0.06597122
000060 00 59 55 bf ae 30 bc be a5 70 2f bf 97 92 fa 3e
       -0.8333893 -0.3675589 -0.68531257 0.48939964
000070 cc 76 08 bf d8 76 34 3f 02 ee 0f 3f 3c 8f 01 3f
       -0.5330627 0.7049384 0.56222546 0.50609183
000080 1d 25 83 bf fc 02 64 be 86 46 13 3e 8a 15 45 bd
       -1.0245701 -0.22266763 0.14382371 -0.048116244
000090 ff bd b8 3f f3 ce 6c bf df de 0f 3f c4 cd 8e bf
       1.4432982 -0.9250328 0.5619945 -1.1156545
0000a0 ea 97 58 bd d1 50 b7 3f b7 c9 c7 bf da 84 c6 3e
       -0.05287925 1.4321538 -1.5608433 0.38773233
0000b0 1a d2 8b be 78 73 45 bf 9d fb d3 be dd cf d0 bd
       -0.27308732 -0.77129316 -0.41402903 -0.10195897
0000c0 72 d0 62 bf 88 f1 0e 3f b2 0d a0 3e 46 5a 00 3d
       -0.8859931 0.558373 0.3126045 0.03133609
0000d0 8d 5c ee 3f 64 79 90 3e 20 db 51 be 0e 3d 83 3e
       1.8621994 0.28217614 -0.20493746 0.2563252
0000e0 b5 99 e4 3d d8 7a 9c 3e 54 6a 1f 3f ab de 21 bd
       0.1116213 0.30562472 0.6227162 -0.039518993
0000f0 91 4c 0a bf 38 ae 1c 3f 3a 69 c1 bd 5a 3a 6b bf
       -0.5402308 0.61203337 -0.094438985 -0.9188591
000100 0a 19 94 3e a8 e8 6b 3f 1f bb 7c 3f ff e3 49 3f
       0.28925353 0.9215188 0.98723024 0.7886352
000110 b8 e0 20 3f 4e e9 d4 be 02 d8 07 bf 6b ac 38 bf
       0.62842894 -0.41584247 -0.53063977 -0.7213809
000120 57 7e a5 be bd a9 e9 be dc fd 8e bf 41 ec 9c be
       -0.32322952 -0.45637313 -1.1171222 -0.30648997
000130 0b 4a a5 bd 54 32 d5 3e 88 ed 8c bf 20 3b c2 be
       -0.08070763 0.4163996 -1.1009989 -0.37935734
000140 3e 44 21 bf 9e a6 6a 3f fb 0f a8 bf 7c 58 08 bf
       -0.62994754 0.9166049 -1.3129877 -0.53260016
000150 37 48 c5 bf 04 1e 74 3f df 85 16 3f 10 ef 59 bf
       -1.5412663 0.953583 0.5879802 -0.85130405
000160 11 8c 0b be 76 5d 95 bf b9 f1 9a be 91 27 32 3f
       -0.1362765 -1.1669147 -0.30262545 0.69591624
000170 f9 8a 4d 3f eb e9 90 3f 61 47 b0 3e 86 0e 19 bf
       0.8029018 1.1321386 0.34429458 -0.59787786
000180 df 18 82 3d 94 2e be bc 17 9f ea 3e 40 8f 76 bc
       0.063524 -0.02321557 0.458245 -0.015048802
000190 04 ee d8 3d d4 ba c8 3c 03 7a a1 3f a3 ad c7 3e
       0.10592273 0.02450315 1.261536 0.38999662
0001a0 10 e0 06 3f e6 45 80 bf f1 d6 2f 3f af fe 88 3e
       0.5268564 -1.0021331 0.6868735 0.26756808
0001b0 3f a5 5a 3e 80 d0 47 3f 13 7d 75 3e bd a4 1b 3b
       0.21352099 0.7805252 0.23973493 0.0023749315
0001c0 dc 36 56 bf d9 e2 f1 be 82 61 01 3f d6 3f 00 3f
       -0.8367746 -0.47243384 0.5053941 0.50097406
0001d0 b2 9f f4 be 27 4d 17 bf 2b d4 a6 be d5 a2 65 3d
       -0.47778088 -0.591021 -0.32583746 0.05606349
0001e0 e4 d2 59 3c 46 67 80 3f 27 08 bd 3f 29 14 8a bf
       0.013294909 1.0031517 1.4768113 -1.0787402
0001f0 32 1a 83 3d a2 95 e8 bd 3d 5f cc bd 37 ef 01 bf
       0.06401481 -0.11356665 -0.09979103 -0.5075564
000200 b6 f3 8b bf 54 f4 d5 3f 45 6f 73 3d 95 32 3c 3f
       -1.093375 1.6715188 0.059432287 0.7351468
000210 19 c1 4c 3f 2c 6d d0 3d 1b 45 9d 3e 4a 18 b6 3e
       0.79982144 0.10177073 0.30716786 0.35565406
000220 3e 2f 20 bc b0 0d bf bd fe 0d ad 3e 3c a1 db 3d
       -0.009776888 -0.093287826 0.33799738 0.107241124
000230 af 8f 69 bf 52 c9 97 3d f1 7a dd 3e b1 eb 91 3e
       -0.9123487 0.07411446 0.4325786 0.2850013
000240 41 94 1f 3f 3e d1 03 bf 5d 12 b9 be e5 70 87 3b
       0.6233559 -0.51491153 -0.36146823 0.004133331
000250 10 a3 e5 be e6 14 55 bf 85 2d ef 3c 1a 49 81 bd
       -0.4485097 -0.83235013 0.02919651 -0.06312771
000260 7f 2c 8c be 5b c8 17 bf 62 7a b5 3e 9a 6a a4 3f
       -0.27377698 -0.59290093 0.35444933 1.2845032
000270 c7 3f f4 be 88 41 0e 40 96 3d 3c 3f 7d 61 93 bf
       -0.47704908 2.2227497 0.7353147 -1.1514126
000280 b9 f7 1d be 31 d9 b4 3f 12 12 ab 3e ad 76 ca 3d
       -0.1542653 1.4128782 0.33412224 0.09885917
000290 fe d9 54 bf f3 9c 16 be 76 87 f0 bd 79 c9 64 3f
       -0.8314513 -0.14708309 -0.11744587 0.8936992
0002a0 f7 5e e4 be 5c 3c a7 3e d3 ed d9 3e 2c 6a 69 be
       -0.44603702 0.32663238 0.42564258 -0.22794408
0002b0 8c 5d 7b 3f b6 99 36 3e 1e aa 86 3f 9e f8 3b be
       0.98189616 0.17832074 1.0520666 -0.18356559
0002c0 60 f3 70 3f 94 a9 03 b9 28 0d f3 3e 9d a3 7f 3f
       0.9412136 -0.00012556306 0.47470975 0.9985903
0002d0 4c 2b 54 3f ee af f8 3e 06 82 61 be 92 0c d9 3c
       0.82878566 0.48571724 -0.22022256 0.026495252
0002e0 24 8c e1 3d cb ed 6e be 3b ba ae be e0 bb 5c 3f
       0.11013058 -0.23332898 -0.34126458 0.86224174
0002f0 05 b9 63 bf a5 c5 08 bf c9 f1 0a bf d1 e3 ba 3e
       -0.8895419 -0.5342658 -0.54275185 0.36501935
000300 14 60 fe bd 07 f2 39 3f 30 49 8b bf 29 be 84 be
       -0.12420669 0.7263493 -1.088171 -0.2592633
000310 2b 21 cb be e0 49 21 bc 7d 21 36 bf e4 b5 be bd
       -0.39673743 -0.009844273 -0.7114485 -0.09312037
000320 d3 fa a5 3e 54 6b 2f bf 25 20 fb 3e 98 ab 94 bd
       0.32417926 -0.68523145 0.49047962 -0.072592914
000330 82 17 54 3f 10 0d 5f bd 21 20 8c 3e fb 39 2b bf
       0.8284837 -0.054455817 0.27368262 -0.66885346
000340 ef ed 59 bd ab a4 19 3f cb c7 b5 3d 76 12 0d 3e
       -0.053205427 0.6001689 0.08875998 0.13776574
000350 26 c6 c0 3e 35 99 9e 3e f0 04 0b bf 80 1c 44 be
       0.37651175 0.30976263 -0.5430441 -0.19151497
000360 2b 17 28 bf fe f7 57 3e d9 22 34 3f e3 56 09 3f
       -0.6566035 0.21090695 0.70365673 0.53648204
000370 7b 95 61 bf 42 ea 15 bf f6 85 89 bf 6b 50 f0 3e
       -0.88118714 -0.58560574 -1.0744007 0.46936354
000380 c0 14 63 bf 2d 35 87 3e 0b c1 12 be e6 01 84 3e
       -0.88703537 0.26407757 -0.14331453 0.25782698
000390 a8 92 fa 3d 72 77 3a 3e 93 49 f7 be 36 65 44 be
       0.12235004 0.18209627 -0.4829832 -0.19179234
0003a0 2b 2f ba 3d 94 3b 68 3f b4 21 9f 3f fc 1f 4e 3f
       0.09091028 0.9071591 1.243216 0.80517554
0003b0 b6 d8 01 bf 4a 48 f5 3e 07 8a 10 bf fe 7a 31 bf
       -0.507213 0.47906715 -0.56460613 -0.69328296
0003c0 e9 bd 71 3e 96 ee 42 bf 9e 12 31 bf 31 0a db be
       0.23607601 -0.76145303 -0.6916903 -0.42781213
0003d0 49 5f 1b 3f 60 f2 2e 3f cb 0f 4a 3e 38 61 cb 3e
       0.6069227 0.68338585 0.19732587 0.3972261
0003e0 a1 f6 26 bf 7e e0 c7 3e 1b 68 a8 3f 17 f6 94 be
       -0.65220076 0.3903846 1.315677 -0.29094002
0003f0 15 42 a1 bf 89 9d a0 bc 32 b0 61 be 8d 69 03 c0
       -1.2598292 -0.019606369 -0.2203987 -2.0533173

gru.bias_ih_l0 f4 [96]
000000 c8 02 04 be 50 35 36 be 4c 9c 05 3e ee 61 7a 3d
       -0.12891686 -0.17793775 0.13047904 0.06112855
000010 86 53 88 3e 7a 96 f7 3c b7 9d 88 bc 75 df 5c 3e
       0.26626223 0.03022312 -0.016676767 0.21569617
000020 36 c5 e7 bd 63 07 8c 3c de 9f a2 3e 23 5d d7 bd
       -0.11316912 0.017093366 0.31762594 -0.10515811
000030 08 db 6a 3e 65 65 5c bc 8b e0 8b be 2d d5 30 3d
       0.22935116 -0.013451909 -0.2731975 0.04317205
000040 a2 00 fd 3d ec ba 8b 3e 9a 65 2b 3d 96 39 8e be
       0.12353636 0.27291048 0.04184494 -0.2777831
000050 73 4a a1 3e 12 97 ba bd c0 3b 5a 3d ca ae 15 be
       0.31502113 -0.091108456 0.05327964 -0.14617458
000060 8e 9c c1 ba c8 ac f5 3d f1 67 70 bd 30 52 90 3d
       -0.0014771388 0.11995846 -0.058692876 0.07046926
000070 69 3e 1d 3c 18 88 22 be ee fa 70 bd 3b 92 f0 bd
       0.009597399 -0.15872228 -0.058833055 -0.11746641
000080 6c 77 9a 3e ec bb 2b 3e 1f 57 2b bc 5e 33 81 bc
       0.30169237 0.16770905 -0.010457783 -0.015771564
000090 70 61 fa 3d 9e 6d 81 3e d8 de d6 3e 7a 8a 0b 3e
       0.12225616 0.25278944 0.4196689 0.13627043
0000a0 76 84 bf bd 07 82 24 be 69 34 50 3d 4d 31 51 3e
       -0.09351437 -0.16065226 0.050831232 0.20428963
0000b0 0f 08 26 3e 11 91 1d 3e f0 ce 2f be 52 88 f2 bd
       0.16214012 0.1538737 -0.17168784 -0.11842407
0000c0 5d 1a 37 be 31 85 9a 3d 85 95 ac 3d e6 49 6b be
       -0.1788115 0.075449355 0.08426956 -0.22977409
0000d0 eb 9e 56 3e 07 73 e6 bd 4f 64 08 3d e6 03 51 3e
       0.2095906 -0.112524085 0.033298787 0.20411643
0000e0 07 ea 65 3e c6 00 02 be 4a c8 2d be c7 a5 a2 3e
       0.22452556 -0.12695608 -0.16970935 0.31767103
0000f0 c8 07 5f 3e 1d 15 36 3e 82 8f ae 3e f7 31 a4 3e
       0.21780312 0.17781492 0.34093863 0.3206937
000100 cc fe 46 be 3b 55 03 be 94 91 d0 3d 8b 55 87 3e
       -0.19433135 -0.12825482 0.10184017 0.26432452
000110 e0 51 2b be 4c ff 5d 3e f8 b0 f7 3d b6 23 76 bd
       -0.16730452 0.2167942 0.12094301 -0.06009265
000120 25 0c f4 3d b7 fb 3e bc 75 18 3e bd 09 10 c7 3d
       0.11916379 -0.011656693 -0.046410043 0.09719855
000130 5b 38 4e 3d 09 68 0c 3e 86 20 cd bc f6 c7 8f be
       0.050346714 0.13711561 -0.025039922 -0.28082246
000140 7b 3c 6c 3e 88 ad 97 3d 77 f7 10 bc 4f d3 67 3d
       0.23069946 0.07406145 -0.008848063 0.056598004
000150 4f 78 24 be 20 64 83 be 32 29 15 be 8e d9 06 3e
       -0.16061519 -0.25662327 -0.14566496 0.13168928
000160 6b 3e e8 3d d6 c0 45 be b4 08 48 3e 78 30 59 be
       0.1134003 -0.19311842 0.1953457 -0.21209896
000170 f9 fd 2a 3e 0c ab 0c be 9b fb ee bc 62 91 f3 bd
       0.16698445 -0.13737124 -0.02917271 -0.11892964

gru.bias_hh_l0 f4 [96]
000000 84 c6 e0 3d 81 ed 0a bd e0 3d 42 3c d1 32 e3 bd
       0.10975364 -0.033917908 0.011855572 -0.11093677
000010 df 02 f7 39 09 70 36 3e e1 16 51 3d 70 38 c0 3d
       0.0004711365 0.17816176 0.05104721 0.093857646
000020 b2 d9 8f 3d eb 2e 81 bd 74 81 ed 3d 1a 81 b2 3d
       0.07023944 -0.06307777 0.11596957 0.087160304
000030 e6 d0 f4 3d ee e5 51 3b 4b ad 07 be 99 fd ca 3d
       0.11953907 0.0032027918 -0.132497 0.09911651
000040 29 79 f3 3d 18 53 8a 3d 48 a1 2c be ac fd 91 be
       0.11888344 0.0675413 -0.16858399 -0.2851385
000050 81 ab 8a 3d 6e 74 12 be 11 0e 66 be 63 ac 33 be
       0.06770993 -0.14302227 -0.22466303 -0.17546229
000060 80 d5 43 be 79 95 48 3e aa 67 03 bd 1a c6 8a 3d
       -0.19124413 0.1958827 -0.032081284 0.06776066
000070 7c e1 2e be de 4d 02 bd 82 89 6a bc 5b fc 9f be
       -0.17078203 -0.03181254 -0.014315011 -0.3124722
000080 91 eb 5c 3e 76 6e 04 bd 6a fb 75 3e f1 6c 53 be
       0.21574236 -0.032331906 0.24021688 -0.20647027
000090 42 df d6 3d d5 0f 9e 3e 69 7b a9 3e cb 8c d8 bc
       0.10491802 0.30871454 0.33101967 -0.026434323
0000a0 6b 95 ee bc 6e 3a db bc 18 8e 34 3d 1f 5d 60 3e
       -0.029123982 -0.02676126 0.044080824 0.21910523
0000b0 d5 08 79 3e 1e df d8 3d 1e 1a 57 bd c1 09 2b be
       0.24319775 0.10589431 -0.05251514 -0.1670294
0000c0 83 cb 0d be 58 38 af 3e 54 b2 9f 3e 57 cd 62 be
       -0.13847165 0.34222674 0.3119074 -0.22148643
0000d0 79 6d be 3e 66 02 60 3d 42 d0 25 be 00 f1 5a 3d
       0.37192896 0.054689787 -0.16192725 0.05345249
0000e0 10 01 b4 3e 4b 33 4c be b4 24 6a be c8 9d 4a 3e
       0.3515706 -0.19941442 -0.22865564 0.19786751
0000f0 70 4d 6e 3e a5 0d 3e bd 25 a2 0a 3e e1 54 c7 3d
       0.23271728 -0.04639973 0.13538416 0.09732986
000100 66 ad 8b 3e 0c 49 58 be 0c 06 2e be 84 4d 59 3e
       0.2728073 -0.21121615 -0.16994494 0.21220976
000110 58 fc 75 3e 07 c2 6f 3e f5 98 4e 3e 23 b9 b8 be
       0.24022043 0.2341386 0.20175536 -0.36078748
000120 4b 7a 51 3c 8b df a0 3e d1 17 97 be e0 a1 c6 3d
       0.012785505 0.3142055 -0.29510358 0.09698844
000130 29 0c 21 bd 6d 6e 5d be 20 9d eb ba a9 61 f4 3c
       -0.039318237 -0.21624155 -0.0017975904 0.029831724
000140 24 5d f7 be d5 6a ca 3e 3d d5 88 3e b4 e0 1f bd
       -0.48313248 0.3953463 0.26725188 -0.039032653
000150 86 a1 66 be 3d f3 1d 3e 1e b0 a7 bd 95 78 86 3d
       -0.22522554 0.1542482 -0.081878886 0.06565968
000160 32 8c e7 3e 97 b1 e8 be b0 a7 39 3c ba db 97 bd
       0.45224148 -0.4544799 0.011331484 -0.074149564
000170 96 73 b5 3e 9f 28 71 3e 39 0f 88 3e 13 f2 3c be
       0.35439748 0.23550652 0.26574114 -0.18451719

gru.weight_ih_l0_reverse f4 [96, 136]
000000 cf 6e d5 bd 26 da 6e be bc e0 ce 3d c6 63 ac be
       -0.10421526 -0.23325405 0.101014584 -0.3366987
000010 94 24 0b 3e ff 88 bb bf 7d ed 97 3c 22 b4 b3 3c
       0.13588172 -1.4651183 0.01854586 0.02193648
000020 cc d0 d3 bc 41 47 e1 3e 05 95 ae 3d a7 6f b2 3e
       -0.025856398 0.43999675 0.08524517 0.3485081
000030 d7 c0 89 bc 00 eb a3 3e bf ff 13 be 60 a5 9c 3e
       -0.016815586 0.32015228 -0.14453028 0.3059492
000040 66 77 b4 be b0 b3 e3 3e 58 a8 ed bd b2 75 28 3e
       -0.35247344 0.44473028 -0.11604375 0.16451147
000050 a2 0c b0 bb 81 68 d1 3e fc a1 3f 3c 8e b8 41 3f
       -0.0053725997 0.40900043 0.011696335 0.75672233
000060 ca 7e 24 3e 4a 85 56 3f e4 27 53 bd e1 da d0 3f
       0.16063991 0.8379713 -0.051551715 1.6316797
000070 b7 13 0d be 56 b9 cb 3f f4 27 1d be d4 05 d8 3e
       -0.13777052 1.5915935 -0.15347272 0.42191947
000080 3c 6b 97 3d be 29 b9 3d 02 c2 d0 bc ac 9c 1c bd
       0.073935 0.09041165 -0.025483135 -0.03823535
000090 9f 37 4e be 23 fe e9 bd 02 22 92 be 37 e8 0b 3d
       -0.20138405 -0.11425426 -0.2854157 0.034157004
0000a0 b2 7f b8 be 8f 8e 33 be 28 a6 4a be b8 3c 90 be
       -0.36034924 -0.1753485 -0.19789946 -0.28171325
0000b0 d6 ab 05 3e bf 0a bb be b8 23 08 3e 41 48 49 be
       0.13053831 -0.36531636 0.13294876 -0.19656469
0000c0 c4 a6 3e 3e bd 2e 3b bd 82 7d b0 3c 5e 7d 9d bd
       0.18618304 -0.04569887 0.021544222 -0.076899275
0000d0 ee 3b f7 3d 3a c4 dc 3e 18 00 70 3d e8 16 f0 be
       0.120719776 0.4311846 0.05859384 -0.46892476
0000e0 f8 1f 9e be f7 81 f4 be 78 36 81 be 2b 82 46 bf
       -0.30883765 -0.47755405 -0.2523687 -0.7754237
0000f0 5f 90 d8 be 45 fb e7 bf 99 e1 02 bf 17 88 3a c0
       -0.42297646 -1.8123556 -0.51125485 -2.9145563
000100 83 d7 0c bf f5 37 13 c0 a6 d0 8f be 69 dd e6 bf
       -0.55016345 -2.3002903 -0.28088874 -1.8036319
000110 1b cd 96 be 42 17 37 c0 2e 60 79 be ab 97 41 c0
       -0.29453358 -2.8607945 -0.24353096 -3.024882
000120 3e dd 62 be d2 c3 8c bb fe 55 39 be 81 11 91 3d
       -0.2215471 -0.0042958045 -0.1809921 0.07083417
000130 81 71 27 be 70 fe 8b 3d 7a f1 2e be 80 c9 3a 3e
       -0.16351892 0.068356395 -0.17084303 0.18240929
000140 e7 0e bb be 5e db 82 3e 65 65 97 3d 2c 2e ad bd
       -0.36534807 0.2555799 0.07392386 -0.08456072
000150 40 4f 68 3d a4 df 7b 3e 1d 7d 2a 3e 43 8c 36 3e
       0.056716204 0.24597031 0.1664929 0.17826943
000160 79 9c e4 3d b1 e9 96 3e 9b 2c 21 3e d6 4a 14 bd
       0.11162657 0.29475167 0.15739672 -0.03620418
000170 96 59 10 be 6a f2 5b bd 15 43 a1 3d 74 98 12 bc
       -0.14096674 -0.05369798 0.07874123 -0.0089474805
000180 02 de 8d 3e 80 fb e9 3d c3 75 e4 bd 1a a1 87 be
       0.2770844 0.11424923 -0.11155274 -0.26490098
000190 69 0e 84 be 85 97 1f bf e6 52 12 bf 54 09 a2 be
       -0.25792244 -0.62340575 -0.5715774 -0.31647742
0001a0 2d 10 d4 be fe 2c 2b bf b7 ef 04 3e 4d 0e e4 be
       -0.4141859 -0.6686553 0.12982069 -0.4454216
0001b0 ba ed 59 3d bf b7 07 bd b1 57 05 3e 92 63 61 be
       0.05320523 -0.03313422 0.13021733 -0.2201064
0001c0 41 ca 3d be 02 88 5e be 79 a9 9b be ec 7d 47 be
       -0.18534185 -0.2173157 -0.30402735 -0.19481629
0001d0 3a df 4a be 62 27 99 be a8 40 24 bd 59 f0 20 be
       -0.19811717 -0.2991286 -0.040100724 -0.15716685
0001e0 9c dd c2 3e 39 ad 52 3e 48 12 86 3d c2 2d 81 be
       0.380597 0.20573892 0.065464556 -0.25230223
0001f0 2b 1a ba 3d 0b 53 9a 3d bc e3 8d 3e 9e c4 ba be
       0.090870224 0.075353704 0.2771281 -0.36478132
000200 4b 7e c1 3d c3 e2 0d bf ad 7a 81 be 20 90 5b ba
       0.094479166 -0.55424136 -0.25288907 -0.00083756633
000210 3e 98 62 be cc 30 3e 3d 94 0d c6 be f1 5a 40 bc
       -0.22128388 0.046433255 -0.38682234 -0.011740432
000220 8d 48 3b 3d ff 4d 02 3e b3 44 9d bd 36 fc b8 3e
       0.045723487 0.12725066 -0.07679119 0.36129922
000230 71 c1 52 be e6 a1 b3 be 46 5d 20 be 28 d4 5a bd
       -0.20581605 -0.35084456 -0.15660581 -0.053424984
000240 99 c2 2f be fb 78 c3 3d 2f 9b 2e be 97 55 1f 3d
       -0.17164077 0.095445596 -0.17051385 0.038899984
000250 ee 1b 91 be 6c 9a 49 bd 5c 93 dc bd e3 63 85 3d
       -0.2834162 -0.049219534 -0.10770294 0.065131925
000260 63 3e 0e 3e e5 2d e1 3d cb 75 34 3e e4 b2 50 3e
       0.13890986 0.10995082 0.1762306 0.20380741
000270 ec f8 38 3e b4 24 e8 3d a7 ed 25 bd 4a f9 88 3e
       0.18063706 0.113351256 -0.040509846 0.26752692
000280 39 84 26 3e b2 85 d5 3e f3 e9 e9 3c 32 b4 60 3e
       0.16261376 0.41703564 0.028553938 0.21943739
000290 04 53 89 3d e2 94 0c 3e c1 6f 14 bd 07 cf 35 3e
       0.06705287 0.1372867 -0.03623939 0.17754756
0002a0 2b 4e 80 b9 72 45 9b 3d 0c 05 ab bc 7c 0f 4b bd
       -0.00024472302 0.07581605 -0.02087643 -0.049575314
0002b0 51 09 5e bd 0a 18 59 be cd b8 17 be 2b 1a b1 bc
       -0.054208104 -0.21200576 -0.1481659 -0.021618923
0002c0 01 9e 40 be 84 48 fc bc 0b cc 22 3e 71 26 13 3c
       -0.18810274 -0.030796297 0.15898149 0.008981333
0002d0 2b d5 14 be 0a c5 00 be f1 a8 ad bd 6d 84 46 be
       -0.14534442 -0.12575164 -0.08479489 -0.19386454
0002e0 64 17 c9 bd 5f 56 5f be 96 9b 90 3c eb fa e4 3d
       -0.098189145 -0.21810292 0.017652314 0.11180671
0002f0 70 2c c6 bd a3 04 05 3e 47 a3 76 3d 50 7b 02 be
       -0.096764445 0.1299005 0.060214307 -0.12742352
000300 ee 4e 33 3e fd b6 f4 bd 17 b3 f0 bc 9b 28 07 be
       0.17510578 -0.11948965 -0.029382272 -0.13199084
000310 32 a0 78 bd 87 5c b5 bd d6 cf 48 ba 9a 35 82 3e
       -0.06069965 -0.08855539 -0.00076603645 0.2543152
000320 a0 91 f0 bd 61 fb 94 be f3 30 80 3e 39 dd 32 be
       -0.11746526 -0.29098037 0.25037345 -0.17467202
000330 e3 4f c1 3d 3d d9 eb be 19 eb 15 3e 29 20 8f 3e
       0.09439065 -0.46064177 0.14640464 0.27954224
000340 68 98 7c be ee 67 54 3e 18 63 95 bc 3d 6f 81 bd
       -0.24667513 0.20742771 -0.018235728 -0.06320045
000350 f1 3f ae 3d 76 d1 b3 be c7 a0 19 3e 53 6c 06 be
       0.085082896 -0.35120744 0.15002738 -0.1312726
000360 1e b5 45 3e c4 3c ce bd a8 4b c4 bd 8e 96 13 be
       0.19307372 -0.10070184 -0.09584743 -0.14412901
000370 94 a1 88 be 3b d5 ce bd f8 b3 09 be 44 4c 63 bd
       -0.26685774 -0.10099264 -0.13447559 -0.055492654
000380 a0 71 4f be c4 14 27 bd cb a1 87 3d 90 22 4c bd
       -0.20258188 -0.040791288 0.066226564 -0.04983765
000390 f1 38 3b bd af 86 bc 3d 51 ae d5 3c 1d 2d bc 3d
       -0.0457086 0.09205376 0.026084097 0.09188292
0003a0 aa 81 a4 bd d2 e2 ae 3d a9 25 2f be 2b ac 34 be
       -0.08032544 0.08539356 -0.1710421 -0.17643802
0003b0 36 a7 a3 be 32 e1 ec bd c0 74 f3 bc 46 86 87 be
       -0.3196351 -0.1156639 -0.029718757 -0.2646963
0003c0 33 f8 b3 3e a0 c1 ac be 89 40 8d 3e 3c 50 83 3b
       0.35150298 -0.33741474 0.275883 0.0040073674
0003d0 3a 45 ad 3e 20 31 a7 3e 8d 97 cf 3e e9 6f ce 3d
       0.33841878 0.32654667 0.40545312 0.10079939
0003e0 54 ef 97 3e dd 65 ab bd e3 39 4b 3e 80 8e 44 3d
       0.2967478 -0.08369038 0.19846301 0.04798746
0003f0 9c e2 d5 3d e4 71 16 be 65 e1 f6 bd ff 60 98 3e
       0.10443613 -0.14691883 -0.12054709 0.29761502

gru.weight_hh_l0_reverse f4 [96, 32]
000000 be ce b4 3e 1a d9 cb 3e 19 61 03 3e 14 5d 89 3f
       0.35313982 0.39814073 0.12830009 1.073153
000010 69 97 8f 3d 6c c0 5a bf 6b 67 b5 3c 48 0f 89 bf
       0.07011301 -0.8544986 0.02214404 -1.0707788
000020 c4 eb 6a bf d9 6c f6 3e f1 87 5e be ff d7 2b 3e
       -0.91766 0.4812992 -0.21731545 0.16781615
000030 6c f5 4e be 57 bd 2c bf ad b0 c3 be f3 ab 08 be
       -0.20210809 -0.6747641 -0.3822073 -0.13346843
000040 3c 93 7d be 73 e7 a9 3e 7f 0d 92 bf c8 11 55 3e
       -0.24763197 0.33184394 -1.1410369 0.20807564
000050 2c db 2d 3f dd 56 03 bf ce 98 dd be 99 42 80 bf
       0.67912555 -0.5130442 -0.43280643 -1.0020324
000060 cd 0b 9a 3f 09 ce ce 3f 6c b4 f2 3c bc a0 71 be
       1.2034851 1.6156627 0.029627047 -0.23596472
000070 cf 80 82 3e dd d1 30 3d 51 3d 81 3e 48 12 bc bf
       0.25488898 0.04316889 0.25242093 -1.4693079
000080 db 16 92 3e 26 79 b1 bf b3 65 94 be 2d 19 7e bc
       0.28533062 -1.3865097 -0.2898384 -0.015508932
000090 a9 4d 16 bf df 12 e8 be 33 51 77 3c 16 aa fb be
       -0.5871225 -0.45326898 0.015095043 -0.49153203
0000a0 50 b2 22 3e 53 ed b1 bd 2f ab f8 be d4 09 a6 be
       0.15888333 -0.08687844 -0.48568103 -0.32429373
0000b0 08 9a e3 3d 0f d1 d8 be 74 72 98 bd d9 f5 6d 3e
       0.111133635 -0.42347 -0.07443705 0.23238315
0000c0 60 01 a9 3e 01 aa 8e 3d 3e bc fe 3e 15 85 85 3e
       0.33008862 0.069660194 0.49752992 0.26078096
0000d0 99 30 a2 be ba 8a 62 3f 1a ef 86 be 44 d0 a8 be
       -0.31677702 0.8849293 -0.26354295 -0.32971394
0000e0 c0 d6 dc 3e 9d 1e c3 be 78 b1 00 3f 27 af b0 3e
       0.4313259 -0.38109294 0.50270796 0.3450863
0000f0 3d 66 8c 3e 1f bf b9 be 82 42 41 3f 6f f1 39 3e
       0.27421752 -0.36278626 0.7549211 0.18158506
000100 d8 58 33 3f 4a e1 2d 3e 2e d8 43 be c6 4c 24 3e
       0.7005744 0.16980472 -0.19125435 0.16044912
000110 21 10 be 3d f6 97 e5 3e 5c 19 5d be 74 8b 71 bf
       0.0928042 0.448425 -0.21591705 -0.94353414
000120 1c ad 53 3f 91 63 46 bf ea 6d 85 be 5b 9b b1 bb
       0.8268602 -0.77495676 -0.2606042 -0.005420131
000130 07 bd 50 3d e1 df 81 be 2b 4e 8f be 5c b9 34 bf
       0.05096152 -0.2536612 -0.27989325 -0.70595336
000140 73 cf b3 3e 96 37 1e bf 03 f7 18 3f ac 2b b6 be
       0.3511921 -0.6180357 0.5975191 -0.35580194
000150 2f e4 08 be d3 dd 98 3e 79 ea 12 bf 94 36 05 bf
       -0.13368295 0.29856738 -0.57389027 -0.52036405
000160 d5 87 90 bd 11 80 0d 3e 56 8c 7d 3e 4a bd 27 3f
       -0.07057158 0.13818385 0.24760565 0.6552321
000170 e2 cb 0f bf 9b 11 23 bf 08 01 53 3f da 7f a1 3e
       -0.56170475 -0.6369874 0.8242345 0.31542856
000180 d3 74 25 bf 09 4f 10 bf 78 f5 8d 3d e4 2d 8f 3e
       -0.64631385 -0.563706 0.06931585 0.279647
000190 bf f3 64 3d a5 01 2a 3e e2 ed 89 be 4b 40 81 be
       0.055896517 0.1660219 -0.26939303 -0.25244364
0001a0 75 28 25 bd 6b ca ad 3e 1e b1 f3 bd 4b c6 e6 3d
       -0.040321786 0.33943495 -0.11899017 0.1126829
0001b0 86 06 89 be 7e 37 3f be a1 d9 bd 3e 66 23 16 3f
       -0.2676279 -0.18673512 0.370801 0.58647764
0001c0 ad 30 9d bc c0 35 03 3f f3 cf 0a 3f 72 73 ad 3e
       -0.01918825 0.5125389 0.54223555 0.3387714
0001d0 53 e2 ed 3e 85 6d 1a be 29 38 17 3e b6 ea cf bd
       0.46461734 -0.15080841 0.14767517 -0.101521894
0001e0 c8 bf 20 3e 78 18 05 3e d4 38 87 be 55 67 4e 3e
       0.15698159 0.12997615 -0.26410544 0.20156606
0001f0 16 fb c5 3d 30 79 12 3f 6a 8c 1d bb a0 87 87 3e
       0.096670315 0.5721617 -0.0024039992 0.2647066
000200 43 5e 84 3f f4 54 e6 be 96 57 e1 3e 54 30 48 bf
       1.0341266 -0.4498669 0.44012135 -0.7819874
000210 6f d7 03 be da 93 a4 bf 8b 0e bc 3e 0b d2 17 be
       -0.1287515 -1.2857621 0.36729845 -0.14826219
000220 0a 60 cb 3e ef 24 cd be 4f 1a 25 3d be 52 3d 3d
       0.3972171 -0.4006724 0.040308293 0.046221487
000230 19 db 2a be 42 63 cc be 83 11 f4 3c 2d af 9d bc
       -0.16685142 -0.39919478 0.029793506 -0.01924857
000240 7d b6 7f 3d 1e 1d f5 bd 26 05 b6 3e 2d 65 b8 3d
       0.062429894 -0.11968444 0.35550803 0.09003673
000250 17 12 4d 3e 87 09 52 be 19 ba 55 bf 8c 39 19 3e
       0.20026432 -0.20511447 -0.8348709 0.14963359
000260 37 45 ed bd bc d9 3a bc a5 80 b8 bd 07 f4 26 3e
       -0.11585467 -0.011404451 -0.09008912 0.16304027
000270 2b 1c a4 bc 59 5e 42 3f 56 d5 54 3e b1 f7 a1 bd
       -0.020032963 0.75925213 0.20784506 -0.079085715
000280 b1 5d 83 bf 14 37 e5 bf 14 9b 73 3f cb 15 28 c0
       -1.0262967 -1.7907434 0.95158505 -2.6263301
000290 44 9a 06 be ea 11 05 3e 72 e8 92 bf 63 2c fd 3e
       -0.13144785 0.12995115 -1.1477187 0.49447927
0002a0 54 0d f5 be f6 ee 3d be b4 16 46 bf 4e dd 15 bf
       -0.4786173 -0.18548188 -0.7737839 -0.5854081
0002b0 b6 4b 3c 3e 1f 53 ba 3e a1 13 89 bf bf da e8 bc
       0.18388256 0.3639154 -1.0709115 -0.028424619
0002c0 a0 af bd 3e a0 70 96 3d 27 ae 40 3f 56 ec 18 3f
       0.37048054 0.073457 0.75265735 0.5973562
0002d0 31 49 2d bf f8 23 85 3f bf fe 8b bf 68 b9 5c be
       -0.67689806 1.0401602 -1.0937117 -0.21555102
0002e0 60 f9 6d bf 79 31 9f bf ee 09 71 bf 4f 73 ff 3d
       -0.9295864 -1.2436973 -0.94155777 0.12473165
0002f0 71 78 1b bf 25 cf 04 3f 64 87 0a bf 5a 3b f0 3d
       -0.60730654 0.5187858 -0.5411284 0.117300704
000300 fe 48 27 3f cb c9 08 3e b2 0a 66 bf 81 98 84 3e
       0.6534575 0.13358228 -0.8986007 0.258976
000310 78 90 17 3d 34 0b 80 bf 03 89 13 3e a3 4b da be
       0.03700301 -1.0003419 0.14407735 -0.4263583
000320 33 d8 00 3e 67 10 da 3e 5d a8 16 be cb 95 a4 3d
       0.12582473 0.4259064 -0.14712663 0.08036383
000330 54 10 31 bf 13 4e 9d bf 58 5f d6 be 83 44 dd bd
       -0.6916554 -1.2289451 -0.41869617 -0.10804083
000340 3d 54 fd 3e a6 0d 01 bf 36 41 c3 be a1 bf b5 3e
       0.4947833 -0.5041145 -0.3813569 0.35497764
000350 ff be 35 3f 5f e7 60 3e d2 9d f4 be 10 2c 5e be
       0.7099456 0.21963261 -0.47776657 -0.21696496
000360 b0 72 df 3d 5c 05 83 3f 66 74 a9 be 08 2a 14 be
       0.10910547 1.023601 -0.33096617 -0.14469159
000370 b3 f9 3a 3f 21 95 be bd 04 1f ae 3e 5f 07 0a 3e
       0.7303726 -0.09305788 0.34008038 0.13479374
000380 35 73 85 3e 28 44 c2 bd 30 2a af 3e db bc e6 3e
       0.26064458 -0.09485656 0.34211874 0.4506596
000390 88 ed 20 be e9 2c af 3f f3 0c 69 be aa 4c c7 be
       -0.15715611 1.368558 -0.22758846 -0.38925678
0003a0 61 48 cd be 28 33 1f 3f 9a 56 1b 3e 98 3a c1 3e
       -0.40094283 0.62187433 0.15169755 0.37740016
0003b0 0b bb 15 3e fb 55 bd be 92 75 a8 bd 53 7c fe bd
       0.14622132 -0.3697966 -0.0822555 -0.12426057
0003c0 5f e5 42 3c d1 d7 09 be 14 49 5a 3e 62 23 32 3d
       0.011895507 -0.13461234 0.2131694 0.043490775
0003d0 a4 55 f7 3e ab 95 ff 3d 01 3e dd 3d 58 7f dc bd
       0.48307526 0.12479719 0.10802842 -0.107664764
0003e0 ad a2 0e be 40 3c d1 bd 4d f9 88 3e d2 8d 8d be
       -0.13929243 -0.1021657 0.267527 -0.27647263
0003f0 bf 1e 2f 3d ef d8 1b 3e 8a 02 60 3e a3 60 af 3f
       0.04275393 0.15219472 0.21875969 1.3701366

gru.bias_ih_l0_reverse f4 [96]
000000 c8 15 19 be 1c 10 f5 bd 76 a4 40 3d b4 aa f5 bd
       -0.14949715 -0.11965963 0.047031842 -0.1199545
000010 56 a7 31 be 08 02 74 be 43 76 8b 3e 75 d0 7d bd
       -0.1734899 -0.238289 0.27238664 -0.06196638
000020 cf 95 c4 3d cd 74 9f be 6d a5 b6 be 88 90 af bd
       0.09598886 -0.311438 -0.35673085 -0.08572489
000030 7e 74 27 3e 8c 0f 72 be 1d bd 10 be db 0e 10 be
       0.16353032 -0.23638743 -0.14134641 -0.14068167
000040 d2 8c bb bc 71 94 b4 be 32 6a 50 be 8f 02 94 be
       -0.022894297 -0.35269502 -0.2035301 -0.28908202
000050 c6 02 2d bf 60 43 26 3e 80 aa b0 be 15 3a 45 3d
       -0.67582357 0.16236639 -0.3450508 0.048151094
000060 28 e9 4b bd 9c f9 94 bd 1e fa 93 bd 51 b4 49 be
       -0.049782902 -0.07274172 -0.072254404 -0.19697692
000070 50 15 23 bf c5 5b 8d be 1a 71 94 3d 48 67 57 3d
       -0.63704395 -0.27609077 0.07248135 0.05258873
000080 41 d2 00 3f 66 77 11 3f d5 f7 22 3f 57 63 3c 3d
       0.5032082 0.5682281 0.6365941 0.045993175
000090 ef 05 12 be 5e c9 c4 3e 33 f9 70 3e 56 fe ac 3d
       -0.14260076 0.3843488 0.23532562 0.08446948
0000a0 79 27 63 be 81 f7 5a be c4 6c 7d be b0 c4 01 3c
       -0.22183026 -0.21383478 -0.24748522 0.007920429
0000b0 68 78 2c be 5c a0 19 3f 77 d3 c9 3d 90 cd de bd
       -0.16842806 0.60010314 0.09854787 -0.10879052
0000c0 8d 49 83 3d a4 5d 8c be cf 8e 8e be 58 2e a4 3e
       0.06410513 -0.27415192 -0.2784333 0.32066607
0000d0 34 43 8b 3d af ca 0f be 91 ec 91 bd 49 0b 3c 3e
       0.06799927 -0.14042161 -0.071251996 0.1836368
0000e0 76 a3 fd 3d 4e e6 48 be 1b ee 6e 3d 26 91 13 3e
       0.12384693 -0.19619104 0.058332544 0.14410838
0000f0 d1 3a c7 bd 8a 14 55 3d 1c da 0a 3e eb a4 f1 3e
       -0.09728015 0.05202154 0.13559765 0.47196135
000100 1b ad 47 3e 8d 95 cc 3c 62 65 de 3d 22 27 25 bf
       0.19499628 0.024973655 0.10859181 -0.64512837
000110 78 92 d7 3d b5 1d 95 3d 45 30 0e be 67 a7 e5 3d
       0.105259836 0.07281057 -0.13885601 0.1121357
000120 a1 b1 37 3f e1 0b 0e bf 2f 17 26 be 41 a7 7a be
       0.71755415 -0.55486876 -0.16219781 -0.24477865
000130 e6 11 07 bf 36 a0 20 3d 99 ba 77 be c2 64 2c be
       -0.52761686 0.03921529 -0.24192275 -0.16835311
000140 1b 0a 73 be 63 c4 d1 3d a0 30 d5 bc 4f d2 b0 bd
       -0.23734324 0.10242536 -0.026024163 -0.08633863
000150 b7 05 00 3e de ef a5 3e 37 64 38 be 81 f7 82 3d
       0.1250218 0.32409567 -0.18006979 0.06394864
000160 f5 e5 be be fd 35 85 3e 5d a5 a6 be b1 1f 01 be
       -0.37284818 0.26017752 -0.32548037 -0.12609746
000170 ad 51 99 3e 59 a2 0e 3e b7 35 b8 bd 84 4a 3d be
       0.29945126 0.13929118 -0.0899462 -0.18485457

gru.bias_hh_l0_reverse f4 [96]
000000 64 3d 42 be 7e c4 97 bd 7a 35 60 3e f1 61 2d be
       -0.18968731 -0.07410525 0.218954 -0.16931893
000010 7a e2 39 3d f9 82 6e bb da cb 01 3d bb 66 97 bb
       0.045382 -0.0036393984 0.03168855 -0.0046204007
000020 98 e5 fd 3a b6 22 ad be 99 94 b7 be a9 fc 46 3d
       0.0019370792 -0.33815545 -0.3585556 0.0485808
000030 0b 6b b5 bd 8d 02 db bd 2c cb 25 3d 95 17 48 be
       -0.088583075 -0.10693846 0.040476963 -0.19540246
000040 63 09 4b be df 8f 15 bf 49 a2 0f bd e8 c0 0e bf
       -0.198278 -0.58422655 -0.035066877 -0.557631
000050 2e a2 2b bf 01 b2 92 3d 3d e0 36 be 0b c6 26 3d
       -0.6704434 0.07162858 -0.17858978 0.040716212
000060 14 16 3d be ae 6e 8d 3c a5 61 9e bd 8e b2 1c be
       -0.18465453 0.01726469 -0.07733468 -0.15302488
000070 82 a4 25 bf 75 58 19 bd d2 db 00 be 60 1a 97 3d
       -0.64704144 -0.037437875 -0.12583855 0.073780775
000080 11 7b 05 3f 63 56 05 3f 00 8a e3 3e 1e af 25 be
       0.5214091 0.5208494 0.44441223 -0.16180083
000090 97 90 cd bd ce 19 0d 3f eb d2 06 3f 28 9a 1f be
       -0.10037344 0.551175 0.52665585 -0.1558615
0000a0 8c 39 83 be 78 23 85 bd e8 47 42 be 5f 65 1b be
       -0.25629842 -0.06500906 -0.18972743 -0.15175389
0000b0 88 9f ab be 3d 50 d7 3e 01 f9 4a 3e 9d 13 4a be
       -0.3352015 0.42053404 0.1982155 -0.19734044
0000c0 30 70 98 bd 3c 28 4b be e3 e8 6e be 2f 85 24 3e
       -0.07443273 -0.19839567 -0.23331027 0.1606643
0000d0 43 56 5a bd aa 18 8e be c5 f8 5d bb 95 8b e4 3d
       -0.05330492 -0.27753192 -0.0033870202 0.11159436
0000e0 42 04 f8 3d 58 6c ba be 7d a6 54 3d d4 7c db 3d
       0.12110187 -0.36410785 0.051916588 0.107171685
0000f0 65 0c 00 be 42 e6 fb 3c 44 d3 59 bd 35 15 a5 3e
       -0.12504728 0.030749444 -0.053179994 0.32242742
000100 c6 2f 77 3d a5 62 66 be 27 99 9d 3d 09 e2 7f bf
       0.060348295 -0.22498567 0.07695227 -0.9995428
000110 9f d1 23 3e 85 c0 83 bd ec 13 e0 bd c7 d8 35 3e
       0.15997933 -0.064332046 -0.109413 0.17758475
000120 df 36 10 3c eb 44 f5 3e e8 2c 69 3e 7f 3e 47 be
       0.008802145 0.47904143 0.22771037 -0.19457434
000130 36 0c e4 3e 8f a6 c8 3c 0f 5a d3 3d 1a 7f 1b be
       0.44540566 0.024493484 0.10319912 -0.15185204
000140 23 a2 9e 3e c9 96 76 3f d4 50 b7 3e b1 e3 fb 3d
       0.30983075 0.9632383 0.35803854 0.12299288
000150 57 82 b8 3e 9c f9 1f 3f ea ea f6 3c 8b b7 ad bd
       0.3603694 0.6249025 0.030141313 -0.08482274
000160 b0 b1 5c be dc 34 5b be 42 3d 55 3e 7f 9f 0d 3e
       -0.21552157 -0.21406883 0.20824149 0.13830374
000170 cd 47 46 3f 24 34 b0 3e 7c 82 3f 3b ba 97 ae bd
       0.7745331 0.3441478 0.0029222062 -0.08525033

dense.1.fn.net.0.weight f4 [64, 64]
000000 b3 1f 90 3c 55 bc 5d 3d de 8d 81 bc 03 9e 5d 3d
       0.01759324 0.054134686 -0.015814718 0.05410577
000010 49 e5 ad 3b 8c 10 99 bd bf b1 c4 3c 64 20 dd 3c
       0.005306874 -0.07473859 0.024010537 0.026992984
000020 0d 96 a4 3c 87 b3 50 bd c0 fa 09 be b2 4a f7 bb
       0.020091081 -0.05095246 -0.1347456 -0.007546746
000030 15 3a 78 3c a4 00 17 bb 6e 0c b4 3d 44 70 b2 bc
       0.015150567 -0.0023041153 0.08791433 -0.021782048
000040 c6 d2 e9 ba b2 73 6b 3d ad a8 e1 bc 40 9d dd bc
       -0.0017839305 0.057483383 -0.027546251 -0.027052522
000050 f9 97 46 bd a1 f7 05 bd f4 2f 14 3d 17 5e e2 bb
       -0.048484776 -0.03270686 0.036178544 -0.006908189
000060 cc 3f 7b bb 3b 93 ee 3d 41 0d 7b bb 18 d4 6a bd
       -0.0038337586 0.11649176 -0.003830746 -0.057331175
000070 33 7c 8f bb 4a 1e c6 bd 5c 19 7d 3d 9c d5 42 bd
       -0.0043788194 -0.09673746 0.061791763 -0.047566995
000080 19 a0 12 3e 8d b0 90 3c d9 67 66 3d 57 8e e0 3d
       0.14318885 0.017662311 0.05625138 0.10964649
000090 1f 38 3f 3d a2 e1 a2 3d 47 26 2b 3e 61 36 6b 3d
       0.04668438 0.07953192 0.1671382 0.057424907
0000a0 46 58 6d 3c 09 cd a7 bd f4 91 90 bd 5c b8 58 3d
       0.014486378 -0.08193404 -0.07059088 0.052910194
0000b0 90 25 62 be ab d8 6c bc a6 98 a3 bd d9 ca 11 3d
       -0.22084641 -0.014455955 -0.079881 0.03559384
0000c0 28 53 3a 3c 40 29 a8 3d 5b 05 ee bd 26 0c 81 3c
       0.011372365 0.08210993 -0.11622115 0.015752863
0000d0 51 50 c7 bc e2 c3 55 3e 88 57 84 bd 4b 7d 70 bc
       -0.02433029 0.20875505 -0.06462008 -0.01467831
0000e0 d6 3b a8 3d 47 ad d0 bd fa 4b 5b be 9e b4 7f 3c
       0.08214538 -0.101893 -0.21415702 0.015607027
0000f0 8d cf f5 3d 0a 8d 07 bd 53 8a 4e 3d 8e 92 02 bc
       0.12002478 -0.03309349 0.050424885 -0.007969512
000100 73 1f 52 3e 00 37 e8 3c 52 e4 3a 3d 62 7b 54 be
       0.2051981 0.028346539 0.0456279 -0.20750192
000110 78 bf 34 3e 92 2f 66 3d c6 6f 3a 3e 3a 58 30 be
       0.17651165 0.05619771 0.182067 -0.17221156
000120 9a 53 21 be 1c 5c d4 3d 01 ca 75 3e 53 89 8c 3d
       -0.15754548 0.10369131 0.2400284 0.0686213
000130 18 9b fb bc 2f e3 16 3e b1 69 d6 bd 26 b7 82 3e
       -0.030713603 0.14735101 -0.10469378 0.25530356
000140 af af 02 be ad 17 96 bd 2f 09 0f 3e 5c df 32 bc
       -0.1276233 -0.073287345 0.13968347 -0.010917511
000150 0a 3e 02 be 5d d3 91 3c ab a7 67 bd 3f 64 be bc
       -0.12718979 0.017800981 -0.056556385 -0.02324116
000160 b6 ea b8 3d c0 8b 46 be ed 89 62 bd b2 e8 60 bd
       0.090291426 -0.19389248 -0.055307318 -0.054909416
000170 49 7d 02 be cd e8 5d 3e 26 e9 6b 3d a0 e9 88 3c
       -0.12743105 0.21670838 0.057595395 0.016712964
000180 b8 e2 84 be 24 12 74 bd dc 0c f2 bd 02 85 53 bc
       -0.25954223 -0.059587613 -0.11818859 -0.0129101295
000190 50 72 d7 be 7c bc c8 be 3b 61 42 be cc 2f 2e be
       -0.420794 -0.39206302 -0.18982403 -0.1701042
0001a0 87 08 9a be 3c ec 31 3e e1 ea 6d 3e 8b e5 89 bd
       -0.3008463 0.17375273 0.2323413 -0.06733235
0001b0 6b 4c 9b 3e f8 fa 51 bc ec 90 1f 3e b0 1b e4 bd
       0.3033174 -0.012816183 0.15582627 -0.111380935
0001c0 31 96 03 be a2 38 8a be 87 d9 67 3e e7 2c c1 3d
       -0.12850262 -0.26996332 0.22641574 0.094323926
0001d0 fe b6 ad 3e 18 8d b3 bd a6 7c 96 3d f6 91 25 bd
       0.33928674 -0.08767146 0.073479936 -0.040422402
0001e0 a6 e2 49 3e e1 3a 52 3e 54 5e e8 3d b8 03 dc 3d
       0.19715366 0.20530273 0.11346117 0.10742897
0001f0 a6 52 2a be bb 16 af 3d cb d0 a7 bc 3d 12 bf be
       -0.1663309 0.08549257 -0.020485302 -0.37318602
000200 dd c0 aa bd ed 9f 91 bc 93 00 9e 3b 73 fb 03 bc
       -0.08337567 -0.017776454 0.004821846 -0.008055556
000210 d5 ec 9a bb ca 03 c8 bb b0 8e 9f bd c8 2f 61 bc
       -0.0047279396 -0.0061039673 -0.07790887 -0.013744302
000220 a7 7a 2a 3d fc 7e 20 bc cd ec cc bd 1b bd 49 bb
       0.041620877 -0.0097959 -0.10006104 -0.0030782882
000230 2b 82 00 bc e8 2e 04 bd 77 fa 97 bc 8f 26 a7 bd
       -0.007843534 -0.032271296 -0.018552048 -0.08161651
000240 e4 51 b8 3c 58 17 ab 3d a5 00 94 bd 0c 83 97 3c
       0.022499986 0.08354062 -0.072266854 0.018495105
000250 07 76 4e 3c 79 92 22 bd 93 38 53 bc 75 03 03 bc
       0.012601382 -0.03969047 -0.012891906 -0.00799643
000260 67 b8 ed bc 8c 0b 12 3d af f9 8f ba 6d ec 92 3b
       -0.029018594 0.035655543 -0.0010984446 0.0044837506
000270 93 a6 99 3c 08 19 f5 bc f6 83 84 3c 70 85 c4 3c
       0.018756187 -0.029919162 0.016176205 0.02398941
000280 92 2c f1 bb 22 9a ce 3b 0b a6 9a 3d d8 02 e3 3d
       -0.0073600495 0.006304995 0.075512014 0.11084527
000290 c8 0f 0d bd 38 12 7c 3c 82 19 44 3e 14 e2 73 3e
       -0.03443888 0.015385203 0.19150355 0.2381671
0002a0 9f ba b3 3d 86 73 67 be e8 f1 08 be fa aa 58 3e
       0.087758295 -0.22602662 -0.1337353 0.21158972
0002b0 42 9b 65 3d 7d 9e ff 3b 3e 7f 81 3c 59 59 8d 3e
       0.05605627 0.0078008757 0.015807744 0.2760723
0002c0 b9 36 71 3d 01 78 1c 3e 05 c2 8e bc 59 dc 82 3d
       0.05889008 0.15280153 -0.0174265 0.06389684
0002d0 70 1e 30 3c 81 29 93 3d d9 5f 34 be 7b 28 81 3c
       0.010749444 0.071856506 -0.17614688 0.015766373
0002e0 bf cf 03 be e2 9e b1 bc 68 0d 62 3d b3 16 a1 bc
       -0.12872218 -0.021682207 0.055188566 -0.019664144
0002f0 30 4b 00 3e cb b7 fa bc 70 d6 81 bd ae d6 d3 3c
       0.12528682 -0.030605217 -0.06339729 0.025859203
000300 0f 2e 02 bd 19 2e 81 bc 39 c7 d8 bc ac dc 3b 3d
       -0.031782206 -0.015769051 -0.026462184 0.045864746
000310 29 ef f6 3c 03 50 8e bc c6 08 55 ba 1b 6d aa 3d
       0.030143337 -0.017372137 -0.00081266125 0.083215915
000320 dc fd 5f 3d 6f b0 3b bd 44 94 de bd 9b 23 cf bc
       0.05468546 -0.045822557 -0.10868123 -0.025285533
000330 ff 2a 64 3a db 51 5c bd 73 50 b2 3c 36 34 97 bd
       0.00087039167 -0.053789 0.021766877 -0.07383005
000340 48 7c 9e 3c 30 dd 3d b9 81 20 78 bd 34 37 e3 bc
       0.019346371 -0.00018106843 -0.060577873 -0.027736284
000350 56 b1 00 bc 49 d3 1c bd b5 0c 9d bb f1 67 55 3c
       -0.00785478 -0.038287435 -0.0047927746 0.01302527
000360 bb 03 82 bd 67 9c 16 3e 3a 74 8a 3c 0b 02 30 bd
       -0.06348368 0.147081 0.016901124 -0.0429707
000370 1d 03 a5 3c fb e8 9a bd 62 69 26 bd 71 07 84 bd
       0.020143086 -0.07563969 -0.040627845 -0.06446732
000380 15 a6 94 3c 15 4e 57 bc c5 7a 62 3d 22 89 bc 3d
       0.0181456 -0.013141175 0.055292863 0.092058435
000390 69 e9 94 3c 4d 86 90 3d 1e 8e 11 3e c0 66 72 3d
       0.018177705 0.07056866 0.1421437 0.05918002
0003a0 81 60 27 3d c4 6a 19 be 3e c7 ce bd 57 f2 fa 3d
       0.040863518 -0.14982134 -0.10096596 0.12253254
0003b0 5c ce 29 be 62 1e 73 ba 26 55 04 3c f8 7c 05 3e
       -0.16582626 -0.0009274242 0.008076942 0.13035953
0003c0 37 99 b2 3a e6 eb 89 3d 7a 52 96 bd 23 60 80 3c
       0.0013625984 0.06734447 -0.0733995 0.015670842
0003d0 2d 99 18 3c f0 2f 3c 3d 2a f9 d3 bd 20 45 00 3d
       0.009313864 0.045944154 -0.10350259 0.031315923
0003e0 a8 1c 97 bd 53 05 9b bd 3a 94 99 bd 3b 11 2e 3d
       -0.073785126 -0.07569375 -0.07498975 0.0424969
0003f0 6b 99 ec 3d 70 26 bb bd a7 48 9d 3c 09 b4 e9 3d
       0.115527 -0.09138191 0.019199682 0.11411292

dense.1.fn.net.0.bias f4 [64]
000000 df 2f 7a 3e 95 16 32 bf bd d0 76 3e 1d 04 95 3e
       0.24432324 -0.6956571 0.24103065 0.291047
000010 80 48 ad bd 31 87 df 3d 9d 85 5d 3e fd ce 9a 3e
       -0.08461094 0.109144576 0.21633 0.30236045
000020 36 80 0a be b2 5d 6b 3e 82 97 8e 3e f7 eb 62 3e
       -0.13525471 0.2298496 0.27849966 0.22160326
000030 93 53 40 3e f8 fc 34 bf 02 d6 f9 3c 6f 31 32 3b
       0.18781881 -0.706985 0.030497555 0.002719011
000040 b9 8d 86 3e a3 f2 39 3e 56 4e 83 3e 5a 58 0b 3d
       0.2628 0.18158965 0.25645703 0.034019805
000050 46 2a 5a 3e 00 52 79 bf a9 cb 48 bd 76 53 3f be
       0.21305189 -0.9739075 -0.04902235 -0.18684182
000060 41 34 80 3e 18 bc 87 bf 05 20 55 3e c1 f5 7c bc
       0.25039867 -1.0604277 0.20812996 -0.015439452
000070 82 71 62 3e 26 31 2e bf a4 aa 72 3e e4 0f 8b 3e
       0.22113612 -0.68043745 0.23697907 0.2716056
000080 1a 7a 54 3e e9 13 8a 3e b0 ba 87 3e 3a e7 81 3e
       0.20749703 0.26968315 0.2650962 0.25371724
000090 9e e1 89 bf a9 a6 1d bf 65 ca 07 be 4d a0 1a bf
       -1.0771978 -0.6158243 -0.13260801 -0.6040085
0000a0 31 0d f9 be e6 82 2d be f5 e7 a0 3d 82 6a 97 bf
       -0.48642877 -0.16944465 0.07856742 -1.1829379
0000b0 7f 33 8a bf 08 74 c0 be ef 88 4f be 17 04 be bd
       -1.0796965 -0.37588525 -0.2026708 -0.09278124
0000c0 a3 6d 62 be 94 41 fd bd 27 42 77 3e 22 24 2c 3e
       -0.22112136 -0.12366024 0.24146329 0.16810659
0000d0 57 79 4a 3e f5 35 21 3e ff 38 be 3d cb ff 6f 3e
       0.1977285 0.15743239 0.09288215 0.23437421
0000e0 89 11 35 3d a5 e2 78 3e 29 4e 4f 3e 66 ba 63 3e
       0.044206176 0.24305208 0.2024466 0.22239074
0000f0 df 4e 2e bf d3 2a cf bc 09 fd 7b 3e af 48 4b bf
       -0.680891 -0.025288975 0.24608244 -0.7940778
