training/weights/torch/g2.pth (torch, 346775 bytes, 12 tensors)

gru.weight_ih_l0 f4 [192, 136]
00000000: fdb1 01be 1fec 8c3f a9bb 503f dcb6 0140
00000010: 5d5f 193f c498 3e3f 20fe 36be 7646 f43d
00000020: c675 4bbf 6656 cf3f 1c38 ff3e 8d2a a33e
00000030: 70e1 5abf 6aca 873f 314e 80be 5f13 ab3f
00000040: 131a 6abf 6d91 243f 6cb9 29bf 6164 413f
00000050: 7899 b8bf 5677 963f dc27 a0bd 78f8 2e3e
00000060: e48a c1be 0f48 bc3f fd28 33bf 9ad9 f73f
00000070: 8ea2 943d e51f e83f 4e1f c5be 2065 903f
00000080: c6c0 41bf 1b57 893f b09b 0e3f 57c6 b83e
00000090: a8a3 2e3e 030b a93f 0090 cd3f 88a0 263f
000000a0: a756 fe3e a90b a43e dca9 d53f eb31 67be
000000b0: 7ee2 72bf fef2 44bf 747f 2abf 3e64 433d
000000c0: 31ea abbe 9481 cebe d6c6 c0bf fe8f ae3d
000000d0: cd9a bcbe c778 09bf ef17 ef3e 2225 eb3f
000000e0: 0861 823f 22fd 8c3f 4fac 143f 261e 373f
000000f0: bd69 88bf 3fd5 973f 0bd3 d9be 7519 3e3f
00000100: 0211 d0bf dab8 963f e9e1 32bf a068 2c3f
00000110: 9788 cf3d 8bc7 e53f cd0d 9dbf 2864 ac3f
00000120: caa7 04be bf73 abbf 1d77 253e 37ce 64c0
00000130: 46cc 8dbf 1105 f6bf da3f a3bf f57e 1b3f
00000140: 21a8 6a3f b07f dcbf f5d2 4f3f db6a f13e
00000150: 07f0 3840 823a 2bbf 6971 a5bd d1d6 39c0
00000160: ee21 0740 31a2 0cc0 ba18 06c0 ab9a f2be
00000170: 5e3f 0dc0 b583 163f 3e34 263d b73a 8cbf
00000180: ad70 08bd 67b8 dd3f 1b85 cebe 83f7 b93f
00000190: 2e8d 5d3f 618b cd3f 76b9 42bf c733 0540
000001a0: 7f63 8d3f ee5c f43f 475d adbe 9ae5 0d40
000001b0: 8b45 97bf 1bd9 933f 05a0 883f 399e 5ebe
000001c0: 8917 283f ca23 983e c370 68be ed52 733f
000001d0: b888 60bf a728 a93f a901 c5bf 4c99 963f
000001e0: 13ff b8be c5ad af3f 3e81 60bf b898 633f
000001f0: a209 b4bf f752 b93e d36a 37bf 2789 6f3f
00000200: 203a e4bb d04a 5b3f e8eb bebf 9dc4 a33f
00000210: b96e 373f a88c 353f 1334 6bbf 362b b83f
00000220: ed40 513e bbb7 febe a3db 143e 912b b4bf
00000230: ac5f 453f 178d c2bd a05d 7cbc d2f7 053e
00000240: f588 edbe aba3 a8be d419 a93f f387 d03e
00000250: c0c8 9c3f 0886 1bbe 0728 8cbf fd06 13bf
00000260: ed6f dbbe d9c0 41bf d84a bbbf 1cf5 26bf
00000270: 3559 ebbf 3bf6 a63d e40b f33d eb86 86be
00000280: e351 dfbe 4c08 353f bc87 313f 4ad1 aebd
00000290: 0d71 29be 9203 8b3f 9fd9 b7be 45a0 ea3e
000002a0: 9cd6 013e 9ed9 0b3f c351 db3f a815 ba3f
000002b0: f1a3 423f f343 333f cae3 db3f 3fb7 003f
000002c0: d057 363f f020 3c3f 5bb3 aa3f 7447 603f
000002d0: a302 893f c382 313f 2a10 9a3f b394 533e
000002e0: 62ea db3f bf02 7dbe e0c6 a43d cb58 31bf
000002f0: 1254 6a3f 33c6 adbe a013 b93f e04d 9b3f
00000300: e46d 2640 fcf7 963f 69e3 a73f ff54 ec3f
00000310: b1ec 8e3f aba1 a53f 1941 86bf e876 67bf
00000320: 7974 e2be fa12 fdbc 3f6a 3f3f d1d8 033f
00000330: 55e8 02be b023 233f 5064 3c3f 7272 d2be
00000340: 47d2 cd3f afe7 3abf 8f77 a13f d19a 8fbf
00000350: 45b9 e5be 0b85 bebe 2265 07bf 0fd3 4c3f
00000360: ceb4 f13f 4177 86be 7660 b7be fb3d 28bf
00000370: cbc3 9dba 9a5d 1040 a0b6 2740 15e0 62bf
00000380: faea 0040 1321 81bf 0f4a 9ebf 94c3 063d
00000390: 4c89 553f 7897 903e 7148 b7bf 4ec4 3ec0
000003a0: 06c0 4cbf 9c19 65c0 8d8b d33f 7003 7e3e
000003b0: c5af 4a3f 6a7f e63f c259 483f dec7 0d40
000003c0: 4b95 f03e a799 0440 6d32 94be 350d 0b3f
000003d0: f4ba 74bf 83a4 f8bf 0e21 35bf 7ce4 eabf
000003e0: afff e73e a24c 51bf 46cd a0bf 59bd 94bf
000003f0: ca6b debe d593 8cbf 808e e73f eb2e ebbf
-0.12665553 1.1009558 0.81536347 2.0267859 0.5991114 0.7445185 -0.17870378 0.11927502
-0.79476583 1.6198242 0.49847496 0.318684 -0.8550024 1.0608647 -0.25059655 1.3365287
-0.91446036 0.642844 -0.66298556 0.7554379 -1.4421835 1.1755168 -0.078201026 0.17086971
-0.37801278 1.470949 -0.6998442 1.9363282 0.07257567 1.8134733 -0.38500446 1.1280861
-0.75684774 1.0729707 0.5570631 0.3608882 0.17054617 1.3206486 1.605957 0.650887
0.49675485 0.32040146 1.6692462 -0.22577636 -0.9487685 -0.76933277 -0.6660073 0.04770302
-0.3357711 -0.40333235 -1.506068 0.08523558 -0.36836854 -0.53699917 0.46697947 1.8370707
1.0185862 1.101475 0.5807542 0.7153038 -1.0657269 1.1861953 -0.42543826 0.74257594
-1.625519 1.1775162 -0.6987596 0.67347145 0.10133474 1.7951521 -1.2269837 1.3468065
-0.12954631 -1.3394698 0.1615872 -3.5750864 -1.1077964 -1.9220296 -1.2753861 0.60740596
0.91662794 -1.7226467 0.8118127 0.47151837 2.88965 -0.6688615 -0.08078272 -2.9037364
2.111446 -2.1973994 -2.0952592 -0.47383627 -2.2069926 0.5879472 0.040577166 -1.0955418
-0.03331058 1.73219 -0.40335926 1.452866 0.8654355 1.605816 -0.7606424 2.0812852
1.1045989 1.909086 -0.33860227 2.2171388 -1.1818098 1.155063 1.0673834 -0.21740045
0.6566091 0.29714805 -0.22699265 0.9504841 -0.87708616 1.3215531 -1.5391132 1.1765532
-0.36132106 1.3724905 -0.8769721 0.88904905 -1.406544 0.3619611 -0.71647376 0.9356865
-0.006964937 0.8566103 -1.4915743 1.2794377 0.71653324 0.7091775 -0.91876334 1.4388187
0.20434923 -0.4974955 0.1453691 -1.4075795 0.7709911 -0.09499567 -0.015403181 0.13082817
-0.46393552 -0.3293737 1.3211007 0.4072872 1.2248764 -0.15187848 -1.0949715 -0.5743254
-0.4285883 -0.7568489 -1.4632215 -0.6521776 -1.8386599 0.081524335 0.11867502 -0.2627481
-0.43617162 0.70715785 0.6934774 -0.085360125 -0.16547032 1.0860465 -0.3590822 0.458254
0.12679523 0.5462893 1.7134327 1.4537859 0.76031405 0.7002556 1.7178891 0.5027961
0.7122774 0.7348776 1.3335985 0.8760903 1.070393 0.6934015 1.2036183 0.20662193
1.7180903 -0.24708079 0.08045745 -0.6927611 0.9153453 -0.33940277 1.4459114 1.213314
2.6004572 1.1794429 1.3116275 1.8463439 1.1165982 1.2939962 -1.0488616 -0.9041581
-0.44229487 -0.030892838 0.74771494 0.5150271 -0.1278394 0.6372633 0.73590565 -0.4110294
1.6079797 -0.7300977 1.2614611 -1.1219121 -0.44867912 -0.3721088 -0.5288869 0.8000955
1.8883302 -0.2626286 -0.3581578 -0.65719575 -0.00120365 2.255713 2.6205215 -0.8862317
2.0143418 -1.0088218 -1.2366351 0.03290136 0.83412623 0.2824056 -1.4318982 -2.9807315
-0.79980505 -3.579688 1.6526963 0.24805999 0.79174453 1.8007634 0.7826196 2.215324
0.46988901 2.0718782 -0.28944722 0.5431703 -0.9559777 -1.9425205 -0.7075356 -1.8350978
0.4531226 -0.8175756 -1.2562644 -1.1620284 -0.43441612 -1.0982615 1.8090363 -1.8373693

gru.weight_hh_l0 f4 [192, 64]
00000000: 38c8 abbe b7d9 babe c679 7f3e 8f5e 733e
00000010: 5a65 c5bc 6eaa a53e 0962 fc3e 403d d43e
00000020: 3a77 a53e d034 1e3e e9d8 eebd 0b8d 49be
00000030: 9c57 c4bd d528 85bd 586c c93e ad61 73bc
00000040: 2176 8ebe b084 ec3d e707 3f3f 5171 a13d
00000050: 6912 303d b069 27bf 6458 903c ac50 03bf
00000060: 25f9 c7be 4472 e23d 6f8a 423f 2651 c43b
00000070: 117d 463d 50cf a1be ba4b a23e d8db 42be
00000080: 1332 a6be 613a 26bd 7dfd 683b e740 7bbe
00000090: af1e 593f 67e0 b3be 73ba 3b3f c05e bd3b
000000a0: 60c1 163f 2a03 813d d6d3 863e c24b 01bf
000000b0: 9c5f a2be e5f4 253e b514 b53d 9986 c1be
000000c0: c0e6 0cbf b419 ee3e 5c1f 133f 7851 42bf
000000d0: a1f7 bcbe 9890 6bbc 9827 133e 0419 30bd
000000e0: 4772 b7be 6221 1e3f 94de dcbe eca0 b73e
000000f0: 0df2 ef3d 4ee2 4abd 8f73 043e 9aa3 023f
00000100: 49de 813e bccc e03d 10b9 0f3f 9d57 523e
00000110: a112 b33d 9047 86bd 526a 71be dd5b d33e
00000120: ea09 10bd d2bd 33be d8fd 9c3e d520 8ebd
00000130: 0612 ccbe c40d 3bbe b900 403e f5ec 16be
00000140: df90 3fbd 31cb 24be 3891 9c3e 596f 0d3e
00000150: b1ed 96be 3fc7 05bf 39a7 1d3e e944 b93e
00000160: 8bca f3bd 9f27 8ebe 89d5 2d3f c73d 87be
00000170: c3e2 acbd 4f7d 40be a75b f53e 6ad6 1d3f
00000180: bfc7 d2be 0509 ef3e 8c25 9c3e e71b c9be
00000190: cf1e 0bbe a194 6d3f ada4 883e dd49 f6be
000001a0: 72c2 91bc 1dd7 e9be 8336 6ebe 3bcf 6f3e
000001b0: 0bc0 57bd 96dc 783f bd7d 0bbf d5da 8e3c
000001c0: 0c1f 6bbe 5162 03be 0004 863d d19a 863e
000001d0: aec3 47bd 1690 4bbe 3f27 513e 1060 9fbe
000001e0: 4fd0 353a 0be6 53be a171 293e f528 01bd
000001f0: 4e00 e7be 5b55 1abe cf2d 983e 11c1 433e
00000200: 28aa f23e 1691 123e 116c 46bd a4ed b4be
00000210: a27f 72be feb6 99be 46cb d03e ce89 713f
00000220: a789 013f 3c5c ad3e 71ae 8fbe 8db8 b6be
00000230: 45a8 173e c201 a7bc 2df9 273d fb40 033e
00000240: 2f75 31be 2214 32bf c69d 1a3e 99dc a2be
00000250: 8a7f 523e f2fa a2be d02e 21bd dbb5 543d
00000260: c407 c9bd ef08 90be 66a0 df3d c71c 8fbe
00000270: 1d6c fc3e dc95 a03e 8354 e23e 9a46 3c3e
00000280: 5ad0 9abe 14d0 423e 0a56 633e 2af2 f5be
00000290: 41e6 69be 2499 973e a8ad 133e 0d84 16bf
000002a0: 08fe 84be b2e0 d9bd af4f 0ebf 41f3 6cbf
000002b0: 6f66 9bbe 8813 993e fb1b 433e 395c 94bd
000002c0: ab6a f5bd e3ee 3fbf 84af b83d 5acc 6cbe
000002d0: c7f1 a93e fe47 66bd b83d 30be d10c e23a
000002e0: 0f0c 0cbd b511 853f 93a4 63be ebcb c53e
000002f0: f44d b7bc 2a98 c33d 80a2 52be 1844 c53e
00000300: beb7 28bf fe9e 96be f2da 133f fcb3 b63e
00000310: 3dd6 cebe 3f18 8ebc 6442 453f 033f a6be
00000320: 6499 873d ac7f a1be 4c3b 183d e3cd ea3e
00000330: e9cd 733d e249 7f3e bcf4 d5be 04fa 7f3d
00000340: 5529 3b3e c4b7 6fbe b04c 15bf 21df 903f
00000350: 4f27 eb3e beb7 22be d726 0fbf e579 3d3d
00000360: fd00 813d 7866 e9be 08ce 6bbf 9b4f af3e
00000370: 2331 963e a730 0ebe 90aa 043f a325 4cbe
00000380: 1387 f4be 261c a93e 44f9 b0bd e88e adbd
00000390: dd7a b13d 3229 033d 77d6 cd3d b461 283d
000003a0: f2ca 8ebe b8bd d93d fdea dd3d c933 933e
000003b0: 0f2d 38be 07ad 0fbd 9730 90be a08f 093f
000003c0: 9bc6 763d 9d68 fc3b e060 5c3e c5b9 343d
000003d0: d60d 673e 2e81 c43d 6424 dd3e 6ecf 09be
000003e0: 59e0 afbe e874 923e e721 9abd 2ecf 003f
000003f0: 9739 28bb 4162 17bf 6942 e3ba 549d 033d
-0.33551192 -0.36494228 0.24948797 0.2376654 -0.02409618 0.3235659 0.49293545 0.4145298
0.32317525 0.15449834 -0.11662466 -0.1968271 -0.09587023 -0.06501929 0.39340472 -0.014854831
-0.278245 0.11548746 0.74621433 0.078829415 0.042986307 -0.6539564 0.017620273 -0.5129497
-0.3905727 0.11056951 0.7599248 0.005991119 0.048459116 -0.3160348 0.316984 -0.19029176
-0.3246008 -0.04058302 0.0035551481 -0.24536477 0.84812444 -0.35132143 0.73331374 0.0057791173
0.58888817 0.062994316 0.26333493 -0.5050622 -0.3171357 0.16206701 0.0884184 -0.37798002
-0.55039597 0.46503985 0.57469726 -0.7590556 -0.36907676 -0.014377736 0.14370573 -0.042992607
-0.35829374 0.6176969 -0.43138564 0.3586496 0.117160894 -0.049532227 0.12934707 0.51030886
0.25364903 0.1097655 0.5614176 0.20541234 0.087437876 -0.06556618 -0.23575714 0.41281024
-0.035165705 -0.1755288 0.30662417 -0.06939856 -0.398575 -0.1826697 0.18750276 -0.1473883
-0.04676902 -0.16093136 0.30579543 0.13812007 -0.2947822 -0.5225715 0.15395822 0.36185387
-0.119038664 -0.27764603 0.67903954 -0.2641432 -0.08441689 -0.18797801 0.47921488 0.61655295
-0.4116802 0.4668657 0.30497396 -0.392791 -0.13585971 0.92804915 0.26688138 -0.48103228
-0.017792914 -0.4567193 -0.23262982 0.23418896 -0.05267338 0.9721159 -0.54488736 0.017438332
-0.22961062 -0.12830473 0.06543732 0.2628999 -0.0487706 -0.19879183 0.20425127 -0.31127977
0.00069356425 -0.20693223 0.16547252 -0.0315332 -0.4511742 -0.15071623 0.2972245 0.19116618
0.47395444 0.14313158 -0.048442904 -0.35337555 -0.236815 -0.30022424 0.40780085 0.943509
0.50600666 0.33859432 -0.28062776 -0.35687676 0.14810283 -0.02038658 0.041009117 0.12817757
-0.17329858 -0.6956197 0.15099248 -0.31808928 0.20556465 -0.3183208 -0.039351285 0.051931243
-0.09815934 -0.28131816 0.109192654 -0.27951643 0.49301234 0.31364334 0.44205102 0.18386307
-0.30237085 0.19024688 0.2220079 -0.4803632 -0.22841741 0.29609025 0.14421713 -0.58795244
-0.2597506 -0.1063856 -0.5559034 -0.92558676 -0.30351588 0.29897714 0.19053642 -0.072441526
-0.11983236 -0.7497389 0.09017852 -0.23124829 0.33192274 -0.056221 -0.17211044 0.0017246251
-0.034191187 1.0396029 -0.22230749 0.3863214 -0.022376038 0.09550507 -0.20569801 0.38528514
-0.6590537 -0.29418176 0.5775596 0.35684192 -0.40397826 -0.017345546 0.7705443 -0.3246995
0.06621054 -0.31542718 0.037165925 0.45860204 0.059522543 0.24930528 -0.4178828 0.062494293
0.18277486 -0.23409945 -0.5832014 1.1318094 0.45928428 -0.15890405 -0.5591864 0.046258826
0.062990166 -0.4558599 -0.92111254 0.34240422 0.29334363 -0.13885747 0.5182276 -0.19936232
-0.47759303 0.33029288 -0.08641294 -0.08474523 0.086660124 0.03202171 0.100506715 0.041108802
-0.2788921 0.10631889 0.10835836 0.28750446 -0.17985938 -0.03507712 -0.2816207 0.5373478
0.060248 0.0077029006 0.2152133 0.044122476 0.22563872 0.095949516 0.43191826 -0.13458034
-0.3435085 0.28604817 -0.075259976 0.5031613 -0.0025669092 -0.591343 -0.0017338517 0.03213246

gru.bias_ih_l0 f4 [192]
00000000: a946 01be 495d a7bd 2f6d 60be 2b76 51be
00000010: 308a 97be a3f6 93be f227 38be be99 5dbe
00000020: 0fee 45bd 03a8 86be ab2d 01bf 1cb4 28be
00000030: f9c5 17bd eb8b c8bd 86ab c2be 8cbe 4bbe
00000040: 75f2 8bbe 2d58 a1be e239 b8be 9b90 7dbd
00000050: 03df 00be ca8c dcbe a024 87be 13ec 53bd
00000060: 0610 a8be 0cef 11bc d104 df3d 485a b4be
00000070: d785 8fbe 7d0e fabe 3129 dabe 9969 8dbe
00000080: a0ea b7be e4cb babe 1e47 75be a218 68be
00000090: 614b f1bd 0834 5cbe 30aa 67be 2bae b5be
000000a0: d4fc fbbe 095a cfbd 5d87 a3be 103c 00be
000000b0: cb5c 4ebe 3659 93be 0cda 86be 64d9 80be
000000c0: 5c55 6cbe f672 a33c 6039 aebe 6b11 9bbe
000000d0: a230 e4be 8105 b1be 0bc2 0bbe 398f e8be
000000e0: 4645 f7be 96fc 2b3d cb50 3bbe eca9 63be
000000f0: 74b1 68be 9af7 8bbe 0b81 e9be 65e4 74be
00000100: 2cd4 eebe 8daa 423f f5d8 0abe 17b9 703f
00000110: 1c0e 88be e4fa 293d 6e07 7fbf 3ad0 e5be
00000120: 135c 193f dceb ca3e bade e23e da60 a33c
00000130: a469 a5be be6f 983e b1d5 97bd a825 96be
00000140: 709c bcbe 5bd3 16be 237e 2ebe 901f 86be
00000150: 930e be3d cffc 72be f281 88bd 5793 15bf
00000160: e861 01bf 9026 86bc 3f8a c4bd d2c4 cb3e
00000170: 60ec f33d a656 fdbe 074f 603d 2d17 d4be
00000180: b21a 1abf 0367 ccbd 6e38 13bf ee1e c73c
00000190: 31c1 683d 7b10 be3d 29d8 f6be 3969 c13c
000001a0: d113 f0be a21e 8d3f 707b 69bf 0f54 8bbf
000001b0: f0be f73d 4b9e 5cbe 041e 64bf 85f6 fabd
000001c0: 36a3 93be ed54 763f ac9f 5bbe 92fa 54be
000001d0: d081 1e3e 12cb b8bd 6c6d 7f3e edcc 18bf
000001e0: c15a e03b 1ec2 52bf cd4d 4ebf a2f1 94be
000001f0: 3e7a b5be 7b0a 5b3e dd47 70be 0469 85be
00000200: 689b 753c d2d8 babd 793f bebc e7da c23c
00000210: a13a f43c a77f 4d3c 28bf 9cbc 9f28 db3c
00000220: 60c2 643b 026f 213c 36fb 333d 3dca dcbb
00000230: f686 41bd ecdd a9bc 9a03 faba 5865 0a3d
00000240: ac60 deba 02ef ff3c 53f7 73bc 7b57 563c
00000250: dfe5 a0bd a065 a6bc 0697 64bc 72ee fd3d
00000260: 7d35 83ba 1ae5 8cbd 0b3c 373d f3c2 35bb
00000270: 8a8a 203d db01 d93c 005c 763c 8d72 c53c
00000280: abc0 95ba 43ba b6bb 2d24 4f3c e84f abbb
00000290: 2acb 7eba 425f ed3b 7bf2 a5bd 6254 15bd
000002a0: 9b25 94bd f9ba 86bd 62e3 4bbd 58cf 68bd
000002b0: 6dd1 2b3d f43b bb3b af6d 1ebd f5c8 1fbd
000002c0: 8a96 03bd 0f6f 20bd ba96 5d3d e140 60bd
000002d0: 58f3 353c 71b8 b8bb 44fc d43c 60cd ccbc
000002e0: edbc 47bb 12b9 823c 2bb2 2ebd 946d 1f3c
000002f0: 8e95 09bd dfa8 843d b638 aa3c 3cc0 fdbb
-0.12624611 -0.081720896 -0.2191665 -0.20455234 -0.29597616 -0.28899106 -0.17983988 -0.21640679
-0.048322733 -0.26300058 -0.5046031 -0.16474956 -0.037054036 -0.09792312 -0.38021487 -0.19896907
-0.27333418 -0.31512585 -0.3598166 -0.061905485 -0.12585072 -0.43076164 -0.2639513 -0.05173881
-0.32824725 -0.008907091 0.108895905 -0.3522513 -0.280318 -0.4883918 -0.42609552 -0.27619627
-0.35921192 -0.3648368 -0.2395291 -0.22665647 -0.117819555 -0.21504223 -0.22623515 -0.35484442
-0.4921633 -0.10124595 -0.3193921 -0.12522912 -0.20152585 -0.28779 -0.26338232 -0.25165856
-0.23079437 0.019952279 -0.3402815 -0.30286726 -0.44568354 -0.34574512 -0.1364824 -0.4542177
-0.4829504 0.04198893 -0.18292539 -0.22232789 -0.22723943 -0.27337343 -0.45606264 -0.2391525
-0.4664625 0.7604149 -0.13559325 0.94032425 -0.26573265 0.041499034 -0.9962071 -0.44885427
0.5990612 0.3963307 0.44310552 0.019943643 -0.3230716 0.29772753 -0.07413805 -0.29325604
-0.36838102 -0.14729063 -0.17040305 -0.26195955 0.092801236 -0.23729251 -0.0666541 -0.5842795
-0.5054002 -0.01637581 -0.09596681 0.397986 0.11910319 -0.4948017 0.054762866 -0.41423932
-0.60196984 -0.099805854 -0.5750798 0.02430674 0.056824867 0.09280487 -0.48211792 0.023609744
-0.4689012 1.1024973 -0.91203976 -1.0885028 0.12096965 -0.21544759 -0.891083 -0.12254051
-0.28835458 0.96223336 -0.21447629 -0.2079871 0.15479207 -0.090231076 0.24944085 -0.5968769
0.006846756 -0.8232745 -0.80587465 -0.290906 -0.35444826 0.21390717 -0.23464914 -0.26056683
0.014990665 -0.091233864 -0.023223625 0.023786021 0.029813113 0.012542642 -0.01913412 0.026752768
0.0034905896 0.0098531265 0.043940745 -0.006737976 -0.04724785 -0.020735703 -0.001907456 0.033788055
-0.0016966066 0.031241897 -0.01489051 0.01308238 -0.078563444 -0.02031213 -0.013952022 0.123989955
-0.0010010448 -0.06879635 0.044734996 -0.0027734607 0.03919462 0.026490143 0.015036583 0.024102474
-0.0011425217 -0.0055764033 0.012642902 -0.0052280314 -0.0009719605 0.0072440216 -0.0810289 -0.036457427
-0.07233735 -0.06578631 -0.049777396 -0.056838363 0.04194777 0.005713934 -0.03867882 -0.039010007
-0.032125987 -0.039168414 0.054098822 -0.054749373 0.011105381 -0.0056372215 0.025999196 -0.025000274
-0.0030477599 0.015957389 -0.042650383 0.009730715 -0.033589892 0.06477522 0.020778995 -0.0077438634

gru.bias_hh_l0 f4 [192]
00000000: 1f2b cdbd ea9e 0fbe 29f7 52be a506 13be
00000010: d215 8bbe 8b8d 10be eb2b 3dbe ce8f 8cbe
00000020: e272 f6bc 587c 34be 894c 0abf 58ac c0be
00000030: 9913 7dbe 3980 3ebd 8a0f 49be 5765 b2be
00000040: 39e9 cbbe ed48 8dbe c731 cdbe 48b3 32be
00000050: a6fd 1dbe 81fc aabe 3ecd f0be b8c1 ce3d
00000060: 16ec 96be 983d 3bbe d1a9 f9bd 1ab1 c9be
00000070: 921e 85be 909c aebe 9c06 83be 573f 89be
00000080: 489d c2be b721 8bbe bbdd 77be b660 74be
00000090: 9ff6 31be e68a 72be a089 b0be 1709 9cbe
000000a0: bda6 0abf d98c 6bbe a584 9bbe 9bc4 07be
000000b0: c426 b0be 4de9 acbe 00e8 3abe a31b 78be
000000c0: 4c0e 1dbd ee73 25bd 5c57 58be d903 8ebe
000000d0: 3448 e1be 5ca7 44be ec5d 6cbd 8657 00bf
000000e0: 671b a3be 1628 5f3e 9bec 03be 1640 97be
000000f0: a8eb e1be 0b20 53be d8be 0abf 80a0 d2be
00000100: 6c4c 01bf a2ff 473f 33fe e4bc fee0 8f3f
00000110: 90de a6be f8df 463e 0334 8fbf e9c6 d0be
00000120: 54ba 353f c424 d43e 1f83 003f ff11 8d3d
00000130: 3ce0 b5be b600 773e b0a2 16be 56a2 0dbe
00000140: 9b4b 08bf 03cc 2dbe 495a 6bbe 8bfe cebe
00000150: 17de ec3d e633 3dbe 964d d7bd 6280 22bf
00000160: b457 1ebf 20b4 093e 08a9 16be 239a ce3e
00000170: 68f8 053d cc99 1dbf e69e bebd 1521 f7be
00000180: 6092 46bf 85b7 e9bd 3fc4 03bf 644a c03d
00000190: 6dfe 223d cbc7 f03d 48dd 2abf eaa5 683e
000001a0: f846 96be 9c6e 943f cafa 71bf 31cb 87bf
000001b0: 1ad0 e03d ab21 1fbe 6afc 65bf 9a04 a3be
000001c0: 943e 09be f1de 773f 55d3 65be e0f6 45be
000001d0: 883e 293e 7f11 06bc 75da 203e 955a d7be
000001e0: ce6a 26be c5e5 5bbf 6e6b 42bf affe efbd
000001f0: e37a 1cbe 79f7 a43d baf7 3bbe 2f79 56be
00000200: 3f22 203d ad98 e73d cd7c 203d 966c 6e3c
00000210: 874b 10be 70f3 33bb 1fa2 b83d 09e4 7fbd
00000220: 0984 343e 8253 97bd c7e9 02bd c9d6 543d
00000230: 0c06 ae3c ee1e a5bd bdb4 c6bb 8728 babd
00000240: b762 27bd b8b6 fcbc eca0 583c fd1a 37bd
00000250: 0549 b03d b0b9 25be 3ba3 6ebc 6cc3 e9bd
00000260: bcc2 d53c 858d 38bd 0c69 efbd 919d b4bc
00000270: e4d7 ecbd ae6e 92bd b490 8abc 4bf3 e0bc
00000280: 9b09 cb3b d8da d1bc 0cee 903a 0caf 8bbd
00000290: a7c6 73bd ac65 9c3d d03f 9f3d 5598 4b3d
000002a0: f3d8 323d 429f af3c 967e dd3d d99e c13c
000002b0: feb0 d3bd d8d0 413d 878a b33d 41de 313d
000002c0: 7ae0 6eba c7cf 6b3d 006d 6abd 3787 fa3d
000002d0: a149 4ebb c7fe 053d f801 a93d db0f a53d
000002e0: 5935 16bd ea1f 24bd 223c a73d f8d9 833c
000002f0: 3859 42bd 3c6a dbbd d910 c3bd 60e8 c6bd
-0.1001799 -0.14025465 -0.20602097 -0.14358003 -0.27165085 -0.14116494 -0.18473785 -0.27453464
-0.030084077 -0.17625558 -0.54023033 -0.37631488 -0.24714507 -0.046509 -0.19634834 -0.3484294
-0.39826372 -0.275947 -0.4007704 -0.17451203 -0.1542879 -0.3339577 -0.47031587 0.10095543
-0.29476994 -0.18285215 -0.12190593 -0.3939293 -0.25999886 -0.34103823 -0.2559098 -0.26806137
-0.3801062 -0.2717416 -0.24205677 -0.23865017 -0.17379235 -0.23685798 -0.3448 -0.30475685
-0.5416067 -0.23002948 -0.30374637 -0.13258593 -0.34404576 -0.33771744 -0.18252563 -0.24229293
-0.038343713 -0.040393762 -0.21127075 -0.2773731 -0.440004 -0.19204468 -0.05770676 -0.5013355
-0.31856844 0.21792635 -0.12883227 -0.2954108 -0.44125104 -0.20617692 -0.54197454 -0.41138077
-0.50507236 0.7812444 -0.027953243 1.1240537 -0.32591677 0.19421375 -1.1187748 -0.40776756
0.7098744 0.414343 0.50200075 0.06888198 -0.3552264 0.24121365 -0.14710498 -0.13831457
-0.53240365 -0.16972356 -0.2298366 -0.40428576 0.11565798 -0.18476829 -0.10512845 -0.63477147
-0.61852574 0.13447618 -0.14712918 0.40351972 0.0327076 -0.615628 -0.09307651 -0.48267427
-0.775671 -0.11411957 -0.5147132 0.09389189 0.03979342 0.117568575 -0.667439 0.22719541
-0.2935102 1.1596255 -0.945233 -1.0608884 0.10977192 -0.15540187 -0.8983828 -0.31839448
-0.13402778 0.96824557 -0.22443898 -0.19332457 0.1652776 -0.008182882 0.15708335 -0.42061296
-0.1625168 -0.85897475 -0.75945175 -0.11718499 -0.15281253 0.08055014 -0.18356219 -0.20944665
0.03909516 0.113084175 0.03918152 0.014552256 -0.14091311 -0.0027458332 0.09015297 -0.06247333
0.17628492 -0.07388975 -0.03196123 0.051962648 0.021243118 -0.0806254 -0.006064026 -0.09089761
-0.040865626 -0.030848846 0.0132219605 -0.044703472 0.08607677 -0.16184115 -0.014565284 -0.11414227
0.026093833 -0.04505684 -0.11689958 -0.02204779 -0.11564615 -0.07150017 -0.016914703 -0.027459761
0.0061962134 -0.025617048 0.0011057272 -0.06820497 -0.05951562 0.0763658 0.07775843 0.049705822
0.04366393 0.021438245 0.1081516 0.023635315 -0.10336493 0.04731831 0.08766656 0.04342485
-0.0009112429 0.0575712 -0.057232857 0.122328214 -0.0031476992 0.032713678 0.08252329 0.08059665
-0.03667197 -0.040069498 0.08165766 0.016095147 -0.047448367 -0.10713622 -0.09524698 -0.09712291

gru.weight_ih_l0_reverse f4 [192, 136]
00000000: b878 1ebf fc6a 013f 0649 e1be 658b 713e
00000010: 8bb4 a2be c084 3dbe ec1e e1be 2dbc 4a3e
00000020: d555 663d 6228 1c3e df62 20be 5cf6 0c3f
00000030: 9404 95bd cb52 b13d c413 13bb 3957 c5bd
00000040: d661 94be b1dc 7a3e dc5c cc3e a71a ab3e
00000050: c552 c93c 7992 103e bc6e 7b3e f9bf 2e3e
00000060: 0af7 8e3e 3bc5 5dbe cf69 9dbc f4f7 01be
00000070: 85aa b5be 20ff 4a3e 1cc1 c33c 6f3c 1f3e
00000080: f282 2a3c 60bc 54be 5845 c2be 648f 413e
00000090: df3a 443d dd83 1a3e 6db7 0f3e 674f 94bd
000000a0: e9d5 72be ac18 14be fc5c c8bd 3540 92bd
000000b0: d264 1dbe da55 f83d f2aa d1bd 064a 8d3e
000000c0: 0a1b dfbe 58a5 b03d 3dcf 95be 7393 8dbe
000000d0: 672e 8d3e 4aab 75bd 99df 403f ec8f 90be
000000e0: 8b9f 943d 25a5 963e 839f 86be 0f0b 29be
000000f0: f4ec 7fbd fa06 44bf 1616 6abf 5d79 bcbe
00000100: e722 23be 9e0f 84be f2c0 84bd 554b 37bd
00000110: c228 003e d4be b9be c062 a43e d004 07be
00000120: 3c50 05bf 5576 993e 2801 1abf 53ec febd
00000130: 9726 30be 340f d83d a871 bfbe a8bf e4bd
00000140: 706f b63e 863d 8d3e 8c72 96bd 657a 10be
00000150: 4ef8 2f3e 1b12 88be 4f1a 9d3d 680b 623f
00000160: 742d 243e 674e 9f3d d187 aebe 3f74 403e
00000170: 1e84 3abf fca7 2b3d 41d3 50be 81b6 ea3c
00000180: 416c 733e 352e e43e 8ee7 5ebe 5929 d53d
00000190: 71a0 eb3c 56bd 7b3d 98f1 2f3e 79ee 9cbe
000001a0: 5a85 3b3e 3a46 1cbe fede 243f ff07 3dbe
000001b0: fcd4 3d3f 3a90 dabd b044 9f3e 9047 0c3e
000001c0: 851d aa3d a6ad b93e 143f 9ebe 9d88 913e
000001d0: 87a3 723d a7fd ad3e 9341 49bd f299 563e
000001e0: 2e7e a7be d3b4 1e3e 3130 a83e e38d be3d
000001f0: a8d6 c63d 02e8 3cbe 9d75 d3ba dae6 d93e
00000200: 4a6c 553f 516c 40bc 287a e339 6d41 063e
00000210: 4b9b 053e b5b2 06be 226b b8bd b862 2abe
00000220: 4bde ec3d 75bf 22bf a94d 5fbd 7e20 f5be
00000230: 0b32 b0be cdf0 f6bd 0d39 1fbe c1f0 e8bc
00000240: 82b4 41be ccb1 cd3e acb8 cebe 45a0 773e
00000250: 494d 8dbe a4b3 b93e 72e8 cabd 783d 60bd
00000260: a5bc b23e 8e75 05be b217 9cbe 9c3e 41be
00000270: 66a3 ba3e be0f 68be 3fd3 babd 327e 93bc
00000280: 56e2 db3d 6900 633e 9779 553e adc2 56bd
00000290: ddb4 083f f3ca 04bf 02a8 c73e e3f4 66be
000002a0: 87b5 ec3c 7933 233b e313 04bf 9b4f 28bf
000002b0: 8470 9ebe de18 bcbd 5fe9 113e b678 8fbe
000002c0: 04d4 05bd 8711 67be 5f3f 03bd 8893 e8be
000002d0: 0934 5e3e 2547 8dbe 345c 13be 44d4 86be
000002e0: e337 2e3e d3e3 69be de80 0c3f aa63 893e
000002f0: 5e90 dc3e edab d5be 997d 96be b100 69be
00000300: 6a0d 903e f690 e73d 16fe 303e 1d26 e13e
00000310: 0190 de3e 5f68 d63e 0487 09bf d93f ef3e
00000320: e5e7 c73d 60df 303d ba4a 7bbe 1091 2e3e
00000330: fff7 cbbe d90a bb3e 8243 05bf 1e24 fbbc
00000340: 281c 883e cc45 02bf 9196 80bd a9d1 b3be
00000350: 9cb6 27bf 6e66 8fbe 95a0 423e 45c8 80be
00000360: d68a 043e cc4f 1bbc 2d20 52be eaca fd3e
00000370: 278e eebe a88b 233d 7dce dbbd bbf8 bf3c
00000380: c96e 1ebe 504f 88be c7f2 ab3e b2a9 f2bd
00000390: 1b52 1bbe 38b1 ebbd 9e79 25be 1253 dabd
000003a0: 0592 5ebf b7c5 01bf 336c ad3d fb23 873d
000003b0: c4d7 00bf ec78 603e 6d5a f1be 4176 803e
000003c0: c3ba 20be 2732 993e 061e 15bb 70a1 ba3e
000003d0: a9c8 5dbe 70ca f3bd a699 e7be 0bcd c6be
000003e0: 716e 33be 3451 5ebe 1896 cf3e 11e4 06be
000003f0: 3ca9 09bf 066c b5be 9e7d 5ebe 0051 02be
-0.6190295 0.5055387 -0.44001025 0.23588331 -0.31778368 -0.18507671 -0.43968904 0.19798346
0.0562342 0.1524978 -0.15662716 0.55063415 -0.07276264 0.0865837 -0.00224422 -0.09635777
-0.28980893 0.2449825 0.39914596 0.33418772 0.0245756 0.14118375 0.2455396 0.1706542
0.2792285 -0.21657269 -0.019215493 -0.12692243 -0.3548166 0.19823885 0.023895793 0.15550397
0.010407196 -0.20774984 -0.3794353 0.18902355 0.047907706 0.15089364 0.14034815 -0.07241707
-0.23714413 -0.14462537 -0.0978336 -0.07141153 -0.15370491 0.1212575 -0.10237683 0.27595538
-0.43575317 0.08625287 -0.29259673 -0.27651557 0.27574465 -0.059977807 0.7534118 -0.28234804
0.07256993 0.2942287 -0.26293573 -0.16508125 -0.062481835 -0.76573145 -0.9143995 -0.36811343
-0.15931283 -0.25793165 -0.06482114 -0.044749577 0.12515548 -0.36278403 0.3210659 -0.1318543
-0.5207555 0.29973093 -0.60158014 -0.12447419 -0.17202221 0.10549775 -0.373914 -0.11169368
0.35631895 0.27586 -0.07346067 -0.1410919 0.17184564 -0.26576313 0.076710336 0.88298655
0.16032964 0.07778626 -0.34087995 0.18794344 -0.72857845 0.04190825 -0.20393087 0.028651478
0.23771764 0.44566503 -0.21768019 0.10408277 0.028763028 0.06145986 0.17182004 -0.3065069
0.18312588 -0.15261164 0.6440276 -0.18460082 0.74153113 -0.1067204 0.31107092 0.13699174
0.08306412 0.36265296 -0.309075 0.2842454 0.059237983 0.33982584 -0.049134802 0.20957163
-0.32713455 0.15498666 0.32849267 0.093044065 0.09708911 -0.18447879 -0.0016133074 0.42558938
0.8336836 -0.011744575 0.00043387827 0.13110895 0.13047521 -0.13154109 -0.09004809 -0.1663922
0.115658365 -0.6357339 -0.054517422 -0.47876352 -0.3441318 -0.12057648 -0.15549107 -0.028435113
-0.18916515 0.4017471 -0.40375268 0.24182232 -0.27598026 0.36269867 -0.09907617 -0.05474612
0.3490955 -0.13033125 -0.30486828 -0.1887154 0.36452788 -0.22662255 -0.09122323 -0.01800451
0.107365295 0.22168125 0.20847164 -0.05243175 0.53400975 -0.51872176 0.38995367 -0.22554354
0.028895153 0.0024902506 -0.51592845 -0.6574647 -0.30945218 -0.091844305 0.1424918 -0.28021783
-0.032672897 -0.2256528 -0.032042857 -0.45425057 0.21699537 -0.2759334 -0.14390641 -0.2633382
0.17013507 -0.22840814 0.54884136 0.2683385 0.43078893 -0.4173273 -0.29392698 -0.2275417
0.28135234 0.11306946 0.17284426 0.4397439 0.4346924 0.41876504 -0.5372164 0.467284
0.09761027 0.043181777 -0.24540225 0.17047524 -0.39837644 0.36531714 -0.52056134 -0.03065687
0.26583982 -0.5088775 -0.06278718 -0.35120896 -0.65513015 -0.28007835 0.1900657 -0.25152794
0.12943587 -0.009479474 -0.20520087 0.49568874 -0.4659283 0.03992811 -0.10732744 0.023434034
-0.15471949 -0.2662301 0.33583662 -0.11848773 -0.1516804 -0.11508411 -0.16159675 -0.10660376
-0.8694156 -0.50692314 0.08467903 0.065986596 -0.5032923 0.21921128 -0.47139302 0.2509022
-0.15696244 0.29921076 -0.002275349 0.36451292 -0.21658577 -0.11903846 -0.45234412 -0.3882831
-0.17522599 -0.21710664 0.405442 -0.13172938 -0.53773856 -0.35433978 -0.21727607 -0.12726212

gru.weight_hh_l0_reverse f4 [192, 64]
00000000: ca3e e2bd c8ad 863d 14c9 50bd 446a 6dbd
00000010: 0094 a23c c897 dfbd 9c93 b1bd 60b4 f83d
00000020: 7857 32bd 867e 9fbd 908b 453d 54d3 943d
00000030: 8cf2 493d 6437 a1bd aef3 d5bd 0ab7 ee3d
00000040: 1c96 8dbd b2e3 abbd 746e 91bd e452 923d
00000050: b8a2 723d 2e48 ad3d 985e a0bc ac0c fa3d
00000060: 4c3d d9bd e824 fd3d 8495 02bd 080f b63c
00000070: 44ea e33d 00f4 8fb9 6480 443d 20cf 8a3c
00000080: 4456 a43d 269f bf3d c01b 343d 4086 35bc
00000090: 4054 263c 8036 94ba 5841 febc 98ae ca3d
000000a0: b09d 00bd 0ef0 e63d 5ceb 8d3d c89b dbbd
000000b0: 0065 a0ba 783c a8bd a803 ac3d e012 ea3d
000000c0: c8de 1abd b4cf dfbd 4828 3dbd c858 d7bc
000000d0: c4a9 07bd f620 8c3d dcb4 cbbd ae68 94bd
000000e0: 582b 9d3d 329a d73d 9c25 d23d 6acf cabd
000000f0: 0292 e23d c812 a7bd 7875 713d 68f5 cfbd
00000100: 74bc 083d d447 ecbd a0f6 223d a096 68bc
00000110: 7085 613d 9404 8c3d 28f1 c23c 1ca2 eabd
00000120: cec1 e03d 0e40 febd e0d0 be3c e66b e6bd
00000130: 929e c4bd 38bf 66bd 6038 f5bc f6d5 febd
00000140: 60c8 85bd 1e4a 8cbd 089d edbd 1c9b 5f3d
00000150: c098 7d3d 2ce0 7abd 020d c4bd 1ce2 5c3d
00000160: 3eff ab3d 5041 71bd 1ed2 94bd b2f4 eabd
00000170: fc97 7a3d fc0e 29bd 00f5 163c ac58 d0bd
00000180: 2062 a4bd a2a3 9bbd 7285 c8bd 9255 cebd
00000190: f0b0 bfbc 20b4 9abb bc1d 4f3d d4a0 36bd
000001a0: 2089 b0bb 983a cd3c f284 e1bd 6ac1 9abd
000001b0: 38ef b33c 3823 1cbd f803 3a3d 803c b8bb
000001c0: 706d 533d 52b7 c8bd ea2e c03d e8de cdbc
000001d0: ec36 003d 8cd3 023d f4d6 64bd 563b 98bd
000001e0: 3015 403c 5a22 9abd 88a8 79bd e03a e1bc
000001f0: 58b0 e4bc 2055 04bc 406b fd3b 7201 eabd
00000200: 7cf1 22bd 6a69 e3bd 6873 213d 8c87 0fbd
00000210: 38ea e2bc e0d1 73bc 3036 24bc 7cd1 7bbd
00000220: 0c47 b8bd fedd d23d 305f 7ebc 5003 6cbc
00000230: 6061 af3d 88c7 dcbc 8cbf 51bd 728f eabd
00000240: a4ac 023d 30d7 0dbc 30bd f23d e02d f83b
00000250: e854 b93d 9020 59bc 1060 f9bd 8054 46bb
00000260: 187f f23d d647 c53d 0000 73b6 06db b43d
00000270: 5a27 e3bd 960b 933d 1a82 f0bd 4eeb b13d
00000280: 0005 173b 6c5e 41bd a024 7d3d eee2 f33d
00000290: 3027 153d b224 a5bd 3c6f 66bd 0059 8fbb
000002a0: c051 1e3d 967d 92bd 50d7 63bd ecef ffbd
000002b0: 024e c93d 6e62 a63d d81c 413d 5021 f93c
000002c0: aac2 fcbd 46d8 eb3d 2a6f ae3d ac94 81bd
000002d0: 689d c7bd 1844 99bc c6fe c03d 9e19 a73d
000002e0: a051 fabb dc37 893d dab4 92bd f874 983d
000002f0: 00f1 88bc b20c ed3d cc26 9a3d 4439 763d
00000300: 5016 743d 12ae c5bd dea9 db3d dc75 7bbd
00000310: c223 ed3d 80de aa3b 927c 90bd 2662 db3d
00000320: 3054 ffbd e4f9 f3bd 08a2 a43c 2c48 533d
00000330: ec33 9f3d a4d5 7b3d 0080 5fb7 c46d a0bd
00000340: ec0b 6a3d 6269 d7bd 70f0 32bd f0c4 08bd
00000350: fea9 ad3d 003c 9ebb 22c6 a83d 304f 083c
00000360: 0604 b4bd 7c4f bb3d b484 3d3d 68e8 acbc
00000370: 8a66 c73d 2828 e9bc e8ee ed3c d414 1bbd
00000380: 54dd 853d f8c4 a93d d049 8c3d b823 b43d
00000390: 8023 81bd 08ed 67bd 5640 bc3d e641 bf3d
000003a0: 6c61 093d a0b1 c2bc cee1 883d 6221 9cbd
000003b0: 9812 493d 3a3a d13d fc5a 58bd a416 9abd
000003c0: 601e cdbb e839 503d d05a fd3d c4c3 a2bd
000003d0: e88f 03bd 804f 99bc 10b4 f8bc 2e59 aabd
000003e0: 884a b3bd 8ec1 e9bd 3818 c2bd 4899 343d
000003f0: bc40 ee3d da9f dfbd e8c3 47bd 18ea d7bd
-0.11047132 0.06576115 -0.050973013 -0.05796267 0.019845963 -0.10917622 -0.086707324 0.12143779
-0.043540448 -0.07787804 0.0482288 0.0726687 0.049303576 -0.07871893 -0.10446869 0.11656006
-0.06913397 -0.08393039 -0.071011454 0.071447164 0.059237212 0.08461033 -0.019576356 0.12209448
-0.106073946 0.12360555 -0.03188087 0.022223964 0.11128667 -0.0002745688 0.047974005 0.016944468
0.08024266 0.09356527 0.043971777 -0.011079371 0.010151923 -0.0011307746 -0.031037018 0.09896582
-0.031400383 0.112762555 0.06929657 -0.10723072 -0.0012237132 -0.082146585 0.08399135 0.11429381
-0.037810117 -0.10928288 -0.046180993 -0.026287451 -0.033120885 0.06842224 -0.099466056 -0.072465286
0.07674283 0.10527457 0.1026108 -0.09902842 0.11063005 -0.08157879 0.058949918 -0.101542294
0.033382848 -0.11537138 0.03978598 -0.014196068 0.055058897 0.06836811 0.023796633 -0.11456701
0.10974465 -0.12414561 0.023292959 -0.11251049 -0.096005574 -0.056334704 -0.029934108 -0.124431536
-0.06532359 -0.06850074 -0.11602217 0.054591283 0.061913252 -0.061248943 -0.095727935 0.053926572
0.08398293 -0.058900177 -0.07266639 -0.11472453 0.0611801 -0.041274056 0.009213686 -0.10173163
-0.08026528 -0.0759957 -0.09791078 -0.10074915 -0.0233998 -0.0047211796 0.050565466 -0.04458697
-0.0053874403 0.025052354 -0.110116854 -0.07556422 0.021964654 -0.038119525 0.04541394 -0.0056224465
0.05161804 -0.098005906 0.09383948 -0.025130704 0.031302378 0.031940028 -0.055869058 -0.074331924
0.0117238015 -0.07526083 -0.06095174 -0.027493894 -0.027916119 -0.008076936 0.0077337325 -0.11426057
-0.03978108 -0.111040905 0.0394167 -0.035041377 -0.027699575 -0.014881581 -0.010022685 -0.061479077
-0.08997926 0.10296248 -0.015525624 -0.014405087 0.08563495 -0.026950613 -0.051208064 -0.11453141
0.031902924 -0.008657262 0.11852491 0.007573828 0.09049398 -0.013252392 -0.121765256 -0.0030262768
0.118406475 0.09632842 -3.6209822e-06 0.08830838 -0.1109149 0.07179944 -0.11743565 0.08687459
0.0023043752 -0.04720919 0.061802506 0.11908518 0.036414325 -0.0806364 -0.056258425 -0.0043746233
0.03865218 -0.0715286 -0.05562526 -0.12496933 0.09829332 0.08124243 0.04714665 0.030411392
-0.12341817 0.1151586 0.085172966 -0.06327185 -0.0974682 -0.018709227 0.09423594 0.08159183
-0.007639125 0.067001075 -0.07163401 0.07444185 -0.01671648 0.11574687 0.07526931 0.060113207
0.05959159 -0.09652342 0.10725759 -0.061391696 0.11579086 0.0052145123 -0.0705501 0.1071208
-0.12467229 -0.11912897 0.020096794 0.0515825 0.07773575 0.06148304 -1.3321638e-05 -0.07833436
0.057140276 -0.10518147 -0.04368633 -0.03339094 0.08479689 -0.00482893 0.08240916 0.008319661
-0.0878983 0.0914602 0.046269134 -0.021106914 0.09736355 -0.02846153 0.029044583 -0.03786166
0.065363556 0.08289522 0.06850016 0.08795875 -0.06305599 -0.056622535 0.091919586 0.09338741
0.033540174 -0.023766339 0.06683694 -0.07623555 0.049089998 0.10216184 -0.052821144 -0.075238496
-0.0062597245 0.050836474 0.12370837 -0.079474956 -0.03211966 -0.018714666 -0.030359298 -0.08317791
-0.0875445 -0.11413871 -0.094772756 0.044091493 0.11633441 -0.10919161 -0.048770815 -0.10542697

gru.bias_ih_l0_reverse f4 [192]
00000000: 87c2 10bf 23cc 3fbd 4b2c 45bf 1a51 1abf
00000010: 425c 32bf 608a 84bf 819f 53bf 38cf c5be
00000020: 4f27 1fbf d78e dcbd 3efd 4bbf 891f 08bd
00000030: 2954 babe a9cb 03bf c6c3 84be b31d a0bf
00000040: 166c 00bf 80f2 44be 8725 8bbf af5e 5abe
00000050: c056 2fbe d191 a0be 1ae7 36be 3722 7ebf
00000060: 3f28 2fbf 379c ecbe 8b1b 81be cd40 19be
00000070: a027 09bf 1816 b6be 595d 86bd 0fae 1ebf
00000080: a4f0 60bf f931 d9be 9506 99be a985 eebd
00000090: 27aa 3cbf 0c7b efbe ebea 23be d7d6 3bbe
000000a0: 2c7a 4fbe 01f7 0ebf c3ae 6ebf 7d48 d8bd
000000b0: dba8 15bf f870 6cbf cea7 20bf bd20 85be
000000c0: 34b7 76bf 0415 283c 64c6 39be 9e97 aebe
000000d0: 97d5 a7bf 596e 90bf 8e2d 8dbf 27f8 6fbf
000000e0: 9399 94be 7d51 09bf 2278 03bf 0e47 51bf
000000f0: 318f 37bf b5e6 00bf 68f9 bfbe e43b 27bf
00000100: d0a1 923e 3bbd 303e eed5 923d 2519 783e
00000110: e5b4 803e 2023 0d3f bfec 603e 5e8a 393f
00000120: 16b2 193e 0f06 9a3e 12af 063f 60ab 5c3e
00000130: 9afa 573e 523c af3e d281 3c3e 8a7a 2f3d
00000140: ea5c 053f 0cfb 8d3c 190d ea3d 0cd1 ab3e
00000150: 827c b63e ba2b 003f 0ceb d93e 4a89 77bc
00000160: 07a3 4cbd 8302 073e abb9 ae3e d86a cc3e
00000170: c24c 9a3d 32a9 863e f604 c23e f1ca 2f3e
00000180: 64ad e83e d6bb 8b3e 9b74 943e a3d6 563d
00000190: c7b8 873e 47e5 893e 1539 7d3e 7b59 503e
000001a0: 3cde c83d 973e 533e 5e06 083e f140 f13d
000001b0: 5644 7c3e 9b48 c53e dfbc af3e 8b47 db3e
000001c0: 8914 083f 4edd bf3e b7e8 be3d 2d28 d33e
000001d0: 14b4 00be 4554 dfbb f454 113e 7fe6 bf3e
000001e0: 0f3e 313e 31d0 053d 2276 9f3e 0a91 b33e
000001f0: 01ce 413f 7651 db3e 4915 dc3e 8584 6fbc
00000200: 28bf bf3c 90a4 bfba e8c6 e9bb 635f 80bc
00000210: b8bb 173c 0390 28bd f2e8 c93c 8948 8bbc
00000220: 8af5 55bc 03f5 2d3c cea1 fcbc df05 413d
00000230: d343 723c 48d3 163d acb5 c93c f239 ea3b
00000240: 652f 88bd 0ecd 48bd 3969 49bd 5d4b c0bc
00000250: 6c73 47bc 0574 abbc 1dcc 6ebc 4bd0 e93c
00000260: 1443 6e3c e022 06ba 7ea1 83bc 0f94 8b3d
00000270: 49fd 053d 0b62 ccbc 69d8 16bd 790f 2ebd
00000280: 53db c13b fd1a 05bd 541a 7ebc bbee b7bd
00000290: 66bf c6bc b8c2 eebc 73c9 0fbd d589 a7bd
000002a0: 0e4f 93bc ec79 813c 8985 af3c bea1 9b3d
000002b0: 5dc6 dd3c e792 6fba 10fe 9dbc ba4a f83c
000002c0: 10dd 23bc 242d b7bc 1b0b 3fbd ea96 8c3d
000002d0: b350 03bd 4be6 bf3c 0b2b 0c3c 6499 f53c
000002e0: 4d84 3bbc 05bd 86bc 2a09 8d3c 7d7f e03c
000002f0: 0f8f 133c 27d1 8dbb a34b c43c 1c47 4ebc
-0.56546825 -0.04682554 -0.7702071 -0.6028 -0.69672024 -1.0354729 -0.8266526 -0.38634658
-0.62169355 -0.10769432 -0.7968329 -0.0332332 -0.36392334 -0.51482636 -0.25930613 -1.2509063
-0.50164926 -0.19233131 -1.0870827 -0.21325181 -0.17122936 -0.3136125 -0.17861596 -0.9927096
-0.68420786 -0.46212932 -0.25216326 -0.14966126 -0.5357609 -0.3556373 -0.065607734 -0.6198434
-0.8786719 -0.4242094 -0.29887834 -0.116465874 -0.7369713 -0.46773565 -0.16007583 -0.18343674
-0.20261449 -0.5584565 -0.93235415 -0.10560701 -0.5846078 -0.92359877 -0.6275605 -0.2600154
-0.96373296 0.010258917 -0.18142086 -0.3410005 -1.3112057 -1.1283675 -1.1029527 -0.93738025
-0.29023418 -0.53639966 -0.51355183 -0.81749046 -0.7170287 -0.5035203 -0.3749497 -0.6532576
0.28639078 0.17259686 0.0716971 0.24228342 0.25138012 0.5513172 0.21965311 0.72476757
0.1500934 0.30082747 0.52610886 0.2154975 0.2109169 0.34225708 0.18408898 0.04284147
0.520949 0.017331623 0.114282794 0.33557928 0.35641867 0.5006672 0.4256214 -0.015108416
-0.049960162 0.13184552 0.34126028 0.39925265 0.07534172 0.2630096 0.3789441 0.1716726
0.45444787 0.27291745 0.28995213 0.052450787 0.2650816 0.26932737 0.24728806 0.20346634
0.09808013 0.20629345 0.13283679 0.11779965 0.24635443 0.38531956 0.34323785 0.4282802
0.53156334 0.3747353 0.093217306 0.4124159 -0.12568694 -0.0068154656 0.14192563 0.37480542
0.1730883 0.03266925 0.31144816 0.35071594 0.7570496 0.42835587 0.4298499 -0.014618997
0.02340658 -0.0014621187 -0.007134307 -0.015670484 0.009261064 -0.041152965 0.02464721 -0.01700236
-0.013059029 0.010617497 -0.030838873 0.04712474 0.014786678 0.036822587 0.02462276 0.007148021
-0.06649665 -0.04902368 -0.049172614 -0.023473436 -0.012173515 -0.020929346 -0.014575032 0.028541705
0.01454236 -0.0005116891 -0.016068216 0.06815349 0.032712255 -0.024949094 -0.03682748 -0.042495225
0.005916038 -0.03249644 -0.015509207 -0.08981081 -0.024261188 -0.029145584 -0.035104226 -0.08180586
-0.017982032 0.015805207 0.02142598 0.07599209 0.027072126 -0.00091390166 -0.019286186 0.03030907
-0.010001436 -0.022360392 -0.04664145 0.06864722 -0.032059383 0.023425242 0.008555184 0.029980369
-0.011445117 -0.016447553 0.017216284 0.027404541 0.009006276 -0.0043279114 0.023961848 -0.012590196

gru.bias_hh_l0_reverse f4 [192]
00000000: 0697 0ebf 2db4 edbd 1f16 58bf 7282 0abf
00000010: 8c05 2abf 1a08 87bf 8d6e 71bf 0105 9ebe
00000020: a100 38bf 7457 80be 36f2 32bf cba1 ba3c
00000030: d56b 6bbe ca69 22bf 0330 72be 91c7 8fbf
00000040: 0ef6 fbbe 2d57 9fbe 6068 80bf 12f9 0cbe
00000050: 9dce 0abc 2cde 18be 848a eebd 8975 56bf
00000060: 4a6f 02bf 283a e4be 3d0a 6bbe 38af 31be
00000070: 3fc7 0dbf 1878 97be da1f 5abe 6f69 21bf
00000080: f3ee 69bf e926 d5be 28fc e3be 6050 4fbe
00000090: a966 34bf 9d0c c3be fdcb 9cbd c806 78be
000000a0: 4fac 10be bb81 26bf d7db 64bf 2c34 ecbd
000000b0: 431a cdbe 88e3 74bf ffc2 1cbf af0e acbe
000000c0: 468c 5fbf e6c7 c2bd c127 55bd 6856 82be
000000d0: e055 93bf e1e9 8bbf 5453 90bf b424 7fbf
000000e0: 46e5 84be 73c8 d4be 12ca 09bf fded 16bf
000000f0: a915 66bf f2ed 07bf 8f77 cdbe 6457 1ebf
00000100: e764 663e 8ca1 1a3e 4f11 d73d 3eed 583e
00000110: 0d23 2d3e ed17 f53e 0f86 ac3e 57d0 3a3f
00000120: 62b1 073e 8ab6 c73e 56ce a93e 1d94 063e
00000130: 7d83 bd3d 467e b93e fc4e 0c3e 8e92 3c3e
00000140: 5a02 be3e aa49 453e afcf 5b3e 7c3b 033f
00000150: 4e50 a53e 8416 1a3f 7ecb ed3e 14e4 afbd
00000160: c45a 76bd cc87 2f3e 83c5 693e 137a e73e
00000170: e732 413e a7aa a63e be70 f23e 0112 593e
00000180: f4b8 7b3e f53b 9d3e cfaf 1f3e fde1 2a3e
00000190: d324 583e e282 cc3d 39f1 123e ef74 873e
000001a0: d9f9 6d3e b6bd 813e 4f22 5b3e 149e 503d
000001b0: 2650 cd3e 946d 853e 115f 823e 656e f73e
000001c0: fd71 1d3f 2bc9 ed3e 8f6a ac3d a881 553e
000001d0: 8a2c 02be 1e1e d5b9 95c2 7c3e e993 ad3e
000001e0: 73f3 2f3e c207 033d 44de 893e c67f e63e
000001f0: c6f6 4c3f 173e 013f 5bb3 f93e 8947 00bc
00000200: bdb7 dc3c 48ef 263e a3d9 d63b 8eb5 03bb
00000210: 59a2 edbc 6181 303c 4a09 e33c 5942 c03d
00000220: 6fea f5bc 4fb8 c8bd 2920 863c 5ff4 1fbe
00000230: 3313 c6bd 2cd2 b0bc 90e0 84bd 4c75 aa3c
00000240: 0d07 ac3c a0ec 853d 5d6f 17bd b887 ce3d
00000250: 9d16 eb3d d12b a93d 2fcd 03be 5e7d 763c
00000260: 78f2 743d 433f 2bbd 359c c53d d5b2 1dbd
00000270: 3175 38bd af63 5f3d 320d 1d3e 7064 a9bc
00000280: 6f86 2fbd b804 643d f90c bf3d 0704 fc3d
00000290: a898 923a ef95 b93d 29d2 033e 87e3 993d
000002a0: e7a6 b63d c49a 073c 3f14 a73c f0a7 f8bd
000002b0: d6b5 98bc bcf0 ba3b 17af 533c c89d e43d
000002c0: 2c46 723c fd1f 513e e283 1b3e 5e72 b9bd
000002d0: c83b babb 6102 933b 049a 00bc ded1 d0bb
000002e0: 4d02 83bd dea4 ea3c 3b40 05bd d103 883c
000002f0: f85e 6f3c 61b8 ff3c f9d6 80bd 6db7 80bd
-0.55699193 -0.116066314 -0.84408754 -0.54105294 -0.66414714 -1.0549347 -0.9430931 -0.30863193
-0.7187596 -0.2506672 -0.69900835 0.022782227 -0.22990353 -0.6344267 -0.23651128 -1.1232778
-0.49211162 -0.31121197 -1.0031853 -0.13766888 -0.008472112 -0.14928502 -0.116475135 -0.83773094
-0.50951064 -0.4457562 -0.22953124 -0.17351997 -0.5538215 -0.29583812 -0.21301213 -0.63051504
-0.9138023 -0.4163125 -0.44528317 -0.20245504 -0.70469147 -0.3809556 -0.07656095 -0.24221337
-0.1412823 -0.65041703 -0.8939795 -0.115333885 -0.400591 -0.95659685 -0.6123504 -0.33604953
-0.87323415 -0.09510784 -0.052039865 -0.25456548 -1.1510582 -1.0930749 -1.127543 -0.9966538
-0.25956172 -0.4155918 -0.5382396 -0.5895689 -0.898768 -0.5309745 -0.40130278 -0.618521
0.22499429 0.15100688 0.10501348 0.2118425 0.16907902 0.47869816 0.3369603 0.7297415
0.1325126 0.39006454 0.33165234 0.13142438 0.09253595 0.3622915 0.13702005 0.18415281
0.3711117 0.19266382 0.21465944 0.5126264 0.3228783 0.60190606 0.46444315 -0.08588424
-0.060145155 0.17141646 0.22829251 0.45210323 0.18867074 0.32552072 0.4735164 0.21198274
0.24582273 0.30709806 0.1559441 0.1668777 0.21107797 0.099859014 0.14349832 0.264564
0.2323984 0.2534005 0.21399806 0.050932005 0.4010021 0.26060164 0.25463155 0.48326412
0.6150206 0.4644254 0.08418762 0.20850241 -0.12712303 -0.00040648965 0.24683602 0.3390191
0.17182712 0.03198982 0.26927388 0.45019358 0.80064046 0.50485367 0.4876965 -0.007829555
0.026943082 0.16302216 0.006556706 -0.0020097229 -0.029008077 0.010773034 0.02771439 0.09387655
-0.030019013 -0.09800779 0.016372757 -0.15620564 -0.09671631 -0.021584593 -0.064881444 0.020807885
0.020999456 0.06539273 -0.03697144 0.1008448 0.114789225 0.082603104 -0.1287124 0.015044538
0.05980155 -0.041808378 0.09648935 -0.038500626 -0.045033637 0.054538425 0.15337065 -0.020677775
-0.042852815 0.055668563 0.09328646 0.12305456 0.0011184411 0.09061801 0.12873138 0.075141005
0.08918553 0.008276645 0.020395396 -0.121414065 -0.018641394 0.0057049673 0.012920163 0.11162907
0.014787238 0.20422359 0.15187028 -0.09055017 -0.005683396 0.0044863676 -0.00784922 -0.0063726744
-0.06396923 0.028643068 -0.032531958 0.016603382 0.014610045 0.031215848 -0.06291003 -0.06284986

linear_1.weight f4 [64, 128]
00000000: 4a6f 77be aa67 b83c b9fb b3be 22c2 e73e
00000010: 5fee 64be 789a cebd fe18 f73e c895 223e
00000020: eb4e 1d3e 9780 9fbe bd02 90be 302c a03e
00000030: 1f1f 173e ff41 ab3e 073a 98bd aef0 153f
00000040: ec84 b23e aec0 833c e41c ac3c d4dc 02be
00000050: cb60 bc3e 1626 8fbb 35aa cbbd 6899 9a3e
00000060: 6d62 583e fcb8 bd3c b242 58be bda2 6cbe
00000070: 58f2 f1be 1f4c 8dbd dc8a 51be bcdb c3bd
00000080: 9d2d 36bd 2e63 db3e ef96 8c3d af65 a1be
00000090: 8fc8 a03d 943e b6be 9694 15bf 27fb 123e
000000a0: 05c6 6f3e 6634 c13e 4c4f 523e 7a4d 213d
000000b0: 4d55 68be ade1 8d3d 4103 32be 3d3d 2e3e
000000c0: 0a66 713e 79c8 0cbe cc54 6b3e fe9d 0fbe
000000d0: d7ab 1bbe 26d2 24bd 3d2f 813e 0831 5a3d
000000e0: 9250 503e 884f d6bd 68c9 bb3e f8ef 203f
000000f0: d387 d9bc 9047 9ebe e820 b03d aa82 b6be
00000100: 7880 24bf f616 013f e682 163f b0e7 093e
00000110: 825f b93d 9b3f 04bf 690e 073f 924e d83d
00000120: 2577 043f 1cbe 95be 6c16 bc3e 911d 333e
00000130: 4902 8f3d 4740 5abe d038 443f e9e3 bcbe
00000140: 6add 873d e78d 09bf e88c 953e ef28 293e
00000150: 4e8e c43e b867 9c3e d07e 26be 7c66 323f
00000160: cd23 393e a67f 943d 2603 52be 43ef 08bf
00000170: f34d 4ebe 562c 143f 48ca 8d3d f891 9b3e
00000180: 44e6 da3e c1ef 7e3d acbf 763e ff38 e6be
00000190: 1b31 8b3f c424 3e3a 5334 23bc a2a6 41bf
000001a0: 92b2 273e e562 38bf 73b4 7abe 08c4 54be
000001b0: e756 a6bb 838e 96bd 38ac ffbe 7288 bb3e
000001c0: 0c37 d9bd 1c7d 1d3f 0af1 d43e 055f 82be
000001d0: c24a 853e b187 99bc 4dc0 7abe 3a22 413e
000001e0: dd82 fa3e 0888 083f 1863 adbe 8561 333d
000001f0: bfc6 4a3e 4637 15bf 2618 7a3e 63ba 193e
00000200: 4116 f03e a7b9 e23e b72d df3d 06a4 8ebe
00000210: a3c0 cb3e 2568 82bc 0f4f ee3c c7d0 c53e
00000220: 0a4e 09bf a832 0abe f6ba 0a3f 296f 1e3c
00000230: 366f a73e d362 01be bcec 18bf ae5b 973c
00000240: 9f86 3238 ba00 623e cb25 b03e 16f2 ce3e
00000250: 501d 0b3d 2d7a 5ebe 3669 d9be 5715 a7be
00000260: 8e59 66be 138c c83c 8e71 13be 844c 513f
00000270: 61ff d03e c37b aabd 8ca8 983e b829 af3d
00000280: 3d9b bc3e e0f9 9fbe c49c 90ba b61a 633e
00000290: aca7 2d3d af13 8b3e 2df5 8bbe aaac 3bbc
000002a0: 430d 1c3e cb34 f1be 5c0a 883e 5999 86bd
000002b0: 9e2d 813e 543d 8b3e ffa3 bf3c d184 e0bd
000002c0: 84d4 03be 9a40 c6be 3aaa 72bd 6dd9 043e
000002d0: 9b80 863e a723 a2be 6237 383e f36d e0be
000002e0: 9bb8 a8bb 6fd3 ef3d 5bb8 aa3e 26a1 76bd
000002f0: 41fb 28be d545 073e 395a 36bc c141 12bd
00000300: 097c 043f 2965 1dbf a4d0 3c3d 8bd2 83bb
00000310: 675e 16bf 4f16 d7bd 04f7 2ebe a7d3 81be
00000320: 7596 f8bd d9a0 c8be 5c24 133d 8090 42be
00000330: 6438 10be dec8 ccbe 6c3f e1be 9188 c43d
00000340: 429e 0d3f ebf7 b93d 9aa4 cabe 46a6 6d3e
00000350: 5270 0abe 8de6 febd e023 f53e 6235 b03e
00000360: 41e5 d4be fae7 41be 3567 033e 1409 86be
00000370: b1fd dfbc 7c07 4f3e 5e6d b13e 4469 483e
00000380: b548 e3be 076d b63e d7c8 0ebe c766 99be
00000390: 34e0 933d 31ec edbd a5e3 ac3e 7f32 cdbe
000003a0: 9641 a03e 446e 4bbe e0f3 c13c d1c0 d63d
000003b0: 6264 0f3e 7102 6b3d 0baf c93c 9560 bc3d
000003c0: 8a9c ca3d 619d b03e 2938 2bbe e3eb b9be
000003d0: 27fb 063e 3b94 cc3d 89fb 84be 23de 523e
000003e0: 1662 e2bd 3f82 cc3d 4a5b 693e eb52 013c
000003f0: 4a34 15bd a6fc 9dbe 6e62 e7be 26f8 26be
-0.24163547 0.022510368 -0.35152987 0.452653 -0.22356556 -0.10088056 0.48261255 0.1587745
0.15362136 -0.31152794 -0.2812709 0.31283712 0.14757966 0.3344879 -0.07432943 0.58570373
0.34867036 0.016083088 0.02100987 -0.12779552 0.36792597 -0.004368554 -0.09944574 0.30195165
0.21131296 0.023159496 -0.21119192 -0.23108955 -0.47255206 -0.068992846 -0.20463127 -0.095633954
-0.044477094 0.42849106 0.06864726 -0.3152289 0.078507535 -0.35594618 -0.5842985 0.1435362
0.23415382 0.3773529 0.20538062 0.039380528 -0.2268879 0.0692781 -0.17384054 0.17015548
0.23574081 -0.13748349 0.22981566 -0.14025113 -0.1520227 -0.040239476 0.25231352 0.053269416
0.20343235 -0.10464388 0.36677098 0.62866163 -0.026554024 -0.30913973 0.08600026 -0.35646564
-0.6425853 0.5042566 0.58793485 0.13467288 0.0905142 -0.51659554 0.52756363 0.10561861
0.517443 -0.29246604 0.36735857 0.17491747 0.06982858 -0.21313582 0.7664919 -0.36892632
0.06634028 -0.5373215 0.29209065 0.16519521 0.3838982 0.3054788 -0.16259313 0.6968763
0.18080063 0.072509095 -0.20509014 -0.53490084 -0.20146923 0.5788015 0.06923348 0.30384803
0.42753804 0.062240366 0.24096555 -0.4496536 1.0874361 0.00072534033 -0.009961206 -0.75644886
0.16376713 -0.720259 -0.24482898 -0.20777905 -0.0050762775 -0.07351401 -0.4993608 0.36627537
-0.106062025 0.61519027 0.41590148 -0.2546312 0.26033598 -0.01874146 -0.2448742 0.18860713
0.48927966 0.5333257 -0.33864665 0.043794174 0.19802378 -0.58287466 0.24423274 0.15012507
0.46891978 0.44282266 0.10897391 -0.27859515 0.39795408 -0.0159188 0.029090432 0.38635847
-0.53634703 -0.13495886 0.5419153 0.009670057 0.32702035 -0.12635355 -0.5973623 0.018476333
4.2563883e-05 0.2207059 0.34403834 0.40419072 0.0339635 -0.21726294 -0.42463082 -0.32633469
-0.224951 0.024480855 -0.14398786 0.8175738 0.4081984 -0.08324387 0.2981609 0.08552879
0.36837187 -0.31245327 -0.0011033048 0.22178158 0.042396232 0.27163455 -0.27335492 -0.011454741
0.15239434 -0.4711059 0.26570404 -0.065722175 0.25230116 0.27195227 0.02339363 -0.10962833
-0.12874037 -0.38721162 -0.059244372 0.12973566 0.26269993 -0.31667826 0.17989877 -0.43833885
-0.00514896 0.1171025 0.33343777 -0.060212277 -0.16502096 0.13210233 -0.011129909 -0.03570724
0.5175176 -0.61482483 0.046097413 -0.0040229014 -0.58737797 -0.10502302 -0.17086416 -0.2535679
-0.121380724 -0.39185217 0.035923347 -0.19000435 -0.14084011 -0.39997 -0.439937 0.095963605
0.5531961 0.0908049 -0.39578706 0.2320796 -0.1351941 -0.12446318 0.47878933 0.34415728
-0.41581157 -0.18936148 0.12832339 -0.261788 -0.02734265 0.20217699 0.34653753 0.19571406
-0.4439141 0.35630056 -0.13943802 -0.29961225 0.07220498 -0.116173156 0.3376743 -0.40077588
0.31300038 -0.19866282 0.023675859 0.104859956 0.14003137 0.057375375 0.0246196 0.09198109
0.09893139 0.3449507 -0.16720642 -0.3631278 0.13181745 0.0998921 -0.25973156 0.20592551
-0.11053865 0.0998578 0.2278873 0.007893304 -0.03642682 -0.30856818 -0.45192283 -0.16305599
