training/weights/torch/g2.pth (torch, 167887 bytes, 15 tensors)

hidden_state f4 [2, 1, 32]
0	0x3dcd1c07	0.100151114
1	0x3e7e3e54	0.24828464
2	0x3f5a2228	0.8520837
3	0xbedfb9de	-0.43696493
4	0xbf0b1604	-0.5433047
5	0x3f1a1f3d	0.60203916
6	0xbf7193c1	-0.9436608
7	0xbdd5b1e6	-0.10434322
8	0x3f3f78b2	0.7479354
9	0x3f19d8e9	0.60096604
10	0xbdf5edab	-0.12008222
11	0xbed67704	-0.41887677
12	0xbdf1ad52	-0.11800636
13	0xbd762dd5	-0.060102303
14	0xbf30d1a2	-0.69069874
15	0xbf099752	-0.5374652
16	0xbf2fd9e5	-0.68691856
17	0xbf128a9d	-0.5724276
18	0xbdc4c651	-0.09608138
19	0x3e8538f0	0.26020002
20	0x3f62161d	0.8831499
21	0x3c7882aa	0.0151678715
22	0xbd055b6a	-0.032557882
23	0xbf9fe32b	-1.2491201
24	0x3dc8dcd8	0.098077476
25	0xbdd3925c	-0.1033065
26	0x3f9cd7c4	1.2253346
27	0x3e610746	0.21975431
28	0x3ecd11b7	0.40052578
29	0x3fa1f930	1.2654171
30	0x3f371c81	0.7152787
31	0x3e674831	0.22586133
32	0xbd01bb35	-0.031672675
33	0xbfc4d19e	-1.537647
34	0x3f299bdd	0.66253453
35	0x3eaebf36	0.34130257
36	0xbd9e7899	-0.07737846
37	0xbf0dc406	-0.55377233
38	0x3f879ba6	1.0594375
39	0x3d83b8f7	0.064317636
40	0x3ef05b2f	0.46944568
41	0x3ea0e23d	0.31422606
42	0xbeeafd6b	-0.45896468
43	0x400ca889	2.1977866
44	0x3f207946	0.6268505
45	0x3db464ca	0.088082865
46	0xbe2a8d92	-0.16655567
47	0xbefa8825	-0.48931995
48	0xbed2332e	-0.41054672
49	0xbf2b0683	-0.6680681
50	0xbf595c60	-0.8490658
51	0xbf9482f9	-1.160247
52	0x3e9b7421	0.30362037
53	0x3e5780fa	0.21045294
54	0x3f35c868	0.7100892
55	0x3e53812a	0.20654741
56	0x3f87bb1f	1.060398
57	0x3eb038ba	0.3441828
58	0x3ef633b2	0.48086315
59	0xbb745a65	-0.0037285325
60	0xbf8fdee2	-1.1239893
61	0xbe9b0af4	-0.30281794
62	0x3df93094	0.12167469
63	0x3f8684bc	1.0509257

gru.weight_ih_l0 f4 [96, 136]
0	0xbfd233ef	-1.6422099
1	0x3e125ead	0.14293928
2	0xbfc76060	-1.5576286
3	0x3f050a33	0.5196869
4	0xc00fe1c6	-2.248155
5	0xbdcec571	-0.10096253
6	0xc03a1a5d	-2.907859
7	0xbdb3254c	-0.08747348
8	0xbfebfd65	-1.8436705
9	0xbcce0e69	-0.025153356
10	0xbf14a27f	-0.5806045
11	0xbf0e9d44	-0.5570872
12	0x3f867739	1.0505134
13	0xbce16c2c	-0.0275174
14	0x3f28d2dd	0.6594675
15	0xbeae7747	-0.34075376
16	0x3d283925	0.041070122
17	0x3e878bfa	0.2647398
18	0xbee5a19b	-0.44849858
19	0xbeeedc22	-0.46652323
20	0xbf856a34	-1.0423036
21	0x3f516244	0.81790566
22	0x3db4170c	0.08793458
23	0xbd2ea789	-0.042640243
24	0x3f821582	1.0162814
25	0xbeeabf65	-0.45849147
26	0x3ff63392	1.9234488
27	0xbe3ac98c	-0.18240947
28	0x3f807766	1.0036438
29	0xbf893717	-1.0719937
30	0x3fc5caf6	1.5452564
31	0xbf075e0a	-0.5287787
32	0x3f599a38	0.85000944
33	0x3bca43c5	0.0061726295
34	0x3e559858	0.20858896
35	0x3f477727	0.7791619
36	0xbf5dac88	-0.86591387
37	0x3f9e990d	1.2390457
38	0xbef67753	-0.48137912
39	0x3fce49a2	1.6116221
40	0x3e84c508	0.25931573
41	0x3fc7aae8	1.5599031
42	0x3f319938	0.6937442
43	0x40050496	2.078405
44	0xbfcc5245	-1.5962607
45	0x401c13ac	2.4387007
46	0xbf92f292	-1.1480277
47	0x400f5127	2.2393281
48	0xbf9bb9f5	-1.2166125
49	0x3fe1279d	1.7590214
50	0x3d0b0c4d	0.033947278
51	0x3fc2c0f7	1.5215138
52	0xbdc2f697	-0.095196895
53	0x3f8d65be	1.1046674
54	0xbe086e35	-0.1332329
55	0x400008ae	2.0005298
56	0xbd0dd655	-0.03462823
57	0x3ebce424	0.36892807
58	0xbe840190	-0.25782442
59	0xbfd2bc4d	-1.6463715
60	0xbe54d865	-0.20785673
61	0xbffb74d8	-1.9645033
62	0x3f42d0c6	0.76099813
63	0xbe45afb3	-0.19305305
64	0xbc95f035	-0.018303016
65	0xbfb9f0fc	-1.4526668
66	0x3d6e4fa5	0.058181424
67	0xbe222373	-0.15833835
68	0xbe526778	-0.20547283
69	0xbfa16752	-1.2609656
70	0xbf7ad670	-0.97983456
71	0xbf2ca64f	-0.67441267
72	0xc02b8172	-2.6797757
73	0x3f780466	0.9688171
74	0xbfcc2872	-1.5949843
75	0x4002560d	2.0365021
76	0x3e2219fa	0.15830222
77	0x3fcdb6a6	1.6071365
78	0x3e628109	0.22119536
79	0x3fa4a059	1.2861434
80	0xbe7245f4	-0.23659497
81	0x3f9af2df	1.2105368
82	0xbf74f778	-0.9569011
83	0x3f9e5cab	1.237203
84	0xbe57cefc	-0.21075052
85	0x3f9d6b65	1.2298399
86	0xbf3bbafa	-0.7333218
87	0x3f810464	1.0079465
88	0x3f263d5b	0.6493737
89	0x3fbf4996	1.4944332
90	0x3fd23d27	1.6424912
91	0x3f627cc5	0.88471633
92	0x3de1c606	0.11024098
93	0x3f3a729d	0.72831136
94	0xbf2d01bb	-0.67580765
95	0x3fb66f45	1.4252707
96	0xbcc186df	-0.023623882
97	0xbc1d6061	-0.009605498
98	0x3fe37b84	1.7772069
99	0x3f1b3ba5	0.60637885
100	0x3fb24c3f	1.3929518
101	0x3f2bc261	0.67093474
102	0x3f73eccf	0.95283216
103	0xbf02ab23	-0.51042384
104	0xbefab062	-0.48962694
105	0x3e762b8a	0.24040046
106	0x3cce70f6	0.025200348
107	0xbcd49a1b	-0.02595239
108	0x3f971144	1.1802144
109	0xbf3895f7	-0.7210383
110	0x3eddb1f9	0.43299845
111	0x3fcbc70f	1.5920123
112	0x3faaf499	1.3355895
113	0x3ef986ab	0.48735556
114	0x3f5b424a	0.85648024
115	0x3e0d80a1	0.138186
116	0x3f2e9b74	0.6820595
117	0x3e669792	0.22518757
118	0x3f7c7b22	0.98625386
119	0x3f837115	1.0268885
120	0x3e18e711	0.14931895
121	0x3e92a6ff	0.28643033
122	0xbd71e4e3	-0.059056174
123	0x3f3d3fe0	0.7392559
124	0xbedfde9b	-0.43724522
125	0x3efda2ae	0.49538177
126	0xbf3c5006	-0.73559606
127	0x3f31b826	0.69421613
128	0x3f43f81b	0.76550454
129	0x3f129510	0.572587
130	0x3e8454d2	0.25845963
131	0x3fa102f7	1.257903
132	0x3ed6253d	0.41825286
133	0x3d02e060	0.031952262
134	0x3f444d8f	0.76680845
135	0x3f6c9654	0.9241688
136	0x3ff638ba	1.9236062
137	0x3f5dfda7	0.8671517
138	0x3f7f4f64	0.99730515
139	0xbfd9c690	-1.7013721
140	0x3f283b29	0.6571527
141	0xbf9e030d	-1.2344681
142	0x3f53449d	0.8252657
143	0xbf24658b	-0.6421744
144	0xbf87c1d8	-1.0606031
145	0xbffe3daf	-1.9862574
146	0xbf1440fe	-0.5791167
147	0xbf6945d5	-0.9112218
148	0xbedd6690	-0.4324231
149	0xbd716518	-0.0589343
150	0xbf0fc5b2	-0.56161034
151	0xbef3512b	-0.47522864
152	0xbf64c365	-0.8936065
153	0xbff42ddc	-1.9076495
154	0xbde4759e	-0.11155246
155	0x3dbb3035	0.09140054
156	0x400cdd32	2.2010007
157	0xc021c511	-2.527653
158	0x3dda2fd5	0.106536545
159	0xbec8461f	-0.39115998
160	0xbe851a55	-0.25996652
161	0xbe3bc3aa	-0.18336359
162	0xbfc4e3ed	-1.5382057
163	0x3ce113f9	0.027475344
164	0xbfda5640	-1.7057571
165	0xbd12d842	-0.03585077
166	0xbf95792f	-1.1677607
167	0x3eaec6b9	0.34135988
168	0xc004c9e8	-2.0748234
169	0x3ee5766d	0.44816914
170	0x3f7a19d8	0.97695684
171	0xbf8e8d90	-1.1136951
172	0x3f62210c	0.88331676
173	0xbf82858e	-1.0197008
174	0x3d637fcc	0.0555418
175	0xbfdd3fca	-1.7285092
176	0x3f3db450	0.7410326
177	0xc0225c8f	-2.5368993
178	0x3e62925f	0.22126149
179	0xc01e0b04	-2.4694223
180	0x3f0b1255	0.5432485
181	0xbf3a0921	-0.7267018
182	0xbf208803	-0.6270754
183	0xbf5a440c	-0.8526008
184	0x3f0ffaad	0.56241876
185	0xbf9175ec	-1.1364112
186	0xbe167176	-0.1469172
187	0x3ecc902a	0.39953738
188	0xbfe1e4b4	-1.764792
189	0xbe96f5e4	-0.29484475
190	0x3f256435	0.6460603
191	0xbeba984a	-0.36444312
192	0x3eb7c947	0.3589575
193	0xbf644e9c	-0.8918245
194	0x3f3b61b2	0.73195946
195	0xbf1af252	-0.60526
196	0x3ed0f41b	0.40811238
197	0xc0364746	-2.8481002
198	0xbdbaa4c2	-0.09113456
199	0x3e97def6	0.29662293
200	0x3e6cfa19	0.2314228
201	0x3d35c219	0.04437456
202	0x3e06d7d1	0.13168265
203	0xbfe8df3d	-1.8193127
204	0x3de42d6a	0.111414745
205	0xbfa33e4b	-1.2753385
206	0x3e94cde4	0.29063332
207	0xbe15e9fd	-0.1464004
208	0x3f4e8f42	0.80687344
209	0xbf969873	-1.1765274
210	0x3e9a7e26	0.3017437
211	0xbfb5c510	-1.4200764
212	0xbdd161e2	-0.10223748
213	0xbfd35913	-1.6511558
214	0x3e04f3e4	0.12983662
215	0x3cdcaf75	0.026939133
216	0x3f49b561	0.7879239
217	0x3f6d8a0d	0.92788774
218	0x3f1c1f7f	0.6098556
219	0x3d142c4e	0.036175065
220	0xbe4b2bec	-0.19840974
221	0xbe885a81	-0.2663155
222	0xbdbc55c8	-0.09196049
223	0xbf8781e0	-1.058651
224	0xbf5188d6	-0.8184942
225	0xbf86afd5	-1.052241
226	0xbfb5bdb1	-1.4198514
227	0xbf6734e2	-0.9031507
228	0xbf37f006	-0.7185062
229	0xbeedb2f7	-0.46425602
230	0xbe2dd806	-0.16976938
231	0xbf63eb1d	-0.8903063
232	0x3b941ef3	0.004520291
233	0xbecf801e	-0.40527433
234	0xbf47d64d	-0.7806137
235	0xbfccc88e	-1.5998704
236	0xbfdfbf57	-1.7480267
237	0xbf5fca45	-0.87418014
238	0xbfc84b6a	-1.5648015
239	0xbe6dbb6c	-0.23216027
240	0xbef528c5	-0.47882667
241	0xbf8b6d57	-1.0892743
242	0x3d574327	0.052554276
243	0xbf9e2732	-1.2355711
244	0xbf5aafb6	-0.85424364
245	0x3f875702	1.0573428
246	0x3e3e8f16	0.1860927
247	0x4072c843	3.793473
248	0xbcf33b11	-0.029691251
249	0x3fbf4077	1.4941548
250	0xbf102935	-0.56312877
251	0x3f6fedb8	0.93722105
252	0xbf87b02b	-1.0600637
253	0x3fbab9fe	1.458801
254	0xbf9596d6	-1.1686656
255	0x407d9a41	3.96254

gru.weight_hh_l0 f4 [96, 32]
0	0xbec8206c	-0.39087236
1	0xbef12df8	-0.47105384
2	0xbe7dbe59	-0.24779643
3	0x3e908eb3	0.2823387
4	0x3e17f2ca	0.1483871
5	0xbed4f439	-0.41592577
6	0x3f354ac6	0.7081722
7	0x3df3cd2c	0.11904368
8	0xbdb3da9b	-0.0878193
9	0xbf599a87	-0.85001415
10	0x3e2bdea4	0.1678415
11	0xbe8d6bc8	-0.27621293
12	0xbf1f8759	-0.623159
13	0xbf133ca2	-0.57514393
14	0x3eb78046	0.35840052
15	0xbe6d1c3b	-0.231553
16	0x3e12e7fc	0.14346308
17	0xbe97ea25	-0.29670826
18	0xbe39945b	-0.18123
19	0x3d325d2f	0.043545898
20	0x3e7f8898	0.2495445
21	0xbf874d97	-1.0570554
22	0x3f9a4eb1	1.2055265
23	0xbe91c871	-0.28473237
24	0xbe70dd41	-0.23521902
25	0x3ea8cba7	0.32967874
26	0xbe1cf3f6	-0.15327439
27	0x3f0c3ffa	0.5478512
28	0x3e97730f	0.2957997
29	0xbef33054	-0.4749781
30	0x3e2af858	0.16696298
31	0x3e678cfc	0.22612375
32	0x3c38b44e	0.011273457
33	0x3da2f9da	0.07957812
34	0xbf0050ec	-0.50123477
35	0x3c9216f6	0.017833214
36	0x3e7ef233	0.24897079
37	0xbe06aa62	-0.13150933
38	0x3f030b9a	0.5118958
39	0xbf077f18	-0.52928305
40	0x3e3b9878	0.18319881
41	0xbece8147	-0.40333006
42	0xbdd05989	-0.101733275
43	0x3f97dfc8	1.1865168
44	0xbeb3a64d	-0.35087815
45	0xbe52f9e5	-0.2060314
46	0x3d8e0352	0.06934227
47	0xbdf1b1c3	-0.118014835
48	0x3eaf0829	0.34185913
49	0x3e65a97d	0.22427936
50	0x3f09680c	0.5367439
51	0x3e2b16df	0.16707943
52	0xbecd1dd0	-0.40061808
53	0x3ce123ed	0.027482951
54	0xbebe0f55	-0.37121072
55	0x3f5fcaab	0.8741862
56	0xbe5e6436	-0.21717915
57	0xbe1fa6b1	-0.15590931
58	0x3e26d2f3	0.16291408
59	0x3d3bfdfb	0.04589651
60	0xbe733a83	-0.23752789
61	0x3e82a3b4	0.2551552
62	0x3e631d49	0.2217914
63	0xbe8fcc0c	-0.28085363
64	0x3eff168d	0.49821892
65	0xbe4519db	-0.19248144
66	0xbe645d29	-0.22301163
67	0x3e451494	0.19246131
68	0x3f0c42ed	0.5478962
69	0x3d4a8b6e	0.049449377
70	0xbe793f56	-0.24340567
71	0x3e39ff52	0.18163803
72	0xbedd1926	-0.4318325
73	0xbdbd6ac2	-0.09248878
74	0x3f70bc11	0.94036967
75	0x3e663784	0.22482115
76	0x3e69b637	0.22823416
77	0xbdbf24c0	-0.093331814
78	0xbd8d2f2e	-0.068937644
79	0x3ed850df	0.422492
80	0x3ebaec40	0.3650837
81	0xbe19ba3a	-0.15012446
82	0x3f4180a2	0.75586903
83	0xbec4f58e	-0.38468593
84	0xbf27c932	-0.65541375
85	0x3bd507bf	0.0065011675
86	0xbf5a76c3	-0.85337466
87	0xbdbd05f5	-0.09229652
88	0xbd888be4	-0.06667307
89	0x3d5e045d	0.05420338
90	0xbe18b32b	-0.14912097
91	0x3c430866	0.011903858
92	0xbee9ff23	-0.45702466
93	0xbf0fdd9a	-0.5619751
94	0xbe49a174	-0.19690496
95	0xbf04a79e	-0.51818264
96	0x3e90c3b3	0.28274307
97	0x3db04139	0.0860619
98	0xbed40926	-0.4141323
99	0x3d8fbcbc	0.0701842
100	0x3e902577	0.28153583
101	0x3d43b688	0.047781497
102	0x3f1cf5cd	0.6131256
103	0x3e900fa8	0.28136945
104	0xbe5ccbb7	-0.21562086
105	0x3e0c18eb	0.1368138
106	0x3f9846c0	1.1896591
107	0xbedc8a5d	-0.43074313
108	0x3ee65bbd	0.44991866
109	0x3e1c1cb3	0.15245323
110	0x3f21094e	0.6290482
111	0x3e285846	0.16439924
112	0xbe91dc40	-0.2848835
113	0x3f853b5b	1.0408739
114	0x3fd88d03	1.6918033
115	0x3f02410b	0.508805
116	0xbf05eb4b	-0.52312154
117	0xbe364efa	-0.17803565
118	0x3f51d54a	0.8196608
119	0xbe813dce	-0.25242466
120	0xbf19267e	-0.5982436
121	0x3d287db7	0.041135516
122	0xbe8c39e0	-0.27387905
123	0xbe0f9166	-0.14020309
124	0x3f88991c	1.0671725
125	0xbe9fe59d	-0.3122987
126	0xbdf4d9cd	-0.11955605
127	0x3ef7c30a	0.4839099
128	0x393efd51	0.0001821418
129	0x3ed126e6	0.4084999
130	0xbdba9864	-0.091110975
131	0x3efc6c39	0.49301317
132	0x3ece404d	0.40283433
133	0x3ef72c65	0.48276058
134	0xbe749862	-0.23886254
135	0xbe0ea18c	-0.13928813
136	0xbe0cd345	-0.13752468
137	0xbea6016d	-0.32422963
138	0xbeb40124	-0.3515712
139	0xbbde064d	-0.0067756535
140	0x3f79229a	0.9731842
141	0xbed582ee	-0.41701454
142	0x3ea3bd3b	0.3198031
143	0x3dae8429	0.08521301
144	0x3dd66415	0.10468308
145	0x3f1b40f7	0.60646003
146	0xbe9ea01d	-0.30981532
147	0xbec96bc4	-0.3934003
148	0xbf0b587b	-0.54431885
149	0xba64151f	-0.0008700657
150	0xbfc8d46a	-1.5689824
151	0x3d467064	0.048447028
152	0x3dba987f	0.091111176
153	0xbeb2a480	-0.3489113
154	0x3baca606	0.005268815
155	0x3d1ebe45	0.038755674
156	0x3f0f9dfc	0.5610044
157	0xbee4fe9a	-0.44725496
158	0xbea4a22a	-0.3215497
159	0xbefa747c	-0.48916996
160	0xbf744c52	-0.95428956
161	0xba44f73c	-0.00075136474
162	0xbeda0d51	-0.42588285
163	0x3e237b95	0.15965112
164	0xbee3e02c	-0.44506967
165	0x3ec38efb	0.38195023
166	0x3e83dfd4	0.25756705
167	0x3f064c1d	0.5245989
168	0x3eb87b6a	0.36031657
169	0xbf293218	-0.6609206
170	0x3eaa6caa	0.3328603
171	0x3e66c5f5	0.22536452
172	0x3e5b6fef	0.21429418
173	0x3fa74489	1.306779
174	0xbec8143f	-0.39077947
175	0x3ebb4bc9	0.36581257
176	0xbdd2aca4	-0.10286835
177	0xbe98e914	-0.29865324
178	0x3f5d563b	0.864597
179	0xbd2263ae	-0.039645843
180	0xbf2c635c	-0.6733911
181	0x3eae019f	0.33985612
182	0xbf0a8b1e	-0.54118526
183	0x3ea39bed	0.319549
184	0x3f5fd49d	0.874338
185	0x3ec1c7d8	0.3784778
186	0xbef4b138	-0.47791457
187	0x3f9a9856	1.2077739
188	0xbf2b34b9	-0.66877323
189	0x3d618b6a	0.055064596
190	0xbf1111c5	-0.5666774
191	0xbef5784c	-0.47943342
192	0x3d353f41	0.044249777
193	0xbecbefd7	-0.3983142
194	0xbf5ef02c	-0.87085223
195	0xbdc083bc	-0.09400126
196	0x3ea44688	0.3208506
197	0xbe7fc218	-0.24976385
198	0x3f2bc54d	0.6709793
199	0xbf9cd26e	-1.2251718
200	0x3df4cd40	0.11953211
201	0x3d2c1024	0.04200758
202	0xbd554829	-0.05207077
203	0x3f2bff20	0.67186165
204	0xbe0fd128	-0.1404463
205	0x3f117c30	0.5683012
206	0xbf1cdad4	-0.61271405
207	0xbea2158d	-0.31657067
208	0x3dac67bc	0.08418223
209	0x3d155d76	0.036466084
210	0x3e2f8bd6	0.17143187
211	0x3f83b2e0	1.0288963
212	0xbead7f20	-0.3388605
213	0x3e20d843	0.15707497
214	0x3eb5acad	0.35483304
215	0x3f80ada3	1.005299
216	0x3c748cd9	0.014926159
217	0x3efc1750	0.49236536
218	0x3e3b9624	0.18318993
219	0xbe30377e	-0.17208669
220	0x3ea72346	0.326441
221	0x3c8c7276	0.017144423
222	0xbe4d776c	-0.20065087
223	0xbf921046	-1.1411216
224	0xbf97799e	-1.183399
225	0x3f69589a	0.9115082
226	0x3e41abe0	0.18913221
227	0x3e3a3af8	0.18186557
228	0x3f34eb3c	0.7067144
229	0xbfc06460	-1.5030632
230	0x3ed97cbd	0.4247798
231	0xbe5f9e19	-0.21837653
232	0xbe8fdc35	-0.28097692
233	0xbeb864c6	-0.36014384
234	0xbf4f4e1e	-0.8097857
235	0x3ccb83e5	0.024843166
236	0xbf13fac7	-0.5780453
237	0xb9b7beee	-0.00035046734
238	0xbdb9eef9	-0.090787835
239	0xbda5c847	-0.080948405
240	0xbea0a6be	-0.31377214
241	0x3d685dae	0.056729965
242	0xbf4cb98c	-0.7997062
243	0x3ea8d9b2	0.32978588
244	0xbf0e9467	-0.55695194
245	0x3fab57f9	1.3386222
246	0x3db05f41	0.08611918
247	0x3e30ffe3	0.17285113
248	0x3dd90460	0.105965376
249	0xbdc49ec0	-0.09600592
250	0xbf860484	-1.0470128
251	0xbe598591	-0.21242358
252	0x3e9c321e	0.30506986
253	0x3edb9df1	0.42893937
254	0xbf08fcae	-0.5351056
255	0x3ed4be1c	0.41551292

gru.bias_ih_l0 f4 [96]
0	0xbe3f4d25	-0.18681772
1	0xbd460b04	-0.04835035
2	0x3e0505e0	0.12990522
3	0x3e325036	0.1741341
4	0x3dbcc260	0.092167616
5	0x3ea9a5ca	0.331343
6	0xbeb530f5	-0.35388914
7	0x3d8946e7	0.06702977
8	0xbe05aa34	-0.13053209
9	0xbd927433	-0.071510695
10	0x3deed009	0.11660773
11	0x3e4aece4	0.19816929
12	0x3d3be2b3	0.045870494
13	0xbdde39c8	-0.10850865
14	0x3db6516b	0.08902248
15	0x3d95a1e0	0.07306266
16	0xbe925e2f	-0.2858748
17	0xbd60eae3	-0.054911505
18	0xbc2e8e78	-0.010654084
19	0x3c1b1997	0.00946655
20	0xbd167b0f	-0.03673845
21	0x3e2865be	0.16445062
22	0x3e8d6731	0.2761779
23	0x3d0edbbe	0.03487753
24	0x3da2908e	0.07937728
25	0x3cb21a63	0.021741098
26	0x3e9f8fe9	0.31164482
27	0xbe229216	-0.1587604
28	0xbe816fb9	-0.2528055
29	0xbd95244a	-0.07282312
30	0xbdf8db08	-0.12151152
31	0x3d95157b	0.07279488
32	0xbdb39e2b	-0.087704025
33	0x3e3a21a3	0.18176894
34	0xbe9c8037	-0.3056657
35	0x3e807ce2	0.25095278
36	0xbd11a3ee	-0.035556726
37	0xbf02f638	-0.5115695
38	0x3d9dbcf2	0.07702054
39	0xbf8715d8	-1.0553541
40	0xbdae1bed	-0.0850142
41	0x3e52773f	0.20553301
42	0x3ceb1ad2	0.028699312
43	0xbf878ad3	-1.0589241
44	0xbf391415	-0.7229627
45	0xbd4ce2f1	-0.050021116
46	0xbf19eb64	-0.601248
47	0x3e81bd7d	0.2533988
48	0x3e1c4d3b	0.15263836
49	0x3d2e3a78	0.04253623
50	0x3e710be1	0.23539688
51	0xbf699213	-0.91238517
52	0x3de9659b	0.11396333
53	0xbfd9c67e	-1.70137
54	0x3dc9316f	0.09823882
55	0xbf2d7e22	-0.6777059
56	0xbe92d758	-0.2867992
57	0x3ea2b8c6	0.31781596
58	0xbfd52b63	-1.6653866
59	0xbe9b1e23	-0.3029643
60	0x3e264b30	0.1623962
61	0xbd31a7b2	-0.043372817
62	0xbfb28863	-1.3947872
63	0xbf3f8d27	-0.74824756
64	0x3d64d29b	0.05586491
65	0x3a0595fe	0.0005095898
66	0x3d734aef	0.059397634
67	0x3c684284	0.014176015
68	0xbc28be5e	-0.010299293
69	0xbd40e0f2	-0.047089525
70	0xbab4258d	-0.0013744101
71	0x3d9b0cf0	0.07570827
72	0x3d229b61	0.039698962
73	0xbd21350f	-0.03935724
74	0xbcfcdbd3	-0.03086654
75	0xbe0bc23a	-0.1364831
76	0x3da2be56	0.0794646
77	0xbb648852	-0.0034871292
78	0x3d1fc860	0.039009452
79	0xbda710a0	-0.08157468
80	0xbc813d12	-0.01577619
81	0xbdaf53f4	-0.08560935
82	0xbd5b81c5	-0.053590555
83	0xbc57bd8b	-0.013167749
84	0x3d119272	0.03554005
85	0xbe1af734	-0.15133363
86	0xbd22fbe7	-0.039791014
87	0xbe0151e6	-0.12628898
88	0x3dc4a367	0.09601479
89	0xbd823802	-0.06358339
90	0x3e205db3	0.15660743
91	0xbc2315e4	-0.00995395
92	0x3cde1def	0.027113883
93	0xbc2d5546	-0.010579413
94	0x3df6dd40	0.12053919
95	0x3d96e1d7	0.07367294

gru.bias_hh_l0 f4 [96]
0	0xbe2c6d03	-0.1683846
1	0xbe3c8128	-0.18408644
2	0xbd83b402	-0.06430818
3	0x3e12471c	0.14284939
4	0x3e056a82	0.13028911
5	0x3e9d7adc	0.30757797
6	0xbe07d44f	-0.13264583
7	0x3c964917	0.018345399
8	0xbdd7878a	-0.10523899
9	0x3d070afc	0.03296946
10	0x3dfd7090	0.12374985
11	0x3e1e6a3f	0.15470217
12	0x3d82ffdb	0.06396457
13	0x3d386054	0.04501374
14	0x3e4d96f3	0.20077114
15	0x3e6e5a42	0.23276618
16	0xbe171a86	-0.14756212
17	0x3dd9faa3	0.10643508
18	0xbd9dbdfd	-0.07702253
19	0xbe0acd83	-0.13554959
20	0xbda8e25a	-0.08246298
21	0x3d32d500	0.043660164
22	0x3c20c045	0.009811466
23	0x3d91a751	0.07111991
24	0x3e52226c	0.20520943
25	0x3d8a38bc	0.067491025
26	0x3ea08b0a	0.31356078
27	0x3d22bfeb	0.03973381
28	0x3d0736e4	0.033011332
29	0xbe586b9d	-0.21134801
30	0x3de83381	0.113379486
31	0xbe40a625	-0.18813379
32	0x3d95cb75	0.07314197
33	0x3e9786a7	0.2959492
34	0xbe717097	-0.23578106
35	0x3e04e5a0	0.1297822
36	0x3d872bda	0.06600161
37	0xbf068f45	-0.5256236
38	0x3d42d397	0.04756507
39	0xbf788105	-0.9707187
40	0x3d108094	0.03527887
41	0x3def9a13	0.11699309
42	0x3e837d72	0.25681645
43	0xbf7d4edf	-0.9894847
44	0xbf5b1544	-0.85579324
45	0xbe8f5912	-0.27997643
46	0xbf53d2de	-0.8274363
47	0x3da6421f	0.0811808
48	0x3df86882	0.12129308
49	0x3e3e28c1	0.18570234
50	0x3e589113	0.21149091
51	0xbf6f46c8	-0.9346738
52	0x3dfff328	0.1249755
53	0xbfbdce12	-1.4828513
54	0xbdd3def0	-0.10345256
55	0xbf019287	-0.5061421
56	0xbd5e930e	-0.05433946
57	0x3ee643a6	0.44973487
58	0xbfdf8687	-1.746293
59	0xbee4d1b3	-0.44691238
60	0x3eb1fbe5	0.34762493
61	0x3d23cc75	0.039989907
62	0xbfaf662f	-1.3703059
63	0xbf1ec068	-0.6201234
64	0xbdfed781	-0.12443448
65	0x3d134779	0.035956834
66	0xbe2342cc	-0.1594345
67	0xbc1a2c1d	-0.0094099315
68	0x3d9ab448	0.07553917
69	0x3d373aac	0.04473369
70	0x3d27b9ff	0.040948864
71	0xbe1d2e1a	-0.15349618
72	0xbcedb8f0	-0.02901885
73	0xbd9918f8	-0.074754655
74	0x3d17adc5	0.037030954
75	0x3e6a7eba	0.22899905
76	0xbe2d1d83	-0.16905789
77	0xbc0c16d4	-0.0085503645
78	0xbd900483	-0.070321105
79	0x3e0821fd	0.13294216
80	0x3c749169	0.014927247
81	0x3e2b8004	0.16748053
82	0x3da467c9	0.08027608
83	0x3c6754ac	0.014119308
84	0xbd8fff49	-0.07031114
85	0x3e903df3	0.28172264
86	0x3dd3d752	0.103438035
87	0x3e7511f9	0.23932637
88	0xbde6d780	-0.11271572
89	0x3e187301	0.1488762
90	0xbe849c32	-0.25900418
91	0x3d0a9be9	0.033840094
92	0xbd54703e	-0.051864855
93	0xbcaf2fc9	-0.02138509
94	0xbe6d4beb	-0.23173492
95	0xbe2aed8b	-0.16692178

gru.weight_ih_l0_reverse f4 [96, 136]
0	0xbfadcb4a	-1.3577664
1	0x3ea9089e	0.33014387
2	0xbfe2f149	-1.7729884
3	0x3f606ef4	0.876693
4	0xc0150733	-2.3285644
5	0x3eb8c2f3	0.36086234
6	0xc025f183	-2.5928657
7	0x3e83cb7a	0.25741178
8	0xc0052c11	-2.0808146
9	0x3de394a8	0.11112338
10	0xc00ac3e6	-2.1682067
11	0xbe61bebc	-0.22045416
12	0xbfe93323	-1.8218731
13	0xbe1641a8	-0.14673483
14	0xbfb8c8e7	-1.443631
15	0xbf1b5caa	-0.6068827
16	0xbfc319c5	-1.5242239
17	0xc00f5991	-2.2398417
18	0xbfd6cd0c	-1.6781325
19	0x3f4d4e67	0.8019776
20	0xbe473615	-0.19454224
21	0xbee6d4f9	-0.4508436
22	0xbd68e51f	-0.056859132
23	0xbfad7442	-1.3551104
24	0xbf176ffe	-0.5915526
25	0xc00067ae	-2.006328
26	0xbe1ad1b4	-0.15119058
27	0xbe04d990	-0.12973619
28	0x3f90fa5e	1.1326406
29	0xbf258011	-0.6464854
30	0x3ef2da3f	0.47432134
31	0x3fd911c3	1.6958545
32	0x3fd5cd16	1.6703212
33	0x3f3740fc	0.71583533
34	0xbea63f51	-0.32470182
35	0x3db6efc0	0.089324474
36	0x3f1b635c	0.60698485
37	0x3e048354	0.12940723
38	0x3f01ca6d	0.506995
39	0x3dfec5e3	0.12440088
40	0x3f896ca4	1.073628
41	0x3edf78a5	0.43646732
42	0x3f34f391	0.7068415
43	0x3d6a93e6	0.057269953
44	0x3f76bdac	0.96383166
45	0x3fc3677d	1.5265957
46	0xbeadaf77	-0.33922932
47	0xbe261561	-0.16219093
48	0x3d33c055	0.043884594
49	0x3e4c253c	0.19936079
50	0x3f818573	1.011885
51	0x3fb34491	1.40053
52	0x3fa8bf00	1.3183289
53	0xbf645821	-0.89196974
54	0xbe04527d	-0.12922092
55	0x3eb4d566	0.3531906
56	0xbd3ed2e2	-0.046587832
57	0x3d4d809d	0.050171483
58	0xbf0124d2	-0.5044681
59	0xbc64a701	-0.013955832
60	0x3deb6eaf	0.114957206
61	0x3e8132d5	0.25234094
62	0x3de0ecf7	0.109826975
63	0x3e039c9c	0.1285271
64	0x3e8fc0e3	0.28076848
65	0xbeb56d2f	-0.35434863
66	0xbe65a591	-0.2242644
67	0xbebd42a8	-0.36964917
68	0xbefd75a2	-0.4950381
69	0xbf4e2b27	-0.80534595
70	0xbf5d2725	-0.86387855
71	0xbf09c5d3	-0.5381748
72	0x3f9d3222	1.2280924
73	0xbe859369	-0.26089028
74	0x3fbc9e38	1.4735785
75	0x3e3dfb7c	0.18552965
76	0x3fdccfd6	1.7250926
77	0x3e9eb683	0.3099862
78	0x3f963093	1.1733574
79	0xbd8d778f	-0.069075696
80	0x3e631e6a	0.22179571
81	0x3e22bc51	0.1589215
82	0x3ff1b6e8	1.8883944
83	0x3edcf062	0.43152148
84	0x3f519626	0.81869733
85	0xbe556e88	-0.20842946
86	0xbc82f018	-0.015983626
87	0x3ea2bad2	0.31783158
88	0xbf3c9c55	-0.73676044
89	0x3f509d82	0.8149034
90	0xbdec1718	-0.11527842
91	0xbe6a0256	-0.22852454
92	0xbf58d834	-0.847049
93	0x3f75ab1e	0.9596423
94	0xbf1500d9	-0.5820442
95	0x3e45d461	0.19319297
96	0x3fbfa4fc	1.4972224
97	0x3fc68ab7	1.5511082
98	0x3d85978d	0.06523047
99	0x3f85feb8	1.0468359
100	0xbf0e7e79	-0.5566173
101	0x3f26f652	0.65219605
102	0x3ef43f1e	0.47704405
103	0x3fd3f32d	1.6558586
104	0x3eb1e8a2	0.34747797
105	0x3f8a80f2	1.0820601
106	0x3e71bdb1	0.23607518
107	0x3fb245ab	1.3927511
108	0xbede321f	-0.43397614
109	0x3fafe982	1.3743136
110	0x3ea318a5	0.3185474
111	0xbe95e6dc	-0.29277694
112	0xbf6f2b05	-0.9342502
113	0x3f860202	1.0469363
114	0x3f0f9238	0.5608249
115	0x3f709768	0.9398103
116	0x3f1c0efd	0.6096037
117	0x3fb0e24d	1.3819062
118	0xbf65b6f3	-0.89732283
119	0x3ff7ece6	1.9369171
120	0x3fd4b008	1.661622
121	0x3f6ccf4e	0.9250382
122	0x3e64e56a	0.2235314
123	0x3f86d0a5	1.0532423
124	0xbf811589	-1.0084697
125	0x3f866ef2	1.0502608
126	0x3ee61be5	0.44943157
127	0x3f5bca7b	0.85855836
128	0xbf8a0243	-1.078194
129	0x3fb249cc	1.3928771
130	0x400940f2	2.144589
131	0xbe021fe7	-0.12707482
132	0xbf144fa6	-0.57934034
133	0x3ffb7833	1.9646057
134	0xbf969e0f	-1.1766986
135	0xbe8d0e13	-0.275498
136	0xbe9e90b6	-0.3096978
137	0xbf7e8726	-0.9942497
138	0x3ed40220	0.4140787
139	0x3ef49dac	0.47776544
140	0xbebdd4bf	-0.37076375
141	0xbfbb08cc	-1.461206
142	0xbe156c6b	-0.1459214
143	0xbe07ed7e	-0.1327419
144	0x3e8af4a9	0.27139786
145	0xbe52caec	-0.20585221
146	0xbf178c5c	-0.59198546
147	0xbf9ff119	-1.2495452
148	0x3fad3a77	1.3533467
149	0x3e60c2b4	0.21949273
150	0x3f090886	0.5352863
151	0x3f2218b6	0.63318956
152	0xbf7f8c76	-0.998237
153	0x3d327ce9	0.043576155
154	0xbd29f798	-0.04149589
155	0x3f060e3e	0.5236548
156	0x3f92245a	1.1417344
157	0x3e3d88d0	0.18509221
158	0x3f2a4276	0.6650766
159	0xbda96472	-0.082711115
160	0x3e6ca2b8	0.23108947
161	0xbf412c82	-0.7545854
162	0x3f130e82	0.5744401
163	0xbfa38143	-1.2773823
164	0x3f396ccb	0.7243163
165	0xbfc60cbe	-1.5472639
166	0xbeb00cc2	-0.34384733
167	0xbf1af1c8	-0.6052518
168	0xbe043fe9	-0.12915005
169	0xbff7bca7	-1.9354447
170	0xbe9ae97a	-0.30256253
171	0xbe34accb	-0.1764404
172	0x3f2fcb5d	0.6866968
173	0x3faf5e48	1.3700647
174	0xbb99fd6b	-0.004699399
175	0x3ed4d880	0.41571426
176	0xbf798973	-0.97475356
177	0x3ebd559d	0.3697938
178	0xbf8202d5	-1.0157114
179	0x3ef83c81	0.4848366
180	0xbf0ef6ed	-0.5584553
181	0xbf8c0193	-1.093798
182	0xbf3c36c1	-0.7352105
183	0xbf61af14	-0.88157773
184	0xbfabec88	-1.3431559
185	0xbf60c1a7	-0.8779549
186	0xbe1eef55	-0.15520985
187	0xbe59e84f	-0.21280025
188	0xbf96a521	-1.1769143
189	0x3e05eb76	0.13078102
190	0xbeaca174	-0.3371693
191	0x3e80524d	0.2506279
192	0xbf1bd348	-0.60869265
193	0xbef4b29b	-0.47792515
194	0xbe24200f	-0.16027854
195	0x3ecb6f7a	0.39733487
196	0xbf94ae5d	-1.1615711
197	0x3edd9aa0	0.43282032
198	0xbf8300fc	-1.0234675
199	0x3ee3b8a3	0.44476804
200	0xbf62610b	-0.88429326
201	0xbe3325b0	-0.17494845
202	0xbff15ae7	-1.8855866
203	0xbf325940	-0.69667435
204	0xbf7e0024	-0.99218965
205	0x3f4b6c8f	0.7946252
206	0xbfc9fdec	-1.5780616
207	0xbf277acd	-0.65421754
208	0xbd4fea5d	-0.050760616
209	0x4004624a	2.068499
210	0xbfa31a12	-1.2742331
211	0x3f643f92	0.891595
212	0xbfb1bac0	-1.3885117
213	0xbd1d07fa	-0.038337685
214	0xbf192060	-0.59815025
215	0xbcb041df	-0.021515785
216	0xbf8393c9	-1.0279475
217	0x3f5092af	0.8147382
218	0xbef8846d	-0.48538533
219	0x3f208662	0.6270505
220	0xbfc6412d	-1.548864
221	0xbbd7d67a	-0.006586847
222	0xbfec5556	-1.8463542
223	0xbe4d6f58	-0.20062006
224	0xbeeb53ad	-0.45962277
225	0xbe433da1	-0.19066478
226	0xbf6c0308	-0.92192125
227	0xbe9aee93	-0.30260143
228	0xbfd58f21	-1.6684304
229	0xbf238bf0	-0.638854
230	0xbf8185b6	-1.011893
231	0xbf2bf208	-0.67166185
232	0x3e850c9d	0.25986186
233	0x3de80ff3	0.11331167
234	0x3f2861b6	0.65774095
235	0x3f2a9442	0.66632473
236	0xbf3032a5	-0.6882728
237	0x3fbf5734	1.4948487
238	0xbec343a2	-0.38137537
239	0x3f1a709f	0.60328096
240	0xbecb7d49	-0.39744022
241	0x3f5ac8dd	0.85462743
242	0x3fb11713	1.3835167
243	0xbe1eeb34	-0.1551941
244	0x3f8be4a8	1.0929155
245	0xbf3140a6	-0.6923927
246	0xbf751542	-0.9573556
247	0xbe95c147	-0.2924902
248	0xbf47cd1c	-0.7804735
249	0xbee5343c	-0.44766414
250	0x3eacd33d	0.33754912
251	0x3f0515a6	0.5198616
252	0x3f37a0f3	0.71729964
253	0x3eb87789	0.36028698
254	0x3f0f30fd	0.55934125
255	0xbe870995	-0.26374498

gru.weight_hh_l0_reverse f4 [96, 32]
0	0x3dd80a6b	0.10548862
1	0x3ee253c5	0.44204536
2	0x3db5f8bc	0.08885333
3	0x3ebb5880	0.36590958
4	0xbe6e0c71	-0.23246934
5	0x3ef7c34b	0.48391184
6	0xbe0f4cf4	-0.13994199
7	0xbe97594a	-0.2956031
8	0xbfb0ecc5	-1.3822256
9	0x3eba1e7b	0.3635138
10	0xbf0b7adf	-0.5448436
11	0xbef66bf5	-0.4812924
12	0xbc41177d	-0.011785385
13	0x3f30858a	0.68953764
14	0x3f89d639	1.07685
15	0xbf4646a3	-0.77451533
16	0xbec16cef	-0.37778422
17	0xbe9b827e	-0.30372995
18	0xbe0a6011	-0.13513209
19	0x3d951a4e	0.07280408
20	0x3e6f52c2	0.23371413
21	0xbe99b969	-0.3002427
22	0xbe868a3f	-0.26277348
23	0x3e035d1a	0.12828484
24	0xbf4487ee	-0.7676991
25	0xbf8ee1eb	-1.1162695
26	0x3d83cc58	0.0643546
27	0x3d7435e5	0.05962171
28	0xbed3f63e	-0.41398805
29	0x3f6db126	0.9284843
30	0xbe80fffc	-0.251953
31	0x3ea44ad2	0.32088333
32	0xbe295910	-0.16537881
33	0x3ebbc739	0.36675432
34	0xbe1ab580	-0.151083
35	0x3d59129a	0.052996255
36	0x3eee0cc8	0.46494126
37	0xbeaa725c	-0.33290374
38	0xbebfffd5	-0.37499872
39	0xbef8777e	-0.48528665
40	0xbe67b2a2	-0.22626737
41	0xbe87aaac	-0.264974
42	0x3cfd9761	0.030955972
43	0xbdeea5dd	-0.1165273
44	0xbef12393	-0.47097453
45	0xbf53c0cc	-0.8271606
46	0xbe4ec50b	-0.20192353
47	0xbeebaa81	-0.46028522
48	0xbd2e1b2e	-0.04250639
49	0x3a27ddf0	0.00064036157
50	0x3d83a4ef	0.06427943
51	0xbd952cde	-0.07283948
52	0x3dd46c55	0.10372225
53	0x3e8d1faf	0.27563235
54	0xbeedb22b	-0.46424994
55	0xbe3ed7f4	-0.18637067
56	0xbf4776a9	-0.77915436
57	0xbeac5e7e	-0.33665842
58	0x3db2d7b8	0.08732551
59	0x3fa867d7	1.315669
60	0x3e888484	0.266636
61	0x3f2d2903	0.67640704
62	0xbf0c6b3f	-0.54851145
63	0xba4b0450	-0.0007744478
64	0x3f8edb2a	1.1160634
65	0x3ef1d661	0.4723387
66	0xbf26abd1	-0.6510592
67	0xbe74bacb	-0.23899381
68	0x3fb1400e	1.3847673
69	0x3f16327c	0.58670783
70	0x3e35040f	0.1767733
71	0x3ed1fe26	0.41014212
72	0xbf1678ca	-0.5877806
73	0xbe052c61	-0.1300521
74	0xbf0fabc2	-0.56121457
75	0xbf000491	-0.5000697
76	0xbf353ed2	-0.7079898
77	0x3ea25af5	0.3171002
78	0xbec39e4a	-0.38206702
79	0xbeabd5cf	-0.3356156
80	0xbee17c5f	-0.440402
81	0x3eaf2f05	0.3421556
82	0x3ec441ab	0.3833135
83	0x3f0d3e9f	0.5517368
84	0x3da83177	0.0821256
85	0xbe32f6ba	-0.17476931
86	0x3e7e4905	0.24832542
87	0x3d864eca	0.065579966
88	0xbea04f2f	-0.31310412
89	0xbd9be488	-0.07611948
90	0xbf0803b4	-0.5313065
91	0xbeebecc3	-0.46079072
92	0x3e86d12e	0.26331466
93	0x3da4c62e	0.08045612
94	0x3f1932b5	0.59843
95	0xbf33a83d	-0.70178586
96	0xbe3a27e6	-0.18179283
97	0x3f5e1dd3	0.8676426
98	0xbe52d119	-0.20587577
99	0x3f0fd7f8	0.5618892
100	0xbda26a9f	-0.079304926
101	0x3d2ffa16	0.04296311
102	0xbda0154f	-0.07816564
103	0x3f101a1f	0.5628986
104	0xbe01a10b	-0.1265909
105	0x3ed5b8a2	0.41742426
106	0x3d4e5926	0.050377987
107	0xbd10783f	-0.035270926
108	0xbeace562	-0.33768755
109	0xbefd949f	-0.4952745
110	0x3e71f238	0.23627555
111	0x3f655516	0.89582956
112	0x3e9fde5e	0.3122434
113	0x3f243a07	0.6415104
114	0x3f02247c	0.5083692
115	0x3f9b15e6	1.2116058
116	0x3f113a91	0.5672999
117	0x3e8a158d	0.26969567
118	0x3efcd79e	0.49383253
119	0x3d1da961	0.03849161
120	0xbe270afa	-0.16312781
121	0x3dd02ce3	0.101648115
122	0xbe92a467	-0.28641054
123	0x3f1f5dab	0.622523
124	0xbd3688dd	-0.044564117
125	0x3e4d5fda	0.20056096
126	0xbf00c4a2	-0.5030004
127	0xbd766ea0	-0.060164094
128	0x3e76ee9f	0.24114464
129	0x3f586048	0.84521914
130	0x3d06fbe1	0.032955054
131	0xbf924325	-1.1426741
132	0x3e9c41a4	0.3051883
133	0x3f81584f	1.0105075
134	0x3f144b58	0.57927465
135	0x3e3e53f3	0.18586712
136	0xbe86bef1	-0.26317552
137	0xbf63dbd7	-0.89007324
138	0xbc104f66	-0.008807993
139	0xbd90257f	-0.07038402
140	0xbfa08372	-1.2540114
141	0x3f417f4f	0.7558488
142	0x401ad438	2.4192028
143	0xbf2752ae	-0.65360534
144	0x3e91d69e	0.28484052
145	0xbd3dd4b5	-0.04634543
146	0x3eedb0b1	0.46423867
147	0x3f479de4	0.77975297
148	0xbf250473	-0.64459914
149	0xbebe2c66	-0.37143248
150	0xbf7f9a1c	-0.9984453
151	0xbdf7895a	-0.120867446
152	0xbf058895	-0.5216153
153	0x3edbb9e0	0.4291525
154	0xbe447d68	-0.19188464
155	0x3d17bcc7	0.037045266
156	0xbab5f421	-0.001388196
157	0x3c20913d	0.0098002525
158	0xbf8a7ac5	-1.0818716
159	0xbed19e31	-0.40941003
160	0xbe834f2e	-0.25646347
161	0x3ede59f5	0.43428007
162	0xbdd0b6f6	-0.10191147
163	0x3edc24e5	0.42996898
164	0x3e6d9d79	0.23204602
165	0xbc0c5f52	-0.008567648
166	0xbee33aed	-0.44380894
167	0xbe900da5	-0.2813541
168	0xbf1f4cfe	-0.62226856
169	0xbe062b6b	-0.131025
170	0xbea5c528	-0.3237698
171	0xbec7e593	-0.3904234
172	0xbf873a69	-1.05647
173	0xbd97e7d2	-0.07417263
174	0x3f7af261	0.9802609
175	0xbda624a2	-0.08112456
176	0xbdbbc9ad	-0.09169326
177	0x3f12a533	0.57283324
178	0xbe6a5725	-0.22884806
179	0x3f457682	0.77133954
180	0xbe24f3b2	-0.16108587
181	0xbf0a6946	-0.54066885
182	0xbe43abe1	-0.19108535
183	0xbe4b46c4	-0.19851214
184	0xbe3673bd	-0.17817588
185	0xbec2edf3	-0.38072166
186	0xbce30925	-0.027714321
187	0x3ef8dda1	0.4860659
188	0xbe5316fe	-0.2061424
189	0xbe9be6c3	-0.30449495
190	0xbcf3e2fb	-0.029771319
191	0xbde63941	-0.11241389
192	0xbe423dde	-0.18968913
193	0xbe4971cb	-0.19672315
194	0x3dc5763a	0.096416906
195	0x3ee89737	0.45427868
196	0xbe2d40eb	-0.16919295
197	0xbe3028d1	-0.1720307
198	0xbf19d51c	-0.60090804
199	0x3f576f52	0.84154236
200	0xbe796791	-0.24355914
201	0x3f01b0e1	0.5066052
202	0xbf87a003	-1.0595707
203	0x3d9b3856	0.075791046
204	0xbe8abff3	-0.2709957
205	0x3da71a86	0.08159356
206	0xbda89c44	-0.0823293
207	0x3c3c143b	0.011479433
208	0xbecc7e2a	-0.39940006
209	0x3dca7210	0.09885037
210	0x3df6b55d	0.12046311
211	0x3ea97f20	0.331048
212	0xbed7b77c	-0.42132175
213	0xbf44e50b	-0.7691199
214	0xbec9fa95	-0.3944899
215	0xbe3c353d	-0.18379684
216	0xbe7bec5f	-0.24601887
217	0x3eb05a89	0.34444073
218	0xbf136a5c	-0.57584167
219	0xbf46c0b5	-0.776378
220	0x3e5a7a51	0.21335723
221	0xbac75d5b	-0.0015210317
222	0x3d5672f6	0.05235573
223	0x3d5362e7	0.051607993
224	0x3f47c6da	0.780378
225	0xbea8b52b	-0.3295072
226	0xbe29008d	-0.16504116
227	0xbe8d2172	-0.2756458
228	0x3f48a57b	0.78377503
229	0xbf61e607	-0.8824162
230	0xbf065b56	-0.5248312
231	0xbf45a38b	-0.7720267
232	0xbf4b69f0	-0.7945852
233	0xbea4ca2d	-0.32185498
234	0xbefd239e	-0.49441236
235	0xbf4b3c74	-0.7938912
236	0xbf1b201b	-0.60595864
237	0x3d83b821	0.06431604
238	0x400d91e0	2.2120285
239	0xbd74fe06	-0.059812568
240	0xbe97c26a	-0.29640514
241	0x3ee64a11	0.44978383
242	0xbf0b2bf3	-0.54363936
243	0x3eacb24c	0.3372978
244	0xbe9c927e	-0.30580515
245	0x3e85eae8	0.26155782
246	0x3eae7b16	0.34078282
247	0xbf78e5c4	-0.97225595
248	0xbebb17cb	-0.3654159
249	0xbf49b09d	-0.78785115
250	0xbed5aea6	-0.4173481
251	0x3e39f0fd	0.18158336
252	0xbea632af	-0.32460544
253	0xbe363803	-0.17794804
254	0xbe9a8e18	-0.30186534
255	0xbf19b694	-0.6004422

gru.bias_ih_l0_reverse f4 [96]
0	0xbc7b9c73	-0.015357125
1	0x3e778c7a	0.24174681
2	0xbc5cc78f	-0.013475313
3	0xbded07ef	-0.11573779
4	0xbe42fee3	-0.19042544
5	0xbbeffc7a	-0.0073237987
6	0xbdf240d8	-0.11828774
7	0xbe34ac5b	-0.17643873
8	0xbe3826fd	-0.17983623
9	0x3b309ac0	0.0026947707
10	0x3e29e20b	0.16590135
11	0xbde37b4e	-0.11107503
12	0x3c9fad75	0.01949189
13	0xbd98ed8a	-0.07467182
14	0x3f21bdaa	0.6318003
15	0xbc340963	-0.010988566
16	0xbe200159	-0.15625514
17	0x3deac48d	0.1146327
18	0x3e35f703	0.17770009
19	0xbde9647e	-0.113961205
20	0x3d72f6b6	0.059317313
21	0x3e5cbda3	0.21556716
22	0x3e3d1983	0.18466763
23	0x3e27515f	0.16339634
24	0xbd41213f	-0.047150847
25	0x3e75ba26	0.23996791
26	0xbc301d23	-0.010749134
27	0x3e0fe016	0.14050326
28	0x3d66b4a5	0.05632462
29	0xbe2e26e2	-0.1700702
30	0xbdf24c7a	-0.11830993
31	0x3d581984	0.05275871
32	0x3f06c906	0.5265049
33	0xbf3c3243	-0.73514193
34	0xbddf0783	-0.108901046
35	0xbe843eba	-0.25829107
36	0x3ee764bb	0.4519404
37	0x3f266e5b	0.6501214
38	0xbd9090cf	-0.0705887
39	0xbdd55be3	-0.104179166
40	0x3e0d3972	0.13791445
41	0x3e8e446f	0.27786586
42	0xbed54abe	-0.41658586
43	0xbf0ad021	-0.5422383
44	0xbfa30ade	-1.2737691
45	0x3e93239c	0.28738105
46	0xbf6253e0	-0.88409233
47	0xbf3c2d9c	-0.73507094
48	0x3dfb4f91	0.122710355
49	0x3eb4cb26	0.3531124
50	0xbea748ec	-0.32672822
51	0xbd908a45	-0.07057623
52	0x3f3025a0	0.6880741
53	0xbf3122a6	-0.69193494
54	0xbf134fdb	-0.57543725
55	0x3ee05fff	0.4382324
56	0x3c1a2a97	0.009409568
57	0xbe641311	-0.22272898
58	0x3e2c7a43	0.16843514
59	0xbf8cc8b6	-1.0998752
60	0xbf06b034	-0.52612615
61	0xbf27e311	-0.6558085
62	0xbf2975df	-0.6619548
63	0xbefea203	-0.4973298
64	0x3d7d0278	0.061769933
65	0x3d8bf86d	0.06834493
66	0x3d819ef6	0.063291475
67	0xbd7a34fc	-0.061085686
68	0x3d75ca46	0.060007356
69	0xbcee8c3f	-0.029119609
70	0xbda1bb51	-0.07897056
71	0xbacf3cec	-0.0015811003
72	0xbdadc1c2	-0.08484222
73	0xbba59af5	-0.0050538727
74	0xbcd46ebd	-0.02593171
75	0xbdd89cf9	-0.10576815
76	0x3ccb8554	0.02484385
77	0xbc72b30f	-0.014813199
78	0x3e352194	0.1768859
79	0x3d5324ee	0.05154889
80	0xbd1c75b6	-0.038198195
81	0x3c20067b	0.00976717
82	0x3def9783	0.116988204
83	0x3e02d548	0.12776673
84	0x3bc61675	0.0060451576
85	0x3e2c521f	0.16828202
86	0x3d9d28a1	0.07673765
87	0x3dd6d005	0.10488895
88	0xbdb0cab2	-0.08632411
89	0x3d40df3a	0.047087885
90	0xbca23d20	-0.019804537
91	0xbe1b20f1	-0.15149285
92	0xbd3b9b9c	-0.045802698
93	0xbc4d7cc9	-0.012541958
94	0xbe106161	-0.14099647
95	0x3d5661e8	0.052339464

gru.bias_hh_l0_reverse f4 [96]
0	0x3d37fc91	0.0449186
1	0x3e2c73b8	0.16841018
2	0xbcabee77	-0.020987732
3	0x3e4ee7a9	0.20205559
4	0xbdca6d3e	-0.098841175
5	0xbd10c2bc	-0.035341963
6	0x3c5cf38f	0.013485803
7	0xbe111f7d	-0.14172168
8	0x3d151096	0.03639277
9	0x3bd30903	0.0064402833
10	0x3de49141	0.111605175
11	0xbe3ab4da	-0.18233052
12	0x3d189980	0.037255764
13	0xbe459495	-0.19294961
14	0x3ed027d1	0.40655378
15	0xbde9d26a	-0.114170864
16	0xbea9bb2d	-0.33150616
17	0x3cef6754	0.029224075
18	0x3e0244b4	0.1272152
19	0xbc1647a9	-0.009172359
20	0x3c21f27b	0.009884472
21	0x3eb4460e	0.35209697
22	0x3d3af4ec	0.045643732
23	0xbdb35d49	-0.08758027
24	0xbded3b24	-0.11583546
25	0xbd9b3c3d	-0.07579849
26	0xbd52e7b1	-0.05149049
27	0x3e3362e3	0.17518191
28	0x3dc31801	0.09526063
29	0xbe1054cf	-0.14094852
30	0x3e01e661	0.12685539
31	0xbd9793f0	-0.07401264
32	0x3e84d71c	0.25945365
33	0xbf2f8b7c	-0.6857221
34	0xbdd354fe	-0.10318945
35	0xbdb961eb	-0.090518795
36	0x3ea5d082	0.3238564
37	0x3f183dfb	0.59469575
38	0x3da94237	0.082645826
39	0xbc8d28fe	-0.01723146
40	0x3e4b5e8e	0.19860289
41	0xbbec3fae	-0.0072097396
42	0xbecd88d4	-0.40143454
43	0xbf2278b4	-0.6346543
44	0xbf8b9587	-1.0905007
45	0x3e8f1852	0.27948242
46	0xbf8288b1	-1.0197965
47	0xbf4da2b5	-0.80326396
48	0x3db7d390	0.08975899
49	0x3f0d1b0f	0.55119413
50	0xbed20cc1	-0.41025355
51	0xbd047acd	-0.032343674
52	0x3f007c9e	0.5019015
53	0xbf3447e3	-0.7042219
54	0xbefd28ca	-0.49445182
55	0x3e25e66a	0.16201177
56	0xbdef1dd9	-0.11675615
57	0xbebd801c	-0.37011802
58	0x3d34079d	0.043952573
59	0xbf79ea5e	-0.9762324
60	0xbeb893dd	-0.3605031
61	0xbf3fe4c4	-0.74958444
62	0xbf6afbf3	-0.91790694
63	0xbef0c9c3	-0.47028932
64	0xbd89acc6	-0.06722407
65	0xbdb86922	-0.090044275
66	0xbe1b5f67	-0.15173112
67	0x3e14b51b	0.14522211
68	0xbd7dec53	-0.061992954
69	0x3dbeb5a8	0.09311992
70	0x3e3b2982	0.18277553
71	0x3bc316b3	0.0059536337
72	0x3e202241	0.15638067
73	0x3d0c37ee	0.034233026
74	0xbc4d5c85	-0.012534265
75	0x3e83a83f	0.257143
76	0xbcce3e4e	-0.025176194
77	0x3c98f8d6	0.018673342
78	0xbe8e21ff	-0.27760312
79	0xbde33c50	-0.11095488
80	0x3d139ca9	0.036038075
81	0x3c1f6414	0.00972845
82	0xbe167e11	-0.14696528
83	0xbe37085f	-0.17874287
84	0xbd2af639	-0.041738722
85	0xbe5c3d1c	-0.21507686
86	0xbe45f110	-0.1933024
87	0xbe5fbb12	-0.21848705
88	0x3e280105	0.16406639
89	0xbdc91a80	-0.098195076
90	0x3c8bbdfa	0.017058361
91	0x3e95e73b	0.29277977
92	0x3d95c319	0.073126025
93	0x3d114777	0.035468545
94	0x3e869fb0	0.26293707
95	0xbdf8fc87	-0.12157541

dense.1.fn.net.0.weight f4 [64, 64]
0	0x3dca39e9	0.09874327
1	0xbd5b4f8e	-0.053542666
2	0x3c985c46	0.018598687
3	0xbe6637ff	-0.22482298
4	0xbd8d7c57	-0.069084816
5	0xbe837050	-0.25671625
6	0xbe2d4214	-0.16919738
7	0x3d3ee276	0.04660269
8	0xbd670f78	-0.056411237
9	0xbe06258a	-0.13100258
10	0x3d602748	0.05472496
11	0x3e3de957	0.18546043
12	0xbd13cb3e	-0.0360825
13	0x3d533b01	0.051569942
14	0xbe2f0712	-0.17092541
15	0xbdc48c89	-0.095971175
16	0x3e31a635	0.17348559
17	0x3e12f6eb	0.14352004
18	0x3e56298e	0.2091429
19	0xbda75e2f	-0.08172261
20	0xbe2b3a6f	-0.1672151
21	0x3c697c2a	0.014250794
22	0xbdb192cd	-0.08670578
23	0xbdbddf10	-0.092710614
24	0x3e72e2d4	0.2371934
25	0x3e1e7ffd	0.15478511
26	0xbe027697	-0.12740551
27	0x3e4a5d15	0.1976207
28	0xbe2beed4	-0.16790324
29	0x3dc4689d	0.09590266
30	0x3e3d2e2b	0.18474643
31	0xbe2abf6a	-0.16674581
32	0xba8604e6	-0.0010224849
33	0x3e3615bc	0.17781729
34	0xbda80820	-0.08204675
35	0xbd795751	-0.060874287
36	0xbe2078bf	-0.15671061
37	0x3e4ab1f5	0.19794448
38	0xbc0e55b7	-0.008687428
39	0xbe293d63	-0.16527323
40	0x3c680f11	0.014163748
41	0x3df82ed6	0.12118308
42	0x3e100d28	0.14067519
43	0x3e11d553	0.14241533
44	0xbdafeba8	-0.0858987
45	0x3d21af41	0.039473776
46	0xbc249f01	-0.010047675
47	0xbbd4fb3d	-0.0064996765
48	0xbc4dec79	-0.0125685865
49	0x3d2cf5fc	0.042226776
50	0x3c38825d	0.01126155
51	0xbe081e61	-0.13292839
52	0xbd26d443	-0.040729772
53	0x3dc08858	0.094010055
54	0x3db475f6	0.08811562
55	0xbe1979cb	-0.14987867
56	0x3cb332f3	0.02187488
57	0xbd529d6d	-0.051419664
58	0xbdf974d2	-0.12180485
59	0x3e262c98	0.16227949
60	0x3e0eee32	0.13958052
61	0x3d7790a0	0.06044066
62	0x3c64cf88	0.013965495
63	0x3e11e605	0.14247902
64	0xbe95e21d	-0.29274073
65	0xbd87dc98	-0.06633872
66	0x3db5ab71	0.088705905
67	0xbc818bfe	-0.015813824
68	0x3e295143	0.16534905
69	0xbe109d26	-0.14122447
70	0x3df59f04	0.119932204
71	0xbe5211b9	-0.20514573
72	0xbde8d641	-0.11368991
73	0xbc1347b1	-0.0089892605
74	0xbe99f315	-0.3006827
75	0x3c75d1fb	0.0150036765
76	0x3ae145f7	0.0017186989
77	0xbe436299	-0.19080581
78	0xbd848268	-0.064701855
79	0xbd801856	-0.06254642
80	0xbd9dd61f	-0.07706856
81	0xbe5695c3	-0.20955567
82	0xbe453be6	-0.1926113
83	0x3e86081c	0.26178062
84	0xbd6792eb	-0.056536596
85	0x3ce22633	0.027606105
86	0xbd7f1636	-0.06227704
87	0x3d845298	0.06461066
88	0xbd4fa4e2	-0.050694354
89	0xbdf2af8e	-0.11849891
90	0x3e3c0fc8	0.18365395
91	0x3cbee982	0.023304705
92	0x3e877c7e	0.26462168
93	0xbd3d1de3	-0.04617108
94	0xbe275796	-0.16342005
95	0x3e47307e	0.19452092
96	0xbdb00ac5	-0.08595804
97	0xbd3bbef1	-0.045836393
98	0x3d4efe0b	0.050535243
99	0xbc01de2a	-0.007926503
100	0xbd838b69	-0.06423075
101	0xbd019bac	-0.0316426
102	0xbd678f81	-0.05653334
103	0xbcb9bf45	-0.022674212
104	0xbe433a51	-0.19065215
105	0xbd28c013	-0.0411988
106	0xbd1aba6a	-0.037775435
107	0xbca97420	-0.020685256
108	0xbb5479dd	-0.003242127
109	0xbd94ba60	-0.07262111
110	0x3b0ec84f	0.0021786874
111	0x3be9d6f5	0.0071362206
112	0xbd3bf162	-0.045884497
113	0x3e34f005	0.17669685
114	0x3d154efc	0.03645228
115	0xbd8ee9ef	-0.06978213
116	0x3d6df3d1	0.05809385
117	0xbd229141	-0.039689306
118	0xbd8605c4	-0.065440685
119	0xbc6e2fdb	-0.014537777
120	0x3e0b262a	0.13588777
121	0xbc59bb4a	-0.013289282
122	0x3c33dd84	0.010978106
123	0x3e04c85a	0.12967053
124	0xbdec03b0	-0.11524141
125	0xbd408802	-0.047004707
126	0xbe085638	-0.1331414
127	0x3d37b1a4	0.044847146
128	0xbeadc194	-0.3393675
129	0xbe7efc00	-0.24900818
130	0x3e911bfd	0.28341666
131	0x3e2a70d6	0.16644606
132	0x3d2ec84c	0.042671487
133	0x3e28730a	0.16450134
134	0x3cb5786a	0.022152144
135	0xbda992cc	-0.082799524
136	0x3e245384	0.16047484
137	0x3dff6b6d	0.12471662
138	0xbe3ac6ef	-0.1823995
139	0xbbac29d6	-0.0052540107
140	0x3db58ed7	0.08865135
141	0xbddfb7d8	-0.10923737
142	0x3e2086b9	0.15676393
143	0x3dd8c849	0.10585076
144	0xbe5f1a35	-0.21787341
145	0xbeb044f5	-0.3442761
146	0xbddf0b09	-0.10890777
147	0x3e04943d	0.12947173
148	0x3e830ca0	0.2559557
149	0xbda53fc1	-0.08068801
150	0x3c815c48	0.015791073
151	0x3dfab828	0.12242156
152	0xbe25a160	-0.16174841
153	0xbe5ff4fa	-0.21870795
154	0x3e0c4125	0.13696726
155	0xbe3156a7	-0.17318211
156	0x3e4b60ed	0.19861193
157	0xbe241645	-0.1602412
158	0xba80a7a2	-0.0009815583
159	0x3dbb96c0	0.09159613
160	0x3e1e6747	0.15469085
161	0x3d768d1f	0.060193177
162	0x3cd386f0	0.02582118
163	0x3d131ac2	0.03591419
164	0x3c7f7109	0.0155909145
165	0x3c131ea7	0.008979476
166	0x3bc42522	0.005985872
167	0xbd053b8b	-0.032527488
168	0x3c354ca1	0.011065633
169	0xbdd9ea03	-0.10640337
170	0x3c17d475	0.009266962
171	0x3deb1f77	0.11480611
172	0xbd0ad339	-0.033892844
173	0x3daea579	0.08527655
174	0x3d789e71	0.060697976
175	0xbc71036b	-0.014710288
176	0xbc675f3e	-0.014121829
177	0x3d9534d6	0.07285468
178	0x3bf0bddb	0.0073468513
179	0xbd6a2904	-0.05716802
180	0x3e676334	0.22596437
181	0xbc1a8af5	-0.009432544
182	0x3d0a1cbf	0.03371882
183	0x3dfa3466	0.122170255
184	0x3cc02a6c	0.023457728
185	0x3d6604f3	0.056157064
186	0xbd4b0b63	-0.049571406
187	0x3c3206a0	0.010865837
188	0x3ddd581e	0.10807823
189	0x3c25f10e	0.010128273
190	0x3d019db8	0.031644553
191	0xbda0fa73	-0.078602694
192	0xbe189c4f	-0.14903377
193	0xbdeca604	-0.115551025
194	0x3dad8e13	0.08474364
195	0x3dc22068	0.09478837
196	0xbcbf9d46	-0.023390424
197	0x3e3b58a9	0.1829554
198	0x3dbb5b3b	0.0914826
199	0x3cc68aab	0.024236044
200	0x3db2ee38	0.08736843
201	0x3d5cf53a	0.053944804
202	0xbdca2863	-0.098709844
203	0xbdbc0c9b	-0.09182092
204	0x3dc8d9eb	0.098071896
205	0x3d7959db	0.06087671
206	0x3dd2d5a5	0.10294656
207	0x3d739ebf	0.059477564
208	0xbe59488b	-0.21219079
209	0xbd414c93	-0.047192167
210	0xbe379a3d	-0.17929931
211	0x3bb97a55	0.005660335
212	0x3e100c2b	0.14067142
213	0x3d9b755a	0.075907424
214	0x3c24934d	0.010044885
215	0x3ded45a8	0.115855515
216	0xbe22ad61	-0.15886451
217	0xbddefe91	-0.108883984
218	0x3d9af1c4	0.075656444
219	0xbd81419c	-0.06311342
220	0x3d948417	0.07251757
221	0xbe106718	-0.14101827
222	0xbd35724c	-0.044298455
223	0xbcc9398b	-0.024563571
224	0xbd2ea702	-0.04263974
225	0xbd238a14	-0.039926603
226	0x3d117344	0.035510316
227	0x3d2c6514	0.042088583
228	0x3e2660e8	0.16247904
229	0xbe924fe7	-0.28576586
230	0xbd1710f1	-0.03688139
231	0x3e0e803c	0.13916105
232	0xbe16899a	-0.14700928
233	0xbdfcd745	-0.12345747
234	0xbcd6a7ef	-0.026203124
235	0xbdd0aad4	-0.10188833
236	0x3d9f434b	0.07776507
237	0x3e078090	0.13232636
238	0x3c909a17	0.0176516
239	0x3d6ec2ac	0.058291122
240	0x3d220c31	0.039562408
241	0x3d63ab9d	0.055583585
242	0x3d9750fc	0.073884934
243	0x3dce658a	0.10077961
244	0x3dd65f28	0.10467368
245	0x3c591aca	0.013251016
246	0xbc6d3018	-0.0144767985
247	0x3dfc772e	0.12327419
248	0x3cbe2631	0.02321157
249	0x3dc8bcce	0.09801637
250	0x3e06a7f4	0.13150007
251	0xbe00fd99	-0.1259674
252	0x3d032a25	0.032022614
253	0x3c9a2158	0.018814728
254	0xbc22568f	-0.0099083325
255	0x3cc67837	0.024227245

dense.1.fn.net.0.bias f4 [64]
0	0xbdd09adc	-0.10185787
1	0x3da443eb	0.08020767
2	0xbf320108	-0.69532824
3	0x3db7d99d	0.08977053
4	0x3dbd94e4	0.09256914
5	0x3dbb4944	0.09144834
6	0x3df5786d	0.1198586
7	0x3dea5756	0.11442439
8	0x3dda0f54	0.10647455
9	0x3de9bfd1	0.11413539
10	0x3aa7de9e	0.0012807434
11	0xbd31b129	-0.043381844
12	0xbd53bb03	-0.05169202
13	0xbe0140ef	-0.12622426
14	0x3db01cf6	0.08599274
15	0xbee67970	-0.45014524
16	0x3dca8e22	0.09890391
17	0x3dc5de30	0.096615195
18	0x3dcf86f7	0.101331644
19	0x3de6ca20	0.11269021
20	0x3db59663	0.088665746
21	0x3dd0be79	0.1019258
22	0xbd422a40	-0.047403574
23	0xbd6828b1	-0.05667943
24	0xbe8bdaf4	-0.27315485
25	0xbc9ac39e	-0.018892106
26	0xbed3227f	-0.41237256
27	0xbf4160b0	-0.7553816
28	0x3ddf9d9a	0.10918732
29	0x3dfbe032	0.12298621
30	0x3dfb8bba	0.1228251
31	0x3dc4460b	0.09583672
32	0xbdd9e78e	-0.10639869
33	0x3dee7532	0.11643447
34	0x3dc700e2	0.09716965
35	0x3dde38fc	0.10850713
36	0x3df7cfc4	0.12100175
37	0x3db66661	0.08906246
38	0x3dafca5f	0.08583521
39	0x3de8b6c1	0.113629825
40	0x3e03cc9f	0.12871026
41	0x3dd374fd	0.10325048
42	0xbdbf90e3	-0.09353807
43	0xbe117f24	-0.14208657
44	0x3dd6b373	0.10483446
45	0x3db79369	0.08963663
46	0x3dd7b4b6	0.10532515
47	0x3dcf6cc5	0.10128168
48	0x3cce281a	0.025165606
49	0x3de6e328	0.11273795
50	0x3dd912cb	0.105992876
51	0xbd39d18b	-0.04536585
52	0x3dc99568	0.0984295
53	0x3dd12994	0.102130085
54	0x3dc0b47a	0.09409423
55	0xbe10ff9e	-0.1416001
56	0x3b10e445	0.0022108715
57	0xbd589a0e	-0.052881293
58	0x3dcf4259	0.10120077
59	0x3c593ec3	0.0132595925
60	0xbdd8284e	-0.105545625
61	0x3e062873	0.13101368
62	0xbc4edda6	-0.012626087
63	0x3dfde0e5	0.12396411
